model_zoo/team29_clrfdn.pth (torch, 746598 bytes, 126 tensors)

module.fea_conv.conv3x3.weight f4 [32, 3, 3, 3]
0.010046905 0.043130383 0.010608831 0.08375379 0.1301995 0.104933456 0.026731314 0.06974375
-0.004101085 0.0017991742 0.032728236 -0.0040911473 0.07850799 0.0050648428 0.071586825 0.05362416
0.12677772 0.056392632 -0.06429432 -0.111122504 -0.023142781 -0.14846511 -0.09999666 -0.112880506
-0.05597653 -0.12774509 -0.053185202 -0.039339706 -0.012150789 -0.030209782 0.061546624 -0.24811575
0.12411554 -0.007812367 0.15106627 -0.017491726 -0.007735817 -0.040272463 -0.0019865073 -0.01887676
-0.1276055 0.03885448 0.039574385 0.07343267 0.06881171 0.059572794 0.05078841 0.008093018
-0.024271484 0.37063497 -0.17740457 -0.031840242 -0.23633067 -0.022033416 -0.030534491 0.044334225
0.03466533 0.06951032 -0.23778923 -0.019957753 -0.016030395 0.098997556 0.01763705 0.047897477
0.16369809 -0.049280137 0.13631961 -0.43428773 -0.102134496 0.061207224 0.16182537 -0.005999344
-0.06154781 -0.028551335 0.0110275 -0.20684297 0.40607435 0.10363289 -0.03974919 -0.13424082
0.0062819263 -0.09651923 -0.22077309 -0.017383264 0.008679297 0.18266903 -0.0007874388 0.05914521
0.06119111 0.02251179 0.15149897 0.28810835 0.11872536 0.139617 -0.47261277 0.0016843949
-0.013526228 -0.13674742 -0.079396926 -0.018683651 -0.11224854 -0.10352153 -0.18261583 0.25844154
0.030668039 -0.03222389 0.092457965 0.06280479 -0.03148687 -0.08492885 -0.038201075 -0.14790063
0.252098 -0.010821871 -0.015409395 0.022582563 0.06052414 0.08290983 0.2181516 0.061763376
-0.00805014 -0.4707253 0.03545331 0.024122052 0.059608094 -0.017962245 0.01213733 -0.18693905
-0.001442205 0.029616598 0.32609004 -0.049700946 0.055489346 -0.17650677 -0.0019261981 -0.02288625
-0.0734937 -0.04844898 0.037194375 0.15588722 -0.052376743 0.008651326 0.005199068 -0.026977662
-0.07525533 0.16942903 0.04900127 -0.15777336 -0.14366484 0.18677284 -0.06777741 -0.045436278
0.09155344 0.060248412 -0.023277743 -0.026181849 0.14303976 -0.0068582 -0.16077547 0.07027625
-0.00908927 -0.04041081 0.03964144 0.13780509 0.001223665 0.060396828 -0.23479454 -0.054486446
0.08112114 -0.019582562 -0.0023422283 -0.0017317561 -0.056938548 0.008346757 -0.042889427 0.23877347
-0.014348681 -0.041077025 -0.13608833 0.015333567 -0.052760463 0.05750479 -0.03093073 -0.06759216
0.05881382 0.024583127 0.038282022 0.009665636 0.006005397 -0.018159762 -0.10032859 -0.07643134
0.064294435 0.1921567 -0.09169961 0.05591793 -0.003745252 -0.04214178 -0.0019997237 0.17359097
-0.0008650402 -0.0061362586 -0.12566334 0.040394805 -0.025802184 -0.10314556 0.06505216 -0.003824392
-0.06175024 0.058675624 -0.09469209 -0.02502573 0.11648065 0.0055987225 -0.027155299 0.030689923
-0.004399108 0.045292854 0.011747186 -0.07138162 0.08559702 -0.06863745 0.05440707 -0.095552295
0.016418606 -0.020525098 -0.032907702 -0.009788929 0.073569626 -0.13895619 0.08767672 0.026579833
0.036331616 -0.0069056964 -0.0059436727 0.011659508 0.009756922 0.02406099 0.06556436 -0.07171768
-0.10620898 0.06471877 0.00977497 0.046482835 0.14689805 0.045563623 -0.14453393 0.22649689
-0.058258582 -0.08104022 -0.14918101 -0.029962212 0.010237775 -0.13579382 0.032789256 0.1401539
00000000: c69b 243c 7ca9 303d aad0 2d3c 1b87 ab3d
00000010: 0553 053e 5ae7 d63d a1fb da3c d0d5 8e3d
00000020: 6562 86bb 45d2 eb3a 0b0e 063d 080f 86bb
00000030: ccc8 a03d fbf6 a53b 1d9c 923d 02a5 5b3d
00000040: 05d2 013e f6fb 663d beac 83bd 3294 e3bd
00000050: ee95 bdbc 3d07 18be 0dcb ccbd e52d e7bd
00000060: a547 65bd 9ccf 02be bad8 59bd ac22 21bd
00000070: 1a14 47bc 817a f7bc 5018 7c3d 0e12 7ebe
00000080: 4a30 fe3d e2fe ffbb 1eb1 1a3e cf4a 8fbc
00000090: bd7c fdbb bdf4 24bd 1030 02bb 6fa3 9abc
000000a0: 04ab 02be e025 1f3d c018 223d de63 963d
000000b0: 27ed 8c3d 9a02 743d 8207 503d 9498 043c
000000c0: fed4 c6bc dec3 bd3e 8ba9 35be ea6a 02bd
000000d0: ab00 72be 6c7f b4bc 7823 fabc ce97 353d
000000e0: 3cfd 0d3d 6d5b 8e3d 057f 73be 717e a3bc
000000f0: 2d52 83bc 3bbf ca3d 937b 903c 2530 443d
00000100: 79a0 273e f8d9 49bd 5e97 0b3e f65a debe
00000110: e42b d1bd 6db4 7a3d 8db5 253e 2596 c4bb
00000120: 8e19 7cbd 7de4 e9bc b0ac 343c a5ce 53be
00000130: fae8 cf3e 7b3d d43d 0cd0 22bd 6d76 09be
00000140: 9ed8 cd3b e0ab c5bd 5712 62be 5967 8ebc
00000150: 9c33 0e3c 970d 3b3e 206c 4eba 3f42 723d
00000160: 88a3 7a3d a56a b83c 8c22 1b3e f082 933e
00000170: 4826 f33d c2f7 0e3e 4dfa f1be eac6 dc3a
00000180: 1d9d 5dbc 8407 0cbe db9a a2bd 750e 99bc
00000190: 90e2 e5bd 1903 d4bd a5ff 3abe 7352 843e
000001a0: 8a3b fb3c 33fd 03bd 9a5a bd3d cc9f 803d
000001b0: 60f8 00bd 2def adbd bb78 1cbd 4373 17be
000001c0: fd12 813e 384e 31bc b077 7cbc 11ff b83c
000001d0: 29e8 773d a1cc a93d 2263 5f3e 98fb 7c3d
000001e0: bce4 03bc e802 f1be 7d37 113d 9c9b c53c
000001f0: 9e27 743d 8f25 93bc a7db 463c f36c 3fbe
00000200: 5f08 bdba 829e f23c 46f5 a63e 3893 4bbd
00000210: cc48 633d 31be 34be 7c78 fcba f27b bbbc
00000220: dd83 96bd 7072 46bd 2159 183d e6a0 1f3e
00000230: ff88 56bd 4bbe 0d3c f25c aa3b 4200 ddbc
00000240: 771f 9abd ce7e 2d3e 8eb5 483d 578f 21be
00000250: e01c 13be 6141 3f3e e2ce 8abd 641b 3abd
00000260: 5f80 bb3d 0ac7 763d f7b0 bebc 517b d6bc
00000270: 0479 123e c0ba e0bb 53a2 24be ffec 8f3d
00000280: 29eb 14bc ce85 25bd 105f 223d c71c 0d3e
00000290: 6263 a03a aa62 773d fb6d 70be 2e2d 5fbd
000002a0: d722 a63d 9c6b a0bc 1280 19bb 18fc e2ba
000002b0: 6538 69bd d6c0 083c d3ac 2fbd 0881 743e
000002c0: bb16 6bbc 6240 28bd bd5a 0bbe a439 7b3c
000002d0: 5b1b 58bd 258a 6b3d 7162 fdbc c26d 8abd
000002e0: c3e6 703d 8e62 c93c 9ccd 1c3d 9e5c 1e3c
000002f0: ecc8 c43b c8c3 94bc 1379 cdbd 0988 9cbd
00000300: cdac 833d bac4 443e 01cd bbbd 330a 653d
00000310: e772 75bb dc9c 2cbd cc0d 03bb d5c1 313e
00000320: ddc3 62ba ab12 c9bb e4ad 00be 0675 253d
00000330: 1a5f d3bc fb3d d3bd 113a 853d a7a2 7abb
00000340: d2ed 7cbd da55 703d eded c1bd c202 cdbc
00000350: 688d ee3d 7d75 b73b ca74 debc 6f69 fb3c
00000360: 6426 90bb 0085 393d 4577 403c 8730 92bd
00000370: 7e4d af3d cb91 8cbd f3d9 5e3d ecb0 c3bd
00000380: 5080 863c 4024 a8bc 3aca 06bd be61 20bc
00000390: acab 963d 884a 0ebe da8f b33d f3bd d93c
000003a0: 76d0 143d 2e49 e2bb 24c3 c2bb 8507 3f3c
000003b0: 7fdb 1f3c 8e1b c53c 9b46 863d b8e0 92bd
000003c0: 1884 d9bd 468b 843d 3227 203c c964 3e3d
000003d0: 716c 163e eca0 3a3d b400 14be cdee 673e
000003e0: 8da0 6ebd 6af8 a5bd e8c2 18be 5073 f5bc
000003f0: 57bc 273c 890d 0bbe 074e 063d 8184 0f3e

module.fea_conv.conv3x3.bias f4 [32]
-0.08995094 -4.7539663 -1.1506985 1.2669543 -0.8875338 0.39327073 -4.4922357 1.2994611
1.5037818 2.6165144 0.9422468 0.07226574 -0.11406748 -0.15822215 3.1370156 0.30546176
0.051345613 -0.4807109 -0.3387328 -3.3830495 1.0329572 -2.493745 0.28334418 -2.2951145
-1.0153819 -3.414554 0.2146393 -0.059297327 -0.16874915 -0.26212636 0.50267726 -0.6113928
00000000: 3338 b8bd 7e20 98c0 174a 93bf 8f2b a23f
00000010: 6a35 63bf c85a c93e 65c0 8fc0 be54 a63f
00000020: ec7b c03f f974 2740 1637 713f 0f00 943d
00000030: 369c e9bd fd04 22be ddc4 4840 7c65 9c3e
00000040: c74f 523d bd1f f6be 636e adbe e283 58c0
00000050: f137 843f 8599 1fc0 7d12 913e 28e3 12c0
00000060: 09f8 81bf 0e88 5ac0 68ca 5b3e c1e1 72bd
00000070: 94cc 2cbe 6d35 86be 75af 003f 3d84 1cbf

module.B1.c1_d.weight f4 [16, 32, 1, 1]
0.30949494 -0.22066924 0.0020043512 -0.015271524 0.0853304 0.04133004 -0.0825402 0.017446168
-0.0044472795 0.079760455 0.097759835 0.053130582 -0.038656957 0.012963437 -0.0025009532 -0.19715364
-0.060960494 0.025038732 -0.03413963 -0.10045108 0.18042253 -0.045024667 -0.34066364 0.036124986
-0.07648304 -0.090998776 -0.07861682 -0.023710359 -0.0473507 0.09557262 -0.074759066 0.06375546
0.026286157 -0.07666833 -0.044798292 -0.10757908 0.2800153 -0.0958976 -0.21929824 0.124055944
0.0056648264 -0.0061811353 -0.20166034 0.02940816 -0.12861378 -0.119853765 -0.112630285 0.02748773
-0.07810242 -0.15462214 -0.093578 0.07993124 0.0021031047 0.23445246 0.0030900377 -0.16319329
-0.10772589 -0.1625992 0.037297048 0.11840119 0.25635764 0.042923633 0.26888138 0.1613517
0.05697664 -0.13398579 -0.22740081 -0.049023915 -0.08282101 -0.09429596 -0.18094328 -0.030209487
0.07221153 0.012052536 0.15544441 -0.00029826767 0.074173324 -0.05622565 0.01500895 -0.026559524
-0.057147745 0.0021964554 0.067059495 -0.09459385 0.2748251 -0.027652076 -0.015332288 -0.021701049
0.10669571 -0.12980844 -0.12965406 -0.06273085 -0.048559636 0.1381763 0.19850117 -0.03377156
-0.01820221 -0.14577723 -0.16173829 -0.05979877 -0.08251489 -0.069847375 -0.14364943 0.12655155
-0.005451895 -0.067134075 0.0044624717 -0.013204594 0.0055914703 0.004975238 -0.00658997 0.022822632
-0.09460114 -0.07039775 -0.014694529 -0.073772065 -0.10871221 0.09890127 0.00025172206 -0.011611635
0.14582787 -0.16740356 -0.21496797 -0.09984367 0.006019938 0.116573535 0.18659557 0.11567917
0.003615314 -0.09133072 0.15700604 0.055618085 0.09506018 -0.017152037 0.00278287 0.028764555
0.052101407 0.11515165 -0.100576535 0.011475024 -0.05237475 0.15104933 -0.045532092 -0.0026576652
-0.16641651 0.16767417 -0.09244385 -0.0643445 -0.013528243 0.064816386 -0.0009558885 0.03816231
-0.01667141 -0.0041255187 -0.20094848 0.1295711 -0.041803256 0.028662276 0.1226428 -0.0017414116
-0.091774516 -0.21611837 -0.058466084 -0.0024413355 0.030597635 -0.020433456 -0.13449708 -0.1311074
-0.007614574 0.0026831708 0.023109632 -0.02462173 0.046523847 0.040902082 -0.022475813 0.0699847
0.09373947 0.053020213 -0.10940966 0.0025163935 -0.08693539 0.061739814 -0.01748327 0.05965027
-0.012946855 -0.12507132 0.008005149 -0.03827605 -0.05395486 -0.2848678 -0.15591446 0.30715093
-0.039566834 -0.54556704 -0.057542924 -0.09322421 0.15192094 0.058211423 -0.08516218 0.08366047
0.5989058 0.00918704 -0.16209325 -0.053531434 0.00703669 0.034879997 0.10098579 0.05476201
-0.0752593 -0.2407999 -0.16923036 0.014671902 0.15725048 0.1566119 0.09428954 -0.40257937
0.1100772 0.0038040332 0.24241348 -0.20761305 0.112907045 -0.024498811 0.11980298 0.24636324
-0.1212633 0.056523543 -0.2007812 0.0145068765 -0.036460128 0.2644303 -0.21287708 0.14701614
-0.017279707 -0.29345244 -0.35988706 0.18412031 0.119400844 -0.061954822 -0.0935418 -0.04139789
-0.086043246 -0.25816128 0.07888264 0.007040218 0.10979633 0.1261578 0.38854763 -0.320699
0.2310831 -0.08980861 -0.2591969 -0.28047433 -0.031331062 -0.24731088 0.4555286 0.28298327
00000000: 1f76 9e3e 1ef7 61be 6f5b 033b 6a35 7abc
00000010: b4c1 ae3d b049 293d d60a a9bd 44eb 8e3c
00000020: 7cba 91bb 7359 a33d 4f36 c83d 749f 593d
00000030: c256 1ebd 9864 543c 08e7 23bb a5e2 49be
00000040: b6b1 79bd 071e cd3c ffd5 0bbd 4cb9 cdbd
00000050: afc0 383e c96b 38bd 776b aebe cbf7 133d
00000060: 24a3 9cbd 915d babd db01 a1bd 3a3c c2bc
00000070: cff2 41bd 94bb c33d 481b 99bd 3992 823d
00000080: 1156 d73c 4904 9dbd 6a7e 37bd 6c52 dcbd
00000090: 2a5e 8f3e f665 c4bd b88f 60be 0b11 fe3d
000000a0: 02a0 b93b 1f8b cabb 0c80 4ebe 62e9 f03c
000000b0: 55b3 03be e475 f5bd b5aa e6bd f32d e13c
000000c0: 29f4 9fbd 4455 1ebe d3a5 bfbd fdb2 a33d
000000d0: 3ed4 093b 4e14 703e 3b82 4a3b 241c 27be
000000e0: 649f dcbd 6880 26be cac4 183d 537c f23d
000000f0: 4f41 833e b1d0 2f3d d2aa 893e 6139 253e
00000100: 5660 693d 9233 09be c2db 68be 4dcd 48bd
00000110: 109e a9bd 3e1e c1bd 3249 39be e379 f7bc
00000120: a3e3 933d 0078 453c d22c 1f3e cf60 9cb9
00000130: 2fe8 973d de4c 66bd 19e8 753c 5c93 d9bc
00000140: c113 6abd 68f2 0f3b 7d56 893d 6cba c1bd
00000150: e0b5 8c3e 9b86 e2bc 4734 7bbc 66c6 b1bc
00000160: 4883 da3d 81ec 04be 09c4 04be 0879 80bd
00000170: 78e6 46bd 177e 0d3e e443 4b3e 0c54 0abd
00000180: cd1c 95bc a046 15be b99e 25be 8eef 74bd
00000190: 91fd a8bd 240c 8fbd d618 13be bb96 013e
000001a0: cfa5 b2bb 977d 89bd ed39 923b 1558 58bc
000001b0: a738 b73b 5207 a33b adf0 d7bb 87f6 ba3c
000001c0: 3ebe c1bd b22c 90bd 52c1 70bc cf15 97bd
000001d0: 82a4 debd c08c ca3d 90f9 8339 ba3e 3ebc
000001e0: e753 153e d76b 2bbe 9020 5cbe d77a ccbd
000001f0: e642 c53b 1bbe ee3d e912 3f3e 33e9 ec3d
00000200: e7ee 6c3b 9a0b bbbd 31c6 203e cacf 633d
00000210: e9ae c23d 6e82 8cbc d060 363b a5a3 eb3c
00000220: 4968 553d a1d4 eb3d 12fb cdbd bd01 3c3c
00000230: e886 56bd adac 1a3e dc7f 3abd 392c 2ebb
00000240: 1769 2abe c7b2 2b3e 3453 bdbd 0dc7 83bd
00000250: 90a5 5dbc 74be 843d 9794 7aba 1550 1c3d
00000260: 7b92 88bc 5c2f 87bb 70c5 4dbe 49ae 043e
00000270: e439 2bbd 26cd ea3c 262c fb3d 1440 e4ba
00000280: 47f4 bbbd 224e 5dbe 227a 6fbd d0fe 1fbb
00000290: e4a7 fa3c 1064 a7bc 9ab9 09be 0541 06be
000002a0: ad83 f9bb 23d8 2f3b 6950 bd3c 83b3 c9bc
000002b0: ca8f 3e3d f188 273d 321f b8bc 2354 8f3d
000002c0: 7bfa bf3d b92b 593d 2c12 e0bd 14ea 243b
000002d0: 2f0b b2bd e3e2 7c3d 1339 8fbc d753 743d
000002e0: 0c1f 54bc b212 00be 0728 033c 59c7 1cbd
000002f0: c5ff 5cbd 31da 91be 0aa8 1fbe e342 9d3e
00000300: d510 22bd 48aa 0bbf 21b2 6bbd 56ec bebd
00000310: 2a91 1b3e 1a6f 6e3d 8269 aebd 2e56 ab3d
00000320: e451 193f 3d85 163c c6fb 25be c743 5bbd
00000330: 0994 e63b 54de 0e3d a3d1 ce3d 214e 603d
00000340: 8c21 9abd 4094 76be b94a 2dbe 6b62 703c
00000350: 4506 213e df5e 203e e01a c13d e21e cebe
00000360: 2870 e13d 164d 793b 3d3b 783e 8498 54be
00000370: cf3b e73d bbb1 c8bc 445b f53d a546 7c3e
00000380: e558 f8bd 3b85 673d 9699 4dbe 40ae 6d3c
00000390: 3757 15bd 6963 873e 73fc 59be 668b 163e
000003a0: 2c8e 8dbc 663f 96be 1e43 b8be 098a 3c3e
000003b0: 6e88 f43d 57c4 7dbd d892 bfbd d590 29bd
000003c0: 7137 b0bd b72d 84be 398d a13d a1b1 e63b
000003d0: e6dc e03d 832f 013e b7ef c63e a932 a4be
000003e0: 0ca1 6c3e 94ed b7bd 75b5 84be 559a 8fbe
000003f0: 0055 00bd 103f 7dbe 0b3b e93e 2fe3 903e

module.B1.c1_d.bias f4 [16]
0.93047345 -0.55871516 3.2989738 1.3092695 1.9198775 1.6527039 0.21890192 -0.3634519
2.1839998 1.0536731 0.88048875 1.9953203 -0.27747053 -0.75446135 0.49497348 1.3344024
00000000: 8233 6e3f f507 0fbf 6322 5340 2596 a73f
00000010: 8cbe f53f cd8b d33f d327 603e 5e16 babe
00000020: a7c6 0b40 c3de 863f b667 613f a866 ff3f
00000030: 9e10 8ebe 6124 41bf 2a6d fd3e b3cd aa3f

module.B1.c1_r.conv3x3.weight f4 [32, 32, 3, 3]
-0.036158327 -0.05600504 -0.055728048 0.07199039 1.0184888 -0.04106475 -0.09646414 -0.0763174
-0.03989754 0.37094483 -0.08076478 0.30616572 -0.22430156 -0.8266868 -0.10842307 0.43831283
0.22438197 0.32535648 0.09857362 0.13980365 0.0062881606 -0.010271596 -0.006919476 -0.115455806
-0.0069981716 0.1226077 -0.015064104 0.02927081 0.17249964 -0.17937562 0.044376906 0.052535895
-0.036248967 -0.051732387 0.034727026 -0.10038093 -0.18169843 0.06502939 0.11234889 -0.0356455
-0.32915196 0.420028 -0.22006078 0.09983414 0.17309108 0.08177733 0.05162964 -0.052084267
0.040623117 -0.11033232 0.316761 0.07593279 -0.063972235 -0.2993132 0.28218266 0.025031157
0.29605106 -0.2523506 -0.014523733 -0.049824856 0.15820202 -0.11079404 0.2848183 -0.07280864
-0.052679706 -0.06950175 0.0969786 0.2823468 -0.13000578 0.11931484 0.12622228 -0.18896435
-0.059186883 0.1490851 -0.13960566 0.22714569 0.20270085 -0.1287796 -0.13019349 0.18215463
-0.18677106 -0.0006144933 0.048712682 -0.16430946 0.39844003 -0.23840669 0.003401877 0.0012501547
0.08960304 -0.19407189 0.0071832077 0.010835236 -0.038047485 0.22644599 0.10273389 0.0021416387
-0.054712787 -0.06773203 -0.18941785 0.064587146 -0.03878412 -0.019868057 0.03201959 -0.020377124
0.03410875 -0.019643545 0.031644948 0.05715472 -0.13348274 -0.12396442 0.103595145 0.06868039
0.4403308 -0.0738534 -0.22649135 0.2307882 -0.12859969 -0.051431846 -0.09287937 0.13636029
0.011617956 -0.25082773 0.18632697 0.1258628 0.20880415 -0.057088647 0.10743217 -0.05371193
-0.093608 0.20806043 0.13341388 0.20223719 -0.09766717 -0.110293806 -0.24283798 -0.11871839
-0.20601498 0.17429908 0.058375645 0.0024632744 -0.06942763 -0.10384141 -0.30070263 0.10833466
-0.049009953 0.06719573 -0.0034232414 -0.07226501 0.087279156 -0.1288985 -0.108929224 0.24945387
-0.09668586 -0.010602955 0.05335232 -0.09646553 -0.14424777 -0.08222138 0.036199942 -0.11422245
-0.059925318 -0.2473743 -0.14209644 0.0076284455 0.21607603 0.045247942 0.3313167 -0.2221637
-0.17807311 -0.20895654 0.24044396 0.04911381 0.15662855 0.134371 -0.1456734 -0.38655683
-0.04316354 0.24883048 0.029166386 0.19161087 -0.047246605 -0.08294382 -0.04972132 -0.031861566
-0.13478713 -0.057230834 0.0042497874 -0.026073856 -0.05683728 0.16112377 -0.072068624 0.47339597
-0.2411777 -0.48492992 -0.17588794 0.13467921 -0.01018143 0.17991422 -0.010677607 -0.04319927
0.05838721 -0.10893984 -0.13364847 0.0077826562 0.052745264 -0.010460741 0.0800811 0.1616547
0.0643461 -0.081122726 -0.047778726 -0.34080464 0.1865765 -0.009543315 0.15658839 0.08363307
0.039533425 0.00034470393 -0.051079404 -0.08752251 -0.11387902 -0.11572712 -0.02461262 -0.107387215
0.25907573 0.16612329 0.24003123 0.034838315 -0.22623113 0.26043555 -0.042216375 0.031545628
0.14172658 0.22759193 0.13895406 -0.27779433 0.14273779 -0.16618752 0.36707088 0.35146767
0.18980384 -0.30830327 0.19633044 0.1005244 0.12432675 0.017551927 -0.054078516 -0.0863676
0.14311405 -0.011867596 0.0070407153 -0.17361003 -0.012775269 -0.0910433 0.010033248 0.10113045
00000000: c11a 14bd 8a65 65bd 1843 64bd b36f 933d
00000010: d75d 823f 8333 28bd fe8e c5bd 4c4c 9cbd
00000020: 9a6b 23bd 7bec bd3e 0168 a5bd c1c1 9c3e
00000030: 4faf 65be bfa1 53bf ea0c debd 8a6a e03e
00000040: 63c4 653e 2095 a63e f7e0 c93d b028 0f3e
00000050: ea0c ce3b 324a 28bc c6bc e2bb 1874 ecbd
00000060: eb50 e5bb bf19 fb3d 6fcf 76bc 56c9 ef3c
00000070: bfa3 303e 3eae 37be 8fc4 353d e12f 573d
00000080: cc79 14bd 57e5 53bd ed3d 0e3d 8494 cdbd
00000090: 270f 3abe 212e 853d 2d17 e63d 0401 12bd
000000a0: 9b86 a8be e90d d73e 9d57 61be d775 cc3d
000000b0: ca3e 313e df7a a73d 9a79 533d 5056 55bd
000000c0: 6d64 263d e9f5 e1bd 7f2e a23e a782 9b3d
000000d0: e003 83bd 943f 99be 3f7a 903e 240e cd3c
000000e0: 0194 973e 1934 81be f4f4 6dbc 2615 4cbd
000000f0: b6ff 213e fce7 e2bd b4d3 913e b21c 95bd
00000100: adc6 57bd ef56 8ebd b79c c63d c38f 903e
00000110: 3c20 05be 575b f43d 6a40 013e df7f 41be
00000120: f26d 72bd c4a9 183e c9f4 0ebe e198 683e
00000130: d090 4f3e cdde 03be 7151 05be be86 3a3e
00000140: ea40 3fbe f315 21ba f386 473d bd40 28be
00000150: 5500 cc3e e220 74be 06f2 5e3b 3bdc a33a
00000160: cc81 b73d c8ba 46be 1d61 eb3b 4686 313c
00000170: aed7 1bbd 75e1 673e 2566 d23d bc5a 0c3b
00000180: 841a 60bd 17b7 8abd c1f6 41be 4446 843d
00000190: 19dc 1ebd 56c2 a2bc f926 033d eded a6bc
000001a0: 9eb5 0b3d 80eb a0bc 229e 013d 111b 6a3d
000001b0: b3af 08be 0fe1 fdbd b129 d43d 4ea8 8c3d
000001c0: 0a73 e13e 7440 97bd 59ed 67be be53 6c3e
000001d0: a3af 03be 33aa 52bd 8a37 bebd 08a2 0b3e
000001e0: 3d59 3e3c 7e6c 80be 7fcc 3e3e 2ee2 003e
000001f0: c1d0 553e c9d5 69bd 6605 dc3d 0a01 5cbd
00000200: 8db5 bfbd cb0d 553e a69d 083e 4417 4f3e
00000210: ba05 c8bd b8e1 e1bd 85aa 78be a122 f3bd
00000220: 97f5 52be 757b 323e 4d1b 6f3d e36e 213b
00000230: 1330 8ebd ceaa d4bd b2f5 99be 90de dd3d
00000240: a9be 48bd ea9d 893d 7658 60bb adff 93bd
00000250: 6abf b23d f8fd 03be 4916 dfbd d670 7f3e
00000260: 3c03 c6bd 04b8 2dbc f687 5a3d b88f c5bd
00000270: b0b5 13be af63 a8bd 6446 143d 76ed e9bd
00000280: 4074 75bd b04f 7dbe bb81 11be 0af8 f93b
00000290: 0943 5d3e e855 393d 58a2 a93e e27e 63be
000002a0: cc58 36be b4f8 55be f136 763e 902b 493d
000002b0: 3c63 203e 8d98 093e 682b 15be c7ea c5be
000002c0: 41cc 30bd 6bcd 7e3e 58ee ee3c a435 443e
000002d0: a885 41bd 73de a9bd 95a8 4bbd 4681 02bd
000002e0: a305 0abe e16a 6abd cd41 8b3b d798 d5bc
000002f0: 35ce 68bd a1fd 243e b798 93bd f560 f23e
00000300: 49f7 76be bc48 f8be f81b 34be 59e9 093e
00000310: 03d0 26bc 6f3b 383e 21f1 2ebc b8f1 30bd
00000320: 6d27 6f3d da1b dfbd 25db 08be a705 ff3b
00000330: 6b0b 583d 8763 2bbc 8f01 a43d cf88 253e
00000340: e3c7 833d ac23 a6bd a0b3 43bd f27d aebe
00000350: e90d 3f3e 905b 1cbc b558 203e d147 ab3d
00000360: cded 213d 61b9 b439 a338 51bd 003f b3bd
00000370: 6739 e9bd 5702 edbd 68a0 c9bc d4ed dbbd
00000380: 93a5 843e 391c 2a3e bfca 753e 9fb2 0e3d
00000390: 22a9 67be cf57 853e 14eb 2cbd fd35 013d
000003a0: c620 113e dc0d 693e f949 0e3e 0f3b 8ebe
000003b0: db29 123e 102d 2abe b7f0 bb3e 92f3 b33e
000003c0: f05b 423e edd9 9dbe d90a 493e bddf cd3d
000003d0: 069f fe3d 0fc9 8f3c 6f81 5dbd 7fe1 b0bd
000003e0: 7d8c 123e 4e70 42bc cdb5 e63b d4c6 31be
000003f0: 5d4f 51bc e974 babd 7e62 243c 7b1d cf3d

module.B1.c1_r.conv3x3.bias f4 [32]
20.548468 6.778804 30.169638 19.297766 12.597489 4.2931523 34.213245 0.8349916
2.5332475 5.646129 0.055686045 -2.556719 4.949309 3.3462455 1.1925715 9.363708
1.7855479 17.462877 -7.959903 -6.1230702 -0.11302858 12.750276 7.1079903 0.7077983
-64.495316 1.6885574 6.986343 22.727104 1.274182 -1.9940015 11.17836 7.362926
00000000: 4363 a441 f6eb d840 6b5b f141 d361 9a41
00000010: 518f 4941 8161 8940 5dda 0842 02c2 553f
00000020: ba20 2240 17ad b440 0d17 643d 49a1 23c0
00000030: bd60 9e40 e328 5640 2fa6 983f bfd1 1541
00000040: d58c e43f f9b3 8b41 86b7 fec0 31f0 c3c0
00000050: 877b e7bd 2101 4c41 a874 e340 4532 353f
00000060: 9afd 80c2 a622 d83f 1f90 df40 1cd1 b541
00000070: 6518 a33f 713b ffbf 90da 3241 179d eb40

module.B1.c2_d.weight f4 [16, 32, 1, 1]
0.011630321 -0.016189462 0.06753277 -0.039235964 0.042548776 0.116852656 -0.094041556 0.111318775
0.117054984 -0.06682539 0.16815284 0.2475562 0.029690543 0.17509241 -0.05625258 0.0024309063
0.19735694 0.087029755 0.038659003 -0.020127038 -0.08418929 0.016103927 -0.00377259 0.017629288
-0.06969624 -0.00039455964 0.00040202017 0.03476499 0.03809209 0.052989997 0.03181974 -0.030459294
-0.043523684 -0.00064447045 0.24619678 0.039184846 -0.16927934 0.014475638 -0.28621855 0.058481954
0.030720126 0.089507625 -0.016813133 -0.031181134 0.026560927 -0.003398871 -0.007743462 0.049245894
0.042048167 0.04314175 0.005588103 0.047497045 0.05823746 -0.08670709 0.040271033 -0.025643956
-0.023103403 0.36998677 0.020261653 0.019136786 0.18473007 0.011791496 0.0041896543 0.006455039
0.105104126 -0.015940428 0.03804288 0.022653172 -0.028315235 0.05740909 0.021246802 0.01385437
-0.008734228 0.07801548 0.022124276 -0.07320259 -0.03270909 -0.31872877 0.0019169642 0.006506924
0.08498847 -0.09508848 0.035550073 -0.057604343 -0.8636487 0.041145205 0.22530375 -0.015934797
0.06565122 0.068528056 -0.0032095262 -0.06436426 -0.08898699 -0.6122503 0.016043784 0.0027441285
-0.035328366 0.017844478 -0.021041425 -0.045758013 0.106947675 0.058724806 -0.036892418 0.012804111
0.0032000227 0.018805038 0.042568084 -0.056049716 0.004440593 0.031533547 0.0038508836 -0.013003722
-0.01931929 -0.016978275 -0.0109091755 -0.016379982 -0.018225694 0.22526634 -0.016371056 0.020335875
0.033220522 0.08213 -0.04154294 -0.011476242 -0.029536143 0.004773058 -0.0040043043 0.00023788777
0.02101337 0.08085259 0.14368325 -0.06311435 0.22789165 0.07348608 0.024167622 0.09284825
-0.014710562 0.012246609 0.09639885 -0.0015742948 -0.03965626 0.06540237 0.02670401 -0.067253806
0.17343378 0.009842741 -0.00038311994 -0.02136323 -0.065424345 0.2144561 -0.01001289 0.041371286
0.043332953 0.11796412 0.014782982 0.04190589 -0.013732981 0.0008903884 0.0043543484 0.020335877
-0.3349729 0.027095431 0.19852151 0.057214726 -0.04381884 0.033235073 0.18706279 0.16466132
0.02074371 0.0049368474 0.1492701 0.32944664 0.010530598 0.03812321 -0.11111271 -0.0025383695
-0.08995941 0.19291416 -0.027589869 -0.0090144 0.049031924 0.16297574 0.009404181 -0.012882658
0.060316168 -0.060760207 -0.043013286 0.19921839 0.18383111 -0.016491262 -0.01420817 -0.051425662
0.2640986 0.2500728 0.006865504 0.025802309 0.07672921 0.14545333 0.10465848 0.17178553
-0.021168614 0.06802411 0.06865936 0.013334745 0.033823233 -0.005254628 0.003119914 8.9599394e-05
0.05136107 0.0749003 -0.055682223 0.065765895 0.0070812213 0.111267306 0.041584663 0.07244374
0.09117044 -0.10708291 0.12336627 0.16486312 0.06836096 -0.0077233277 -0.044566814 0.067651026
0.06184244 0.028746579 0.079127856 -0.007285605 0.055723444 0.17912227 0.021918302 0.09743147
0.051569767 0.0036191621 0.017236978 0.025961654 0.027582284 0.050180297 -0.0037464513 0.02647938
-0.048514593 0.0715201 0.02803624 -0.04103586 -0.014263273 0.035002522 0.052200682 -0.03832956
0.06045588 0.24395426 0.051277593 0.07135633 0.13162145 -0.028942188 0.0125567615 -0.004667857
00000000: 1a8d 3e3c c39f 84bc 9f4e 8a3d e4b5 20bd
00000010: a047 2e3d 7250 ef3d dc98 c0bd 19fb e33d
00000020: 86ba ef3d c0db 88bd 4230 2c3e 5f7f 7d3e
00000030: 9539 f33c 6d4b 333e 1b69 66bd d74f 1f3b
00000040: f017 4a3e a83c b23d e758 1e3d 75e1 a4bc
00000050: 6f6b acbd 62ec 833c 8f3d 77bb 4c6b 903c
00000060: e7bc 8ebd e6dc ceb9 3cc6 d239 bc65 0e3d
00000070: 7406 1c3d 0a0c 593d 6a55 023d c585 f9bc
00000080: e445 32bd aef1 28ba 021b 7c3e 4a80 203d
00000090: 9057 2dbe 3a2b 6d3c 3d8b 92be c68a 6f3d
000000a0: c6a8 fb3c c64f b73d b2bb 89bc 946f ffbc
000000b0: 4d96 d93c 98bf 5ebb debc fdbb 10b6 493d
000000c0: b33a 2c3d 67b5 303d 681c b73b 438c 423d
000000d0: 678a 6e3d 7d93 b1bd 3df3 243d 4613 d2bc
000000e0: 5943 bdbc e86e bd3e c4fb a53c c0c4 9c3c
000000f0: e129 3d3e 1e31 413c 5e49 893b cb84 d33b
00000100: d540 d73d 8095 82bc dad2 1b3d 2593 b93c
00000110: 5af5 e7bc cb25 6b3d c60d ae3c 71fd 623c
00000120: 021a 0fbc 94c6 9f3d f83d b53c 3deb 95bd
00000130: f7f9 05bd 6b30 a3be a542 fb3a 0938 d53b
00000140: 6f0e ae3d c0bd c2bd f49c 113d 88f2 6bbd
00000150: 1518 5dbf e087 283d 07b6 663e b189 82bc
00000160: 2674 863d 7058 8c3d ea56 52bb 69d1 83bd
00000170: d03e b6bd 70bc 1cbf 416e 833c d6d6 333b
00000180: 7ab4 10bd 952e 923c 115f acbc c16c 3bbd
00000190: 6207 db3d 6c89 703d 811c 17bd 55c8 513c
000001a0: 79b7 513b 060d 9a3c df5b 2e3d 6394 65bd
000001b0: 6582 913b 5229 013d 1b5f 7c3b 900d 55bc
000001c0: 7d43 9ebc 0616 8bbc 66bc 32bc 502f 86bc
000001d0: 0d4e 95bc 38ac 663e 981c 86bc 6c97 a63c
000001e0: 3e12 083d c633 a83d ee28 2abd d906 3cbc
000001f0: c8f5 f1bc 5067 9c3b 8a36 83bb 8371 7939
00000200: 3b24 ac3c 0b96 a53d b421 133e 1942 81bd
00000210: 6e5c 693e df7f 963d 2dfb c53c 3927 be3d
00000220: 9204 71bc 00a6 483c c36c c53d 9158 ceba
00000230: 9a6e 22bd aef1 853d 5ec2 da3c 5dbc 89bd
00000240: a098 313e 7343 213c 7ddd c8b9 f101 afbc
00000250: 33fd 85bd 619a 5b3e 1b0d 24bc f074 293d
00000260: e57d 313d 2c97 f13d 5234 723c 83a5 2b3d
00000270: 4c00 61bc f468 693a ecae 8e3b 6d97 a63c
00000280: 9181 abbe 3df7 dd3c 3949 4b3e fd59 6a3d
00000290: 627b 33bd 8021 083d 638d 3f3e fa9c 283e
000002a0: b7ee a93c 47c5 a13b 43da 183e 3bad a83e
000002b0: 8888 2c3c 1527 1c3d 0f8f e3bd c65a 26bb
000002c0: a43c b8bd 4a8b 453e 2604 e2bc 22b1 13bc
000002d0: b3d5 483d 1de3 263e fe13 1a3c c911 53bc
000002e0: 160e 773d b2df 78bd b32e 30bd e8ff 4b3e
000002f0: 393e 3c3e af18 87bc 62c9 68bc b7a3 52bd
00000300: ef37 873e 8b09 803e 06f8 e03b 5d5f d33c
00000310: 3424 9d3d b8f1 143e 2f57 d63d 8ce8 2f3e
00000320: cd69 adbc 3950 8b3d 479d 8c3d f979 5a3c
00000330: 3b8a 0a3d 042f acbb 7977 4c3b 4fe7 bb38
00000340: fc5f 523d 5465 993d 0b13 64bd 45b0 863d
00000350: 9709 e83b 1de0 e33d ae54 2a3d 625d 943d
00000360: 91b7 ba3d 494e dbbd 74a7 fc3d e1d1 283e
00000370: d500 8c3d f813 fdbb b18b 36bd 9f8c 8a3d
00000380: 804e 7d3d f27d eb3c c90d a23d 16bc eebb
00000390: 443e 643d d46b 373e 038e b33c 278a c73d
000003a0: d23a 533d 772f 6d3b 9034 8d3c 89ad d43c
000003b0: 3ef4 e13c db89 4d3d 0687 75bb 49eb d83c
000003c0: 3db7 46bd 2179 923d 42ac e53c 3815 28bd
000003d0: 81b0 69bc ce5e 0f3d 62d0 553d 75ff 1cbd
000003e0: 96a0 773d 25cf 793e 7408 523d 4423 923d
000003f0: c6c7 063e 2b18 edbc e0ba 4d3c d3f4 98bb

module.B1.c2_d.bias f4 [16]
0.16349146 1.7590556 1.9913646 -2.7302039 2.5665808 0.70053697 1.5708069 1.3302484
2.5767446 1.3547206 -2.3781679 -1.2579155 3.652854 -4.196094 -1.3009712 -2.6174974
00000000: 4e6a 273e bc28 e13f 09e5 fe3f a9bb 2ec0
00000010: dc42 2440 6456 333f 3310 c93f 9445 aa3f
00000020: 62e9 2440 7c67 ad3f e733 18c0 6003 a1bf
00000030: 5cc8 6940 6746 86c0 3986 a6bf 1485 27c0

module.B1.c2_r.conv3x3.weight f4 [32, 32, 3, 3]
0.052172653 -0.08306795 0.13789602 -0.2918525 1.0291538 -0.10127786 0.027181905 -0.25645176
0.10651534 0.14685255 -0.16082115 -0.016899213 -0.002086858 0.036176566 0.020682242 0.24062736
-0.054030694 -0.024216598 0.12607025 0.13577597 -0.018956874 0.13511547 0.020573841 0.054307498
0.015346568 -0.0073007876 0.08899329 0.04667848 0.040846914 -0.14018553 -0.0064661335 -0.081559874
0.5185648 0.015247708 -0.050891936 -0.22196655 0.07101138 -0.025761329 0.05246549 -0.124562934
-0.6454719 -0.09800593 0.1322777 -0.088389166 0.0714262 0.08771977 -0.13457103 -0.080920435
-0.08642639 0.29317388 -0.08002565 0.04951577 -0.12870179 -0.082140945 -0.16135699 0.22697783
-0.16510333 0.18136016 -0.098165564 0.3626964 -0.10262106 0.22269614 -0.076795086 -0.026287382
-0.15106557 -0.01878381 -0.104751304 -0.07928814 -0.2307756 0.01712 -0.17724323 -0.03173816
0.002159878 -0.06187045 0.023169117 0.095323145 -0.017779779 0.03821296 -0.0029896167 -0.04977243
0.022058038 -0.10811754 0.05673106 -1.1760222 -0.07286108 -0.11533442 -0.78421634 0.06673314
0.105770044 -0.027647268 0.06762217 0.0034218305 0.03229136 0.05677489 -0.52478504 0.049406502
0.09351694 0.21900092 0.07092593 -0.050728615 -0.19884825 -0.0801859 -0.0025549382 0.3969138
-0.19091846 0.010227387 -0.08726346 -0.095249824 -0.059539933 -0.12478834 -0.0066567524 -0.05961658
-0.29500017 -0.047156993 -0.22236195 -0.1840182 -0.012685235 0.035815313 -0.060885195 -0.14904054
0.032368235 -0.004133572 -0.35142687 -0.017381687 -0.015546677 0.064945415 0.03434244 0.069143035
0.045693547 0.031228375 0.041274168 0.1794344 0.021627495 0.07834114 0.23881322 -0.051327005
-0.24489781 -0.07510766 0.053600766 0.21263474 0.019121673 0.007647752 0.024323026 -0.02298244
-0.056351338 -0.08793905 -0.21774217 -0.030768318 0.4078832 -0.18780966 -0.063646495 -0.06386102
-0.2486015 -0.038728867 -0.010974751 0.05360328 0.6079757 -0.01920527 -0.1526764 -0.24674737
-0.056794833 -0.02598657 -0.03133441 0.07562066 -0.12614107 0.043256525 0.33021 -0.17177083
-0.07032196 -0.18723631 -0.17103621 0.14183593 0.21409838 -0.05308702 -1.4438881 0.5568864
-0.009100783 0.1493202 -0.103935495 0.04764156 0.043623026 0.029680545 0.050408237 0.052997686
0.1250996 -0.044542503 0.031671345 0.04730829 -0.051440842 -0.029158417 0.03692092 0.047855556
0.06367312 -0.41741797 0.11145983 -0.019623842 0.24392742 0.010533451 -0.077093855 -0.020627214
0.051337563 -0.056378283 0.09695849 -0.026290806 -0.046482086 -0.061039202 -0.0764388 0.09676484
0.3742125 0.2255548 0.099956945 -0.13180548 0.21771023 0.11019258 0.15305214 0.17053644
-0.005695184 0.00949009 0.19139355 -0.1798781 0.35006374 -0.7565074 -0.14774296 0.014787536
-0.04290616 -0.048565134 0.07881535 0.14781223 -0.023933768 -0.24482849 0.22183163 0.04991192
0.08679615 0.12342692 -0.13982908 0.080936186 -0.06925029 0.124484055 -0.50381255 0.18019584
-0.09530594 0.28889966 -0.14901981 0.067652434 0.33721837 -0.12852034 0.10983529 -0.19191803
0.04295783 0.09765947 -0.046250314 0.045810293 0.09547243 0.1502095 -0.01845595 0.10322789
00000000: feb2 553d 881f aabd 9d34 0d3e b16d 95be
00000010: 50bb 833f c46a cfbd 96ac de3c a54d 83be
00000020: b724 da3d 8460 163e 4dae 24be 3870 8abc
00000030: abc3 08bb e12d 143d ce6d a93c 0567 763e
00000040: 4a4f 5dbd e361 c6bc 8f18 013e db08 0b3e
00000050: 724b 9bbc b65b 0a3e 798a a83c 8a71 5e3d
00000060: 2c70 7b3c 723b efbb 1d42 b63d ef31 3f3d
00000070: 184f 273d cc8c 0fbe dce1 d3bb dd08 a7bd
00000080: aac0 043f 86d1 793c 1074 50bd 334b 63be
00000090: 6a6e 913d 6c09 d3bc 0ee6 563d da1a ffbd
000000a0: a53d 25bf 55b7 c8bd ce73 073e 6105 b5bd
000000b0: e647 923d 6ca6 b33d fdcc 09be 9db9 a5bd
000000c0: 5200 b1bd e31a 963e 7de4 a3bd 0cd1 4a3d
000000d0: 67ca 03be 8339 a8bd c43a 25be e06c 683e
000000e0: d910 29be 7ab6 393e 070b c9bd 58b3 b93e
000000f0: fe2a d2bd 750a 643e be46 9dbd a358 d7bc
00000100: efb0 1abe 81e0 99bc da87 d6bd d261 a2bd
00000110: 7050 6cbe 3e3f 8c3c 407f 35be dfff 01bd
00000120: bd8c 0d3b de6b 7dbd 29cd bd3c c838 c33d
00000130: e6a6 91bc 3185 1c3d 72ed 43bb 2dde 4bbd
00000140: 0fb3 b43c bb6c ddbd d45e 683d e587 96bf
00000150: 3138 95bd 7434 ecbd 67c2 48bf 62ab 883d
00000160: f79d d83d 867c e2bc 7e7d 8a3d ca40 603b
00000170: f243 043d c98c 683d 5058 06bf 795e 4a3d
00000180: cf85 bf3d c741 603e 9d41 913d cfc8 4fbd
00000190: e09e 4bbe 8138 a4bd c070 27bb 4938 cb3e
000001a0: 2180 43be c590 273c 2fb7 b2bd 5712 c3bd
000001b0: 25e0 73bd 0791 ffbd e320 dabb 8430 74bd
000001c0: 430a 97be b127 41bd dab2 63be 446f 3cbe
000001d0: bbd5 4fbc 14b3 123d c162 79bd 159e 18be
000001e0: 8e94 043d ea72 87bb 39ee b3be 0a64 8ebc
000001f0: 7db7 7ebc 1a02 853d a9aa 0c3d dd9a 8d3d
00000200: 2829 3b3d a6d2 ff3c 1a0f 293d a7bd 373e
00000210: 252c b13c 5271 a03d 748b 743e 443c 52bd
00000220: 7ec6 7abe 0bd2 99bd 7a8c 5b3d ecbc 593e
00000230: 0ea5 9c3c fe99 fa3b 1541 c73c ac45 bcbc
00000240: a9d0 66bd 6319 b4bd cef7 5ebe d70d fcbc
00000250: 11d6 d03e 2d51 40be 1859 82bd 91c9 82bd
00000260: 6491 7ebe 29a2 1ebd 71cf 33bc 1d8f 5b3d
00000270: 4ca4 1b3f 5f54 9dbc 3457 1cbe 58ab 7cbe
00000280: b3a1 68bd cae1 d4bc 8358 00bd 01df 9a3d
00000290: 202b 01be c12d 313d 4911 a93e b1e4 2fbe
000002a0: f604 90bd e0ba 3fbe 1e24 2fbe 703d 113e
000002b0: 9b3c 5b3e c671 59bd 53d1 b8bf 1b90 0e3f
000002c0: 731b 15bc 65e7 183e 22dc d4bd cc23 433d
000002d0: 0fae 323d 9d24 f33c de78 4e3d 1a14 593d
000002e0: 1c1a 003e 3372 36bd d0b9 013d 56c6 413d
000002f0: a2b3 52bd a2dd eebc 643a 173d 3004 443d
00000300: 0e67 823d cfb7 d5be 0d45 e43d 2ec2 a0bc
00000310: 1cc8 793e 7f94 2c3c 62e3 9dbd 67fa a8bc
00000320: 5647 523d eaec 66bd 2c92 c63d d15f d7bc
00000330: 0064 3ebd 3e04 7abd f28b 9cbd a52c c63d
00000340: c898 bf3e d6f7 663e 3ab6 cc3d 04f8 06be
00000350: 6eef 5e3e a6ac e13d b3b9 1c3e 1ba1 2e3e
00000360: ab9e babb 537c 1b3c acfc 433e f731 38be
00000370: 8e3b b33e 78aa 41bf ee49 17be 6c47 723c
00000380: 5fbe 2fbd 3cec 46bd f169 a13d 175c 173e
00000390: c010 c4bc 52b4 7abe d527 633e 7170 4c3d
000003a0: 2ec2 b13d 41c7 fc3d 5b2f 0fbe dfc1 a53d
000003b0: 19d3 8dbd 7ff1 fe3d dcf9 00bf 4285 383e
000003c0: c32f c3bd a8ea 933e a698 18be 5c8d 8a3d
000003d0: e3a7 ac3e d69a 03be 53f1 e03d 2986 44be
000003e0: 8df4 2f3d b001 c83d f870 3dbd 93a3 3b3d
000003f0: 0d87 c33d 85d0 193e ef30 97bc 2569 d33d

module.B1.c2_r.conv3x3.bias f4 [32]
10.3832035 21.160065 13.73466 8.876623 -17.684196 2.114582 56.62306 14.563743
2.8906286 29.753643 13.827214 0.8354997 1.7412301 1.2849048 41.092525 21.520311
-10.049063 19.654161 44.291893 -6.1697006 0.20224684 -2.5342069 -4.2586327 15.441177
-10.411043 23.531338 -3.0476751 -42.73532 -25.260355 4.4092274 -4.878473 2.0782266
00000000: 9a21 2641 d047 a941 2bc1 5b41 a606 0e41
00000010: 3c79 8dc1 5055 0740 037e 6242 1705 6941
00000020: 0f00 3940 7607 ee41 453c 5d41 4fe3 553f
00000030: a1e0 de3f c377 a43f bf5e 2442 9929 ac41
00000040: f6c8 20c1 b93b 9d41 e62a 3142 306e c5c0
00000050: cc19 4f3e 7230 22c0 b846 88c0 100f 7741
00000060: a293 26c1 2e40 bc41 1c0d 43c0 f8f0 2ac2
00000070: 3515 cac1 6418 8d40 731c 9cc0 aa01 0540

module.B1.c3_d.weight f4 [16, 32, 1, 1]
0.088365346 0.2848434 0.044326037 -0.22265041 -0.020377494 0.09396058 -0.06055181 -0.019026918
0.21294455 -0.040928397 -0.18686277 -0.013768568 0.098360606 0.004214621 0.023338672 0.04356401
0.06477139 -0.004848416 -0.016920626 0.007275482 0.035501372 0.16150194 -0.1851789 0.02255769
-0.09860453 0.022158807 0.040871438 -0.090691306 -0.015769433 0.032109894 -0.012814151 0.014932083
-0.0054290257 0.043721575 -0.06756146 -0.020029237 -0.08307256 -0.067893304 0.046181213 -0.218242
-0.0015940369 0.2776338 -0.10518223 -0.058820374 0.010871222 0.039508134 -0.027012149 -0.023249183
0.022525873 0.04694841 0.06357258 -0.025552962 0.042959135 -0.09892326 -0.018896176 -0.032729983
0.029254753 -0.0049652765 0.007988159 -0.05099193 0.06708686 0.02304386 -0.017829143 -0.0044120294
-0.08630422 0.006827133 -0.010679251 0.0032818764 -0.09616283 -0.031862 0.0008836636 -0.09769303
0.030348765 0.10599005 -0.04427623 -0.031149466 0.068498254 0.006073638 -0.008903775 0.07181383
0.023091463 -0.14680363 -0.18200578 -0.0134416735 -0.009883443 -0.050735027 -0.011611559 -0.05595633
0.035732333 0.04651062 0.050494887 0.04634522 0.06473526 -0.03560339 0.21935575 0.020744946
0.032138504 0.00010640776 0.011837793 -0.0057044523 0.17370902 0.004625479 0.074704304 -0.056557324
-0.006559838 -0.013282368 0.0063455026 0.007352969 0.024959037 -0.0010102001 0.108899176 -0.036397796
-0.010415652 0.025099918 -0.059191372 0.002373289 0.007400863 0.014278015 0.0044796607 0.010000247
0.08829483 0.04838641 -0.009094256 -0.0737561 0.049088232 -0.0041450765 0.0006154163 -0.17914926
-0.018429425 0.020113822 0.22831352 -0.026713487 0.003947121 0.14048068 -0.025617158 0.071037926
0.031561267 0.051254753 -0.04319049 0.13662325 0.04075196 -0.109513566 -0.014018592 0.011778454
-0.0013117405 0.26742166 -0.08897974 0.031812556 0.0009000236 -0.0051845293 0.021407219 -0.05147116
0.08804366 0.03206807 -0.026743198 -0.055766385 -0.03668014 -0.04428551 0.03171531 0.013242639
0.030011483 -0.028187007 0.08612068 -0.02333861 -0.0066047437 0.052165844 -0.0041226684 -0.00093281426
-0.16957845 -0.045814868 0.046564315 0.035855558 -0.036793068 0.02032226 0.06376767 -0.17693551
0.041759826 0.034115274 0.26978806 0.0042151604 -0.00651708 0.0023212768 0.0017846643 0.045548566
-0.0036719004 0.048262786 -0.18613406 -0.061942194 -0.021371914 0.020344464 -0.06680755 0.08705041
0.08285451 -0.021415979 -0.09710569 0.016141186 0.11766948 -0.010922016 -0.043240566 0.009485027
-0.015324933 -0.009620858 0.0145562 0.021261806 -0.018172259 0.0030553404 -0.08995915 -0.0036931236
0.021112638 -0.09516871 0.022244465 0.011664904 -0.026814926 0.028463632 -0.0032235237 0.112183526
0.012913991 0.012336988 -0.006956846 -0.004485753 0.022079157 0.095716074 -0.04954854 0.23760124
0.011031438 0.051414706 -0.22711006 0.03417526 0.04866296 0.11769248 -0.013190071 0.040125635
0.0038918771 -0.07833251 0.07848803 -0.099937275 0.12507674 0.07194466 0.05493355 0.11189872
-0.0059288573 0.07081425 0.083861865 -0.010680897 0.05538319 0.10807819 0.017012741 0.011197953
0.07350427 -0.08193355 0.02075313 -0.041475974 0.014327739 -0.012195863 0.027094316 0.049227647
00000000: e4f8 b43d fed6 913e 388f 353d 78fe 63be
00000010: b4ee a6bc 686e c03d 2d05 78bd 57de 9bbc
00000020: 230e 5a3e 89a4 27bd f458 3fbe 8f95 61bc
00000030: 4971 c93d ce1a 8a3b be30 bf3c 2d70 323d
00000040: dda6 843d 76df 9ebb 209d 8abc 2b67 ee3b
00000050: e369 113d c460 253e 8a9f 3dbe e8ca b83c
00000060: 2cf1 c9bd 6386 b53c cf68 273d 5dbc b9bd
00000070: e62e 81bc aa85 033d 72f2 51bc b2a5 743c
00000080: f8e5 b1bb 6515 333d aa5d 8abd 5b14 a4bc
00000090: f221 aabd a50b 8bbd 8328 3d3d d57a 5fbe
000000a0: 01ef d0ba 0426 8e3e c869 d7bd a2ed 70bd
000000b0: 361d 323c 48d3 213d 9548 ddbc 1275 bebc
000000c0: 2e88 b83c fa4c 403d 5732 823d 7254 d1bc
000000d0: ebf5 2f3d 4798 cabd 27cc 9abc e00f 06bd
000000e0: aaa7 ef3c c2b3 a2bb c4e0 023c eadc 50bd
000000f0: d664 893d 7ac6 bc3c 6c0e 92bc c992 90bb
00000100: 44c0 b0bd 24b6 df3b 06f8 2ebc c014 573b
00000110: 05f1 c4bd ba81 02bd a9a5 673a 4913 c8bd
00000120: f99d f83c 5011 d93d fe5a 35bd 2a2d ffbc
00000130: d048 8c3d 5e05 c73b 24e1 11bc 2113 933d
00000140: 4f2a bd3c b153 16be b95f 3abe 773a 5cbc
00000150: 2aee 21bc 88cf 4fbd 693e 3ebc 7732 65bd
00000160: 115c 123d eb81 3e3d bad3 4e3d 7cd4 3d3d
00000170: ec93 843d dcd4 11bd cb9e 603e 4ef1 a93c
00000180: aaa3 033d 3b27 df38 4df3 413c 6aec babb
00000190: c7e0 313e 5591 973b 92fe 983d a7a8 67bd
000001a0: e9f3 d6bb 4a9e 59bc efed cf3b 2df1 f03b
000001b0: e576 cc3c b168 84ba 8806 df3d db15 15bd
000001c0: 69a6 2abc 589e cd3c a772 72bd 2f89 1b3b
000001d0: f082 f23b 56ee 693c 1eca 923b 13d8 233c
000001e0: ebd3 b43d d430 463d 1300 15bc 700d 97bd
000001f0: be10 493d 6cd3 87bb e453 213a e772 37be
00000200: 4ef9 96bc bec5 a43c 05cb 693e 3ed6 dabc
00000210: da56 813b 2bda 0f3e 13db d1bc 557c 913d
00000220: 6346 013d 81f0 513d 83e8 30bd f7e6 0b3e
00000230: 87eb 263d a648 e0bd 3dae 65bc 6bfa 403c
00000240: b5ee abba 7eeb 883e 033b b6bd e24d 023d
00000250: 90ef 6b3a fce2 a9bb 315e af3c 6cd3 52bd
00000260: 3c50 b43d cf59 033d 8d14 dbbc 4b6b 64bd
00000270: ea3d 16bd b964 35bd eae7 013d a7f7 583c
00000280: a4da f53c 70e8 e6bc 0a60 b03d 9d30 bfbc
00000290: 9b6c d8bb daab 553d 7317 87bb 1b88 74ba
000002a0: f9a5 2dbe 5fa8 3bbd 39ba 3e3d 47dd 123d
000002b0: 54b4 16bd de7a a63c a098 823d 952e 35be
000002c0: 5a0c 2b3d 75bc 0b3d a921 8a3e 541f 8a3b
000002d0: 3b8d d5bb 9020 183b 66eb e93a 2291 3a3d
000002e0: 44a4 70bb 33af 453d ed99 3ebe 19b7 7dbd
000002f0: 2714 afbc 6fa9 a63c 66d2 88bd 7c47 b23d
00000300: a0af a93d 9070 afbc 59df c6bd 853a 843c
00000310: b2fc f03d 41f2 32bc 051d 31bd 1667 1b3c
00000320: 6e15 7bbc cea0 1dbc 217d 6e3c 3d2d ae3c
00000330: fddd 94bc 1b3c 483b 813c b8bd 5508 72bb
00000340: 69f4 ac3c d0e7 c2bd 063a b63c 271e 3f3c
00000350: faaa dbbc 902c e93c c141 53bb 7ac0 e53d
00000360: 3495 533c 1421 4a3c 41f6 e3bb 39fd 92bb
00000370: 59df b43c ca06 c43d 69f3 4abd bd4d 733e
00000380: 34bd 343c 3a98 523d 8a8f 68be 5cfb 0b3d
00000390: d052 473d c108 f13d 2b1b 58bc c75a 243d
000003a0: dd0e 7f3b cc6c a0bd 55be a03d eaab ccbd
000003b0: 1e14 003e b957 933d 0102 613d 282b e53d
000003c0: dc46 c2bb 1007 913d c5bf ab3d eefe 2ebc
000003d0: 7cd9 623d 1958 dd3d 4e5e 8b3c 9e77 373c
000003e0: 6889 963d c7cc a7bd 7802 aa3c b6e2 29bd
000003f0: e5be 6a3c 28d1 47bc e6f4 dd3c eea2 493d

module.B1.c3_d.bias f4 [16]
0.56223834 4.2171144 2.332014 2.0663805 -2.1389785 3.566693 1.5109327 -0.54046607
1.1673988 2.0389736 3.4028354 2.9459252 0.5717651 -1.7666545 3.2403913 0.66711056
00000000: daee 0f3f 9af2 8640 b83f 1540 943f 0440
00000010: 06e5 08c0 b344 6440 3e66 c13f fc5b 0abf
00000020: 536d 953f 8b7e 0240 0ec8 5940 0a8a 3c40
00000030: 335f 123f bc21 e2bf 9262 4f40 c2c7 2a3f

module.B1.c3_r.conv3x3.weight f4 [32, 32, 3, 3]
0.047278166 0.2574336 -0.02976388 0.311396 0.47187337 0.17625098 -0.06742187 -0.029648438
-0.098097116 -0.1016149 0.10368684 0.07132303 0.15979686 0.07416149 0.07955422 0.07316798
0.023215922 0.104168445 0.03988542 -0.020886622 0.080610886 0.018531395 0.011802266 0.07134543
-0.28869888 -0.20179261 -0.1365346 -0.066077515 0.040659864 0.07960944 -0.029890306 -0.15371737
-0.13250032 0.14297211 0.009127287 -0.022789463 0.009427765 -0.05782532 0.06369204 -0.1147581
-0.079246856 -0.21616384 0.26427972 0.35300443 0.17149052 0.10322104 0.034936316 0.17249817
-0.061823428 0.070706315 0.10789283 -0.1762314 0.17069827 -0.11988872 0.019581217 0.029506534
-0.07226128 -0.19677469 0.046280477 0.024421146 -0.09615137 0.07216022 -0.12104745 -0.0435359
0.12988104 -0.0202305 0.0105272615 0.12732829 -0.05307355 -0.0952954 -0.030044243 0.11681275
-0.030781196 -0.048679076 -0.30951843 -0.054270975 -0.50372535 -0.082396455 0.02985506 -0.227727
0.20777805 0.012580355 0.0135808345 -0.083428785 -0.17423749 0.025556164 -0.11260835 -0.1465265
0.0206928 -0.24404524 0.1250007 0.04017986 -0.027776003 -0.20163812 -0.18688111 -0.045417648
0.20132633 0.13674931 0.02014635 -0.08819501 0.12745956 0.07077776 -0.020889115 -0.005334077
-0.10028623 -0.0066280034 -0.039900247 0.033623632 0.14170158 0.03067444 0.008238091 0.18455748
0.20712547 0.20358102 0.07860186 0.5262377 0.18684898 0.07635263 -0.10607237 0.07272595
0.018916424 -0.072980806 0.029158939 0.07602195 -0.036334533 -0.18741634 -0.020236274 0.07799204
0.0655927 -0.008115032 -0.5059255 0.17487618 -0.19838524 -0.08429358 -0.38468185 0.020197399
-0.42961144 -0.053406127 -0.14437623 -0.7127011 -0.079617426 -0.073474444 -0.09828767 0.00798812
0.019397836 -0.08563115 0.08704851 -0.06021841 0.149548 -0.09617501 0.09853991 0.32330802
0.018246679 -0.087446965 0.0051734233 0.037584983 -0.19238175 -0.16182595 -0.070375524 0.18788606
0.0687969 -0.033947125 0.08680572 0.68469095 -0.06107498 0.13781704 0.6179493 0.052228175
0.020645896 -0.14587957 -0.18798307 -0.04669907 -0.074906684 -0.06439544 0.08981116 0.15329947
0.014908405 0.27747262 0.22006981 0.006212419 -0.13411848 -0.19325605 -0.038835403 -0.051897254
0.24025624 -0.08090454 -0.15829034 0.098202735 -0.026979081 0.006495388 -0.20203342 -0.0072532883
0.042683765 0.04169463 0.03543345 0.008410087 0.14060755 -0.0075227963 0.09025998 0.06921269
0.0068288613 -0.037081853 -0.24944068 0.06893891 -0.02479587 0.05107547 -0.19719434 -0.09563986
0.29664025 -0.1388808 0.04238339 0.13168158 -0.17425609 -0.24473456 0.057854943 -0.09162871
0.19831274 -0.10300096 0.19786362 0.47256136 0.09457563 0.41306427 0.42587999 0.15883756
0.32202664 -0.2881481 -0.020366916 -0.24314305 -0.09518321 -0.43267965 -0.020684456 0.11286831
0.30511978 0.13620299 -0.11320645 -0.031556066 -0.16583632 -0.1900561 -0.94751173 0.018370641
0.0017737243 -0.13460205 0.0723218 -0.12456849 -0.2868104 -0.062842555 0.08875147 0.13131319
0.1439042 -0.09099005 -0.5457934 0.041676752 -0.0400341 -0.1522614 0.0393538 -0.038945466
00000000: c0a6 413d 56ce 833e 61d3 f3bc 4c6f 9f3e
00000010: 6399 f13e 237b 343e 7a14 8abd 48e1 f2bc
00000020: 24e7 c8bd 791b d0bd c459 d43d cf11 923d
00000030: caa1 233e fbe1 973d 53ed a23d 18d9 953d
00000040: 512f be3c 4456 d53d e55e 233d 6c1a abbc
00000050: 5217 a53d 27cf 973c 4b5e 413c 8e1d 923d
00000060: 57d0 93be b9a2 4ebe bacf 0bbe a653 87bd
00000070: f58a 263d 460a a33d 84dc f4bc 1668 1dbe
00000080: 2aae 07be 4867 123e 9e8a 153c f8b0 babc
00000090: ea76 1a3c 3eda 6cbd f970 823d 4b06 ebbd
000000a0: 2d4c a2bd 0e5a 5dbe ac4f 873e ffbc b43e
000000b0: 369b 2f3e 8d65 d33d 6219 0f3d 5ca3 303e
000000c0: 903a 7dbd 79ce 903d ebf6 dc3d 0176 34be
000000d0: 87cb 2e3e 3888 f5bd ca68 a03c b0b7 f13c
000000e0: b9fd 93bd 4e7f 49be 9990 3d3d db0e c83c
000000f0: 02eb c4bd bdc8 933d bae7 f7bd b352 32bd
00000100: 89ff 043e 6fba a5bc 897a 2c3c 5962 023e
00000110: a763 59bd 3c2a c3bd 581f f6bc 863b ef3d
00000120: d928 fcbc b663 47bd 3379 9ebe 3e4b 5ebd
00000130: 25f4 00bf 79bf a8bd 9992 f43c 4431 69be
00000140: c5c3 543e d51d 4e3c 2682 5e3c b6dc aabd
00000150: 506b 32be 295b d13c 359f e6bd 0b0b 16be
00000160: f283 a93c ffe6 79be 2f00 003e a393 243d
00000170: 808a e3bc 397a 4ebe c35d 3fbe db07 3abd
00000180: 7d28 4e3e 0308 0c3e f509 a53c 969f b4bd
00000190: c284 023e eef3 903d a61f abbc 7bc9 aebb
000001a0: de62 cdbd b92f d9bb 716e 23bd efb8 093d
000001b0: 381a 113e f748 fb3c 0ff9 063c a3fc 3c3e
000001c0: b318 543e 8b77 503e 03fa a03d 84b7 063f
000001d0: 5755 3f3e c55e 9c3d 793c d9bd 58f1 943d
000001e0: 9ef6 9a3c f676 95bd bade ee3c 65b1 9b3d
000001f0: 85d3 14bd 12ea 3fbe 8bc6 a5bc 4aba 9f3d
00000200: 7755 863d e9f4 04bc 5584 01bf be12 333e
00000210: 8025 4bbe 1da2 acbd 05f5 c4be 0475 a53c
00000220: 08f6 dbbe 62c0 5abd 5dd7 13be 9473 36bf
00000230: 760e a3bd c579 96bd 0c4b c9bd 9be0 023c
00000240: 36e8 9e3c 625f afbd 7d46 b23d 94a7 76bd
00000250: 1c23 193e 67f7 c4bd 4bcf c93d a188 a53e
00000260: 0f7a 953c 6517 b3bd d285 a93b b6f2 193d
00000270: b9ff 44be b4b5 25be 0b21 90bd 3465 403e
00000280: 64e5 8c3d 240c 0bbd 33c7 b13d e847 2f3f
00000290: c229 7abd e91f 0d3e ed31 1e3f 36ed 553d
000002a0: 9521 a93c 7461 15be a27e 40be 8647 3fbd
000002b0: ad68 99bd c2e1 83bd eaee b73d 89fa 1c3e
000002c0: 6242 743c e410 8e3e fb59 613e 8c91 cb3b
000002d0: 5b56 09be eae4 45be df11 1fbd 3792 54bd
000002e0: bb05 763e 48b1 a5bd dd16 22be 841e c93d
000002f0: 3c03 ddbc 44d7 d43b d9e1 4ebe feac edbb
00000300: 2cd5 2e3d fdc7 2a3d aa22 113d 76ca 093c
00000310: 6dfb 0f3e ca81 f6bb 39da b83d 62bf 8d3d
00000320: a4c4 df3b 24e3 17bd 616d 7fbe d82f 8d3d
00000330: b520 cbbc 8334 513d 50ed 49be d5de c3bd
00000340: 3be1 973e c536 0ebe 359a 2d3d 89d7 063e
00000350: 3070 32be b29b 7abe 4ef9 6c3d d5a7 bbbd
00000360: 7f12 4b3e 2bf2 d2bd c39c 4a3e 90f3 f13e
00000370: deb0 c13d 297d d33e f10c da3e 50a6 223e
00000380: ade0 a43e 2688 93be 85d8 a6bc 7efa 78be
00000390: 6aef c2bd 3088 ddbe 7372 a9bc 8027 e73d
000003a0: a938 9c3e cc78 0b3e c9d8 e7bd ef40 01bd
000003b0: ffd0 29be 119e 42be 2190 72bf 077e 963c
000003c0: 507c e83a 1fd5 09be 741d 943d c41d ffbd
000003d0: d0d8 92be 99b3 80bd 55c3 b53d f776 063e
000003e0: 9f5b 133e fe58 babd 1eb9 0bbf 3eb5 2a3d
000003f0: ccfa 23bd 6aea 1bbe 7331 213d 4885 1fbd

module.B1.c3_r.conv3x3.bias f4 [32]
12.10222 -2.3680377 3.0301824 -2.045155 7.9873667 -6.9466686 15.977951 3.5346375
-1.4854444 -2.2822678 6.364043 20.672012 -2.4298766 3.9258752 4.9008355 10.918168
7.222364 2.3315432 -4.5362926 -5.34987 7.5565658 3.1123912 2.471281 -3.729041
-0.3188225 3.858985 8.359449 -19.395315 -0.39509234 6.298259 -3.8771167 0.8367192
00000000: b1a2 4141 ee8d 17c0 82ee 4140 d2e3 02c0
00000010: 8298 ff40 1c4b dec0 b0a5 7f41 8037 6240
00000020: 0b23 bebf ad10 12c0 3ea6 cb40 4860 a541
00000030: 1983 1bc0 8a41 7b40 a5d3 9c40 d1b0 2e41
00000040: 9b1d e740 0138 1540 4f29 91c0 2332 abc0
00000050: 63cf f140 6b31 4740 7829 1e40 9ca8 6ec0
00000060: b43c a3be 9cf9 7640 4ec0 0541 9b29 9bc1
00000070: 8b49 cabe 568b c940 ae22 78c0 3b33 563f
