model_zoo/team18_bsrn.pth (torch, 699603 bytes, 247 tensors)

fea_conv.pw.weight f4 [48, 12]
0	0xbd518d56	-0.05116018
1	0x3d4e1a60	0.050318122
2	0xbe6bbffb	-0.23022453
3	0xbe85dce2	-0.26145083
4	0xbe5ce6c0	-0.21572399
5	0x3dada2e7	0.08478337
6	0xbd60218f	-0.054719504
7	0x3dfea879	0.12434477
8	0xbc957ddc	-0.018248491
9	0x3ce06b21	0.027394833
10	0xbe44612c	-0.19177693
11	0xbd4a4095	-0.049377996
12	0xbea76b76	-0.32699174
13	0xbe1d92b1	-0.1538799
14	0xbd975320	-0.07388902
15	0xbd25f1d4	-0.04051383
16	0x3e1b1184	0.151434
17	0x3e5f903c	0.21832365
18	0xbe7cd468	-0.24690402
19	0xbdb506b4	-0.08839169
20	0x3e199008	0.1499635
21	0x3e410889	0.18850912
22	0xbcb503f1	-0.022096606
23	0x3e85b203	0.26112375
24	0xbc9f355e	-0.019434627
25	0x3d5cb850	0.05388671
26	0x3e8c5f42	0.27416426
27	0xbe767b44	-0.2407046
28	0xbe222ffe	-0.1583862
29	0xbd76fc65	-0.060299296
30	0xbdaef65c	-0.08543083
31	0x3e8ba59b	0.27274784
32	0xbe328549	-0.17433657
33	0xbdd8ad95	-0.10579983
34	0xbe369d53	-0.17833452
35	0xbe83e1ef	-0.2575831
36	0xbd1f6625	-0.038915772
37	0x3f21eeff	0.63255304
38	0xbe59ce09	-0.21270002
39	0x3e89fe43	0.269518
40	0x3ecc9a08	0.39961267
41	0xbefaa02d	-0.4895033
42	0x3e36b5ea	0.17842832
43	0x3deb4c40	0.11489153
44	0xbf0cd4e8	-0.5501237
45	0xbc9d7d56	-0.019224804
46	0x3f110910	0.56654453
47	0xbe30619a	-0.17224732
48	0xbe1b54a2	-0.15169004
49	0x3b69a845	0.0035653275
50	0x3e058d33	0.13042144
51	0x3e86d092	0.26331002
52	0x3e03a45c	0.12855667
53	0xbc793114	-0.015209455
54	0x3e2df6ff	0.16988753
55	0xbe1fbcdd	-0.1559939
56	0xb9d91be3	-0.00041410243
57	0xbe7d6bd2	-0.24748161
58	0xbe3e907c	-0.18609804
59	0xbe503564	-0.20332867
60	0x3d5308d9	0.05152211
61	0x3db28e69	0.08718569
62	0xbddb94d8	-0.10721749
63	0x3c04fd78	0.008117072
64	0x3e04abcd	0.12956162
65	0x3ce00b54	0.027349152
66	0xbd8b69db	-0.068073
67	0x3d1b8e06	0.03797724
68	0x3e78b1e4	0.2428661
69	0x3e4ad78c	0.19808787
70	0xbe80b541	-0.25138286
71	0xbd2c0c9d	-0.042004216
72	0x3e0c1bb4	0.13682443
73	0x3ea87854	0.32904303
74	0x3e355295	0.17707284
75	0x3e8e6067	0.27807924
76	0x3e16d818	0.1473087
77	0xbea67a72	-0.32515293
78	0x3d4c785c	0.04991947
79	0xbdb9d547	-0.090738826
80	0xbeafb268	-0.343158
81	0x3e8f488f	0.27985045
82	0x3e9e6478	0.30936027
83	0xbeb9638a	-0.36208755
84	0x3dc5432a	0.09631951
85	0xbcfecfed	-0.031105006
86	0xbd306ca0	-0.043072343
87	0xbdb8064e	-0.089855775
88	0x3e039dc2	0.12853149
89	0xbe2a89a0	-0.16654062
90	0x3e17ab28	0.14811385
91	0x3e276e33	0.16350631
92	0x3e5827be	0.2110891
93	0x3e19d520	0.15022707
94	0xbe894ea5	-0.26817814
95	0xbe3b34d3	-0.1828187
96	0x3e36b922	0.1784406
97	0x3c8fc6dd	0.01755088
98	0xbe0706ce	-0.1318619
99	0xbe07177a	-0.1319255
100	0x3e6a2d10	0.22868752
101	0x3e935fd6	0.28784055
102	0xbdbb88f1	-0.09156979
103	0xbdec995d	-0.11552689
104	0xbe3a02cc	-0.1816513
105	0x3cee80d1	0.029114159
106	0xbe853fc4	-0.26025212
107	0xbe0472a6	-0.1293436
108	0x3d841e5d	0.06451104
109	0xbcd4c67e	-0.025973555
110	0xbe058ff8	-0.13043201
111	0x3e80e279	0.25172785
112	0xbe7ada40	-0.24497318
113	0x3e7fb7be	0.24972436
114	0x3e8e789b	0.2782639
115	0xbea01fcc	-0.3127426
116	0xbdac26e2	-0.08405854
117	0x3dbf5d22	0.093439355
118	0xbcded06a	-0.027198989
119	0x3d667120	0.05626023
120	0x3dc685df	0.09693503
121	0x3d8b802d	0.06811557
122	0xbd8f7a3f	-0.070057385
123	0x3df6446c	0.12024769
124	0xbe6784b1	-0.22609212
125	0xbdcd6ae6	-0.10030155
126	0xbdb57adf	-0.088613264
127	0xbdb7e676	-0.08979504
128	0xbcf75be7	-0.03019519
129	0xbe81821e	-0.25294584
130	0xbc2d628d	-0.010582578
131	0x3e07ae53	0.13250093
132	0xbe3e690a	-0.18594757
133	0xbce65f86	-0.028121721
134	0x3e3577d2	0.17721489
135	0xbce1ba75	-0.02755473
136	0xbbad2ec7	-0.0052851173
137	0xbd5e97cc	-0.054343984
138	0x3d77fdf8	0.060544938
139	0x3e2e5409	0.17024244
140	0x3e79dbff	0.24400328
141	0x3e3de3ca	0.18543926
142	0x3e8583af	0.2607703
143	0xbd4e1a32	-0.05031795
144	0xbe66a6ae	-0.22524521
145	0xbdaca79d	-0.08430407
146	0x3e5e60bb	0.21716587
147	0x3d03f7a6	0.032218598
148	0xbdba3be0	-0.090934515
149	0xbe4d6ca0	-0.20060968
150	0xbe71bec9	-0.23607935
151	0xbe43ac40	-0.19108677
152	0xbd1b701b	-0.03794871
153	0x3e450274	0.19239217
154	0x3e55a1e0	0.20862532
155	0xbe840086	-0.2578165
156	0x3e1ff3b3	0.15620308
157	0xbe64eb26	-0.22355327
158	0x3b9402f1	0.004516952
159	0xbe104cb4	-0.1409176
160	0xbd5a17bf	-0.053245302
161	0x3c11443c	0.008866366
162	0xbe90d8a6	-0.2829029
163	0xbe7cd3d9	-0.24690188
164	0x3ca6e54f	0.020373015
165	0xbca4f49c	-0.02013617
166	0xbe03e0b1	-0.12878682
167	0x3e32799b	0.17429201
168	0xbeafc5e9	-0.3433068
169	0x3dcccae2	0.09999634
170	0x3e5a6850	0.21328855
171	0xbe4e092e	-0.2012069
172	0x3ec2a79b	0.38018498
173	0x3d8304d0	0.06397402
174	0xbeb020d0	-0.34400034
175	0x3e9ab424	0.3021556
176	0xbd974eca	-0.07388075
177	0xbe596bc4	-0.21232516
178	0x3eb36138	0.3503511
179	0xbe8c35c7	-0.2738478
180	0xbdbaad44	-0.09115079
181	0xbe858795	-0.26080003
182	0x3f0b53da	0.5442482
183	0xbd2a286a	-0.041542448
184	0xbd7c6ece	-0.06162911
185	0x3ee14cf1	0.44004014
186	0xbe4422b1	-0.19153859
187	0xbe85ab09	-0.26107052
188	0x3dcd3250	0.10019362
189	0x3d0c77fa	0.034294106
190	0x3cec6972	0.028858874
191	0x3f091e5f	0.5356197
192	0xbe57e6e0	-0.21084166
193	0x3d0fa0c9	0.035065446
194	0xbe10fe10	-0.14159417
195	0xbe2a1d68	-0.1661278
196	0xbe1589e0	-0.14603376
197	0x3e2468d4	0.16055614
198	0xbe378b7d	-0.17924304
199	0x3c823082	0.015892271
200	0x3d97a507	0.07404523
201	0x3e3729ec	0.17887086
202	0xbe48bf7e	-0.19604298
203	0xbe0b8c00	-0.13627625
204	0xbe18cb1e	-0.14921233
205	0x3e2d3b37	0.1691712
206	0xbdbf8c72	-0.0935296
207	0x3e861686	0.2618906
208	0x3d926e12	0.071499005
209	0x3d3fa604	0.046789184
210	0x3c854150	0.016266495
211	0xbdb83a36	-0.08995478
212	0x3d3e4702	0.046454437
213	0xbd4292ab	-0.047503155
214	0xbd0f0542	-0.034917124
215	0x3d40cace	0.04706841
216	0xbe5fb8e0	-0.21847868
217	0xbe646eaa	-0.2230784
218	0x3ebe4345	0.37160698
219	0xbe68658a	-0.22694984
220	0xbdbd71b9	-0.092502065
221	0x3ed9200a	0.42407256
222	0x3de48f46	0.1116014
223	0xbd82408a	-0.06359966
224	0xbde4aeeb	-0.111661755
225	0x3e19ef78	0.15032756
226	0xbe8e0664	-0.2773925
227	0x3d67af4c	0.05656366
228	0xbe31b824	-0.173554
229	0x3d0a16e0	0.03371322
230	0xbd828f08	-0.06374937
231	0x3e25474a	0.16140476
232	0x3de66642	0.11249973
233	0x3e4443aa	0.19166437
234	0x3dcc8d2c	0.09987864
235	0xbdd92f06	-0.10604672
236	0x3d80210e	0.06256305
237	0xbe8fc124	-0.28077042
238	0xbd3bf740	-0.045890093
239	0x3c9374f2	0.0180001
240	0x3dcf9cc8	0.101373255
241	0x3e8b893c	0.2725314
242	0xbe106d5d	-0.14104219
243	0x3bd56c30	0.006513141
244	0x3e517b32	0.20457152
245	0xbea79198	-0.32728267
246	0x3e5be684	0.21474653
247	0xbe3b24b4	-0.1827572
248	0xbd34cc3a	-0.044140078
249	0xbd303bc4	-0.043025747
250	0xbdc4c9c2	-0.09608795
251	0xbc233c7a	-0.009963149
252	0x3e23b726	0.15987834
253	0xbcbcb4d4	-0.023035444
254	0xbe15c216	-0.14624819
255	0xbe3e0d4e	-0.18559763

fea_conv.pw.bias f4 [48]
0	0x3d90ae39	0.0706448
1	0x3c7d4710	0.015458837
2	0x3da62a5f	0.081135504
3	0xbdcae9b4	-0.099078566
4	0x3dd7ef90	0.1054374
5	0xbe2f92e2	-0.17145875
6	0xbe8cbdf9	-0.27488688
7	0xbd20e5c0	-0.039281607
8	0x3de44140	0.11145258
9	0xbdc31108	-0.09524733
10	0x3e15ee47	0.14641677
11	0xbe7ff634	-0.24996263
12	0x3e8bc2c0	0.2729702
13	0x3e9d7302	0.30751806
14	0xbcb93a5c	-0.022610836
15	0xbe592069	-0.2120377
16	0x3e54b0d1	0.20770575
17	0xbdaa76d6	-0.083234474
18	0x3e33b6cc	0.175502
19	0xbcf8d1f1	-0.030373545
20	0xbc81e6bf	-0.015857099
21	0x3e2989ea	0.16556516
22	0x3dd665f1	0.104686625
23	0xbdf5d9d9	-0.12004442
24	0xbe9fdb82	-0.3122216
25	0xbe0cf86c	-0.1376664
26	0xbd869801	-0.06571961
27	0xbd80980b	-0.06279
28	0xbe0b0978	-0.13577831
29	0xbe5cbf7e	-0.21557423
30	0x3e42e76c	0.19033593
31	0xbe30b35f	-0.17255925
32	0xbeaab646	-0.3334219
33	0x3b8a62e7	0.004223216
34	0x3d03eb85	0.03220703
35	0xbd96c2eb	-0.073613964
36	0x3ea54716	0.32280797
37	0xbe3ea321	-0.18616916
38	0x3de524be	0.11188649
39	0x3dcb059a	0.09913178
40	0xbe08f55a	-0.13374844
41	0xbe086993	-0.13321523
42	0x3ca7e8c4	0.020496733
43	0xbe3d353b	-0.18477337
44	0xbe0699b8	-0.13144577
45	0x3e785e34	0.24254686
46	0x3e08c18f	0.13355087
47	0xbc7e4b9d	-0.015520957

fea_conv.dw.weight f4 [48, 1, 3, 3]
0	0x3d75b02e	0.05998247
1	0xbdeae556	-0.114695236
2	0x3e3063c2	0.17225555
3	0xbdad410a	-0.08459671
4	0xbf097467	-0.5369324
5	0x3dac7f30	0.084226966
6	0x3e213126	0.15741405
7	0x3dd31f8e	0.10308753
8	0x3dc22287	0.09479242
9	0x3df42c4b	0.11922511
10	0x3c53b096	0.012920519
11	0x3d850cc9	0.06496579
12	0xbc80ea34	-0.015736677
13	0xbeb53dfc	-0.35398853
14	0xbdeb64a7	-0.11493807
15	0x3db851ee	0.09000002
16	0x3db1eb2c	0.086874336
17	0x3d99c000	0.07507324
18	0x3b15b3de	0.0022842805
19	0x3e270263	0.16309504
20	0xbd99a99c	-0.075030535
21	0x3e96d0e7	0.29456255
22	0xbedbb8da	-0.42914468
23	0x3e67018a	0.22559181
24	0xbdaa3c92	-0.08312334
25	0x3cc5d340	0.024148583
26	0x3cd21a88	0.025647417
27	0x3b98927d	0.0046561346
28	0x3e215a66	0.1575714
29	0x3b97be20	0.004630819
30	0x3d11ed1a	0.03562651
31	0xbee1c327	-0.44094202
32	0x3d8a5274	0.06754008
33	0x3c0e570a	0.008687744
34	0x3dd3c221	0.103397615
35	0x3c2244d1	0.009904102
36	0xbd619f77	-0.05508372
37	0xbd4229d6	-0.04740318
38	0xbd50b6be	-0.050955527
39	0xbb5c3f01	-0.003360689
40	0xbd25ac5c	-0.040447578
41	0x3e0e6763	0.13906626
42	0xbdc74e8a	-0.09731777
43	0x3e17358b	0.14766519
44	0x3caa4ffb	0.02079009
45	0x3c950efd	0.018195624
46	0xbe56d394	-0.20979148
47	0xbd7e80ff	-0.06213474
48	0xbd1766a3	-0.036963116
49	0x3ee4ede8	0.44712758
50	0xbc7a9e76	-0.015296569
51	0x3d8305fc	0.06397626
52	0xbe5dd1d9	-0.21662082
53	0x3cbb7696	0.022883695
54	0xbc05db85	-0.008170013
55	0x3bfc1a94	0.007693598
56	0x3ba9363e	0.005163937
57	0xbc3892ea	-0.011265496
58	0x3f715f7a	0.9428631
59	0x3b418026	0.0029525845
60	0xbc5bcfc9	-0.013416239
61	0x3c9f66d6	0.019458216
62	0xbb4554ea	-0.0030110427
63	0xbd0cbb0a	-0.03435806
64	0xbd0f9437	-0.035053458
65	0xbd2dfc4c	-0.042476937
66	0xbc652760	-0.0139864385
67	0x3b7b9f1e	0.0038394402
68	0x3ca1f2e5	0.019769141
69	0x3c43470b	0.011918793
70	0x3e0ca98d	0.13736553
71	0xbc50f062	-0.012752624
72	0x3ddae329	0.106878586
73	0xbe801646	-0.25016993
74	0x3de5bba8	0.11217433
75	0x3dbe192a	0.092821434
76	0x3e02510e	0.12726232
77	0x3e0bf422	0.13667348
78	0xbe365265	-0.17804869
79	0xbd9e6d09	-0.077356406
80	0xbdc05cb2	-0.0939268
81	0x3cedb320	0.029016078
82	0xbd035aae	-0.0320689
83	0xbbb0af76	-0.0053920103
84	0xbe349061	-0.17633201
85	0x3f10d11d	0.5656908
86	0xbe5109ce	-0.20413896
87	0x3b176fbc	0.002310737
88	0xbe30f5de	-0.17281291
89	0xbb695c13	-0.003560786
90	0x3d926c1a	0.07149525
91	0xbdfb073c	-0.12257239
92	0x3c843a87	0.01614119
93	0x3d18fb66	0.037349127
94	0x3e9e89d2	0.30964524
95	0x3e172cd3	0.14763193
96	0x3d996f8b	0.07491978
97	0xbdb80198	-0.08984679
98	0xbc0c5773	-0.008565771
99	0xbd4f3a6c	-0.050592825
100	0x3bb82994	0.005620191
101	0xbc61330b	-0.01374508
102	0x3daf3338	0.08554691
103	0xbf0495ae	-0.51790893
104	0x3e9e8eaf	0.30968234
105	0xbc671fd8	-0.014106713
106	0x3c8d734e	0.017266896
107	0x3d28c8e5	0.041207213
108	0xbb7883fc	-0.0037920466
109	0xbe148e36	-0.14507374
110	0xbd3e6522	-0.046483167
111	0x3e168f18	0.14703023
112	0x3d9497ae	0.07255493
113	0xbe3765aa	-0.17909876
114	0xbd12775e	-0.03575837
115	0xbe7e34b8	-0.24824798
116	0xbda3a878	-0.07991117
117	0xbcf47e22	-0.029845301
118	0x3db8c7d4	0.09022489
119	0xbd0fc526	-0.035100125
120	0x3d39c17e	0.045350544
121	0x3ef84551	0.48490384
122	0x3dc97625	0.098369874
123	0xbd84d5e0	-0.06486106
124	0xbdcb56d2	-0.09928669
125	0xbd92d2c0	-0.071691036
126	0x3b645b14	0.0034844326
127	0x3cab1973	0.020886159
128	0x3ab25b1e	0.0013607477
129	0x3ce45661	0.02787322
130	0x3f684f03	0.9074556
131	0x3ca0cf7c	0.019630186
132	0xbbd0592a	-0.0063582854
133	0x3d1d0fcc	0.038345143
134	0xbc164933	-0.0091727255
135	0xbc376294	-0.011192936
136	0xbe012e38	-0.12615287
137	0x3c4246fc	0.011857744
138	0xbe41433f	-0.18873309
139	0x3f53e378	0.82768965
140	0xbdfcd894	-0.123459965
141	0x3b96ec41	0.0046058004
142	0xbe073a06	-0.13205728
143	0x3c2bd10e	0.010486854
144	0x3bc70503	0.0060735955
145	0xbdff42d4	-0.12463918
146	0x3da0d877	0.078537874
147	0xbed11b0f	-0.40840957
148	0x3ecc1db0	0.398664
149	0x3e21e898	0.15811384
150	0x3d9579dc	0.072986335
151	0xbe40397c	-0.18771929
152	0x3e02faf0	0.12791038
153	0x3db52a80	0.08845997
154	0xbdecd5fa	-0.1156425
155	0x3dca1328	0.09866935
156	0xbe6d0154	-0.23145038
157	0x3dd96410	0.106147885
158	0xbbe07cec	-0.0068508293
159	0xbd454ce6	-0.04816904
160	0x3dfa0acf	0.12209093
161	0xbc3e7758	-0.011625133
162	0x3c874362	0.016511623
163	0xbdfb407e	-0.1226816
164	0x3d0c44e0	0.03424537
165	0x3d5e0634	0.054205135
166	0xbe9cf0d9	-0.30652502
167	0x3e131158	0.14362085
168	0x3c5c7c28	0.0134573355
169	0xbcbccf50	-0.023048073
170	0x3d0da90e	0.03458505
171	0xbd9c78bc	-0.07640216
172	0x3c0e495c	0.008684482
173	0xbddacd34	-0.10683671
174	0x3dfae557	0.12250774
175	0x3e035590	0.12825608
176	0x3d829640	0.06376314
177	0xbd982053	-0.0742804
178	0x3d2b71da	0.041856624
179	0xbdeb9ea8	-0.11504871
180	0xbbe36340	-0.0069393218
181	0x3e1c8639	0.15285577
182	0xbc999a82	-0.018750433
183	0xbdadb8e2	-0.08482529
184	0x3d3e84af	0.046513256
185	0xbbfc80a5	-0.0077057653
186	0xbd208fd6	-0.039199673
187	0x3c304611	0.010758893
188	0xbd2141bc	-0.03936933
189	0xbc1fd1a8	-0.009754576
190	0x3ceed580	0.02915454
191	0x3c0acd3e	0.008471785
192	0xbe3b312a	-0.18280473
193	0x3d5ce2f3	0.053927373
194	0xbda98b3e	-0.082785115
195	0x3cdd3998	0.027005002
196	0x3e4bd772	0.19906405
197	0xbcd475e8	-0.025935128
198	0x3dddf123	0.10837009
199	0x3cbf81a2	0.023377243
200	0x3d8c53ae	0.06851898
201	0xbce77942	-0.028256062
202	0xbe39916e	-0.18121883
203	0xbdbab14c	-0.09115848
204	0x3caa1438	0.020761594
205	0x3d1a0b56	0.037608467
206	0x3d4840e8	0.048890024
207	0xbb6e2175	-0.003633586
208	0x3ced9ca8	0.029005364
209	0x3c3ff954	0.011717159
210	0xbe0ebcd2	-0.13939217
211	0x3e20de03	0.15709691
212	0x3d48f9ee	0.049066477
213	0xbd141848	-0.03615597
214	0xbd6a61ea	-0.057222284
215	0xbab0f9be	-0.0013502163
216	0x3c8386e2	0.016055528
217	0x3e4b5f3e	0.19860551
218	0x3cf3b2ea	0.029748399
219	0x3ddeb4eb	0.10874351
220	0xbd8f5b46	-0.06999831
221	0x3de8a1a8	0.113589585
222	0x3d1e7194	0.038682535
223	0x3e259a3a	0.16172114
224	0x3d6d5230	0.05793971
225	0xbb9adc12	-0.0047259415
226	0x3dfc708e	0.123261556
227	0x3c19a07a	0.0093766395
228	0xbe73521d	-0.23761792
229	0x3cefea06	0.029286396
230	0x3e1c6865	0.15274198
231	0xbd6be6b8	-0.057593077
232	0xbda623c8	-0.081122935
233	0xbb67f7d6	-0.0035395524
234	0x3c9c8ee8	0.019111112
235	0x3c171b8e	0.009222878
236	0xbaf91c81	-0.0019005687
237	0x3e2fc705	0.17165764
238	0xbcd5addc	-0.02608388
239	0x3d830f60	0.06399417
240	0x3c2d1f79	0.010566586
241	0x3cc8217c	0.02443003
242	0xbbde5415	-0.0067849257
243	0xbca334d4	-0.019922651
244	0x3e56ca84	0.20975691
245	0xbabf81ac	-0.0014610789
246	0xbb977b1b	-0.0046228296
247	0x3d20827c	0.03918694
248	0xbe8431d8	-0.25819278
249	0x3d639fde	0.055572383
250	0xbd908a73	-0.07057657
251	0xbc733d91	-0.014846222
252	0xbccea85d	-0.025226766
253	0x3ec680d9	0.38770178
254	0x3c3966f4	0.01131605
255	0xbda616eb	-0.0810984

fea_conv.dw.bias f4 [48]
0	0x3e4b761e	0.19869277
1	0x3d426a30	0.04746455
2	0x3d521195	0.0512863
3	0x3c405da6	0.0117410775
4	0xbdd50208	-0.10400778
5	0x3e0440de	0.1291537
6	0x3dff0b0c	0.12453279
7	0x3e099e66	0.1343933
8	0x367d2a04	3.7724394e-06
9	0xbe3d2c64	-0.18473965
10	0xbd32adec	-0.043622896
11	0xbdcf59f8	-0.10124582
12	0x3dff4b62	0.1246555
13	0x3dabe6eb	0.083936535
14	0x3ce73a58	0.028226063
15	0x3d8dbe12	0.06921019
16	0x3d8af623	0.06785228
17	0xbd6324ca	-0.055455007
18	0x3d97703e	0.073944554
19	0xbe2550dc	-0.16144127
20	0xbd8082ea	-0.0627497
21	0x3b313df4	0.0027044984
22	0x3e3b8f92	0.18316486
23	0x3d955f6d	0.07293592
24	0x3e06ce44	0.13164622
25	0xbbe2d012	-0.0069217766
26	0x3d41b3ec	0.047290727
27	0xbb73a59f	-0.0037177575
28	0x3d56da5c	0.052454337
29	0x3dd12f4e	0.10214101
30	0x3d9f9083	0.07791235
31	0xbd960c35	-0.07326547
32	0x3d2f0d28	0.042737156
33	0x3ad00c24	0.0015872759
34	0xbdee6496	-0.11640279
35	0x3e079e64	0.13244015
36	0xbdb9098a	-0.090350226
37	0x3e282242	0.16419318
38	0xbd829a33	-0.063770674
39	0x3ae17204	0.0017200117
40	0xbb67d4d7	-0.0035374665
41	0xbe20a146	-0.15686521
42	0x3d941670	0.07230842
43	0xbd1fc505	-0.03900625
44	0xbcd59570	-0.026072234
45	0xbca0b390	-0.019616872
46	0x3e5c5be3	0.21519427
47	0x3c2a7fe7	0.010406471

B1.cw f4 [1, 48]
0	0x3f0637ec	0.5242908
1	0x3f69c1f9	0.91311604
2	0x3f87da06	1.061341
3	0x3f418e86	0.756081
4	0x3fb80af6	1.4378345
5	0x3eaa255d	0.3323163
6	0x3f54d890	0.8314295
7	0x3f2eb87f	0.6825027
8	0x3f1ad5dd	0.6048258
9	0x3ef74908	0.48297906
10	0x3f2f1380	0.6838913
11	0x3f2d66b4	0.6773484
12	0x3f2b02bb	0.6680104
13	0x3f06867e	0.5254897
14	0x3eb97eae	0.3622946
15	0x3ee71412	0.451325
16	0x3fa81179	1.3130332
17	0x3efbb581	0.49161914
18	0x3f2ce2f9	0.6753383
19	0x3f6a7955	0.9159139
20	0x3f811ee8	1.0087557
21	0x3f06f4f4	0.5271752
22	0x3f36e586	0.71443975
23	0x3e89d201	0.26918033
24	0x3f4ceb7b	0.80046815
25	0x3f7ec107	0.99513286
26	0x3e5b3d8e	0.214102
27	0x3e8d34f0	0.2757945
28	0x3e293c51	0.16526915
29	0x3ee1b546	0.44083613
30	0x3f2ab555	0.6668294
31	0x3f95b94b	1.1697172
32	0x3f3cd8e1	0.7376843
33	0x3fa72f3f	1.3061293
34	0x3e395b59	0.18101253
35	0x3f0ec697	0.55771774
36	0x3f4dab40	0.8033943
37	0x3f1c56a0	0.6106968
38	0x3e6ae47a	0.2293872
39	0x3ed9ffc2	0.4257794
40	0x3f1d388b	0.614144
41	0x3f03647c	0.513252
42	0x3fb65992	1.4246085
43	0x3f3f36b7	0.74692863
44	0x3e9184f4	0.28421748
45	0x3edf942a	0.43667728
46	0x3f914e29	1.1351978
47	0x3eaec50e	0.34134716

B1.c1_d.weight f4 [24, 48]
0	0x3c08db83	0.008353117
1	0x3ec898ce	0.3917908
2	0xbe05443d	-0.13014312
3	0xbf25362a	-0.6453577
4	0x3d59660e	0.053075843
5	0x3cf38a49	0.029729025
6	0x3e23854d	0.15968819
7	0xbe83a804	-0.25714123
8	0xbf0fe1b2	-0.5620376
9	0x3d04f62d	0.032461334
10	0xbd55b3ca	-0.052173413
11	0xbeedc70c	-0.46440923
12	0xbc6c686f	-0.014429196
13	0xbd87c4b8	-0.06629318
14	0xbe598c50	-0.21244931
15	0xbf2ec65d	-0.6827143
16	0xbf40c987	-0.75307506
17	0xbe678681	-0.22609903
18	0xbedaa958	-0.42707324
19	0xbdecfbd1	-0.11571468
20	0xbe6583e6	-0.22413597
21	0xbf8f37f0	-1.1188946
22	0xbebed211	-0.37269643
23	0x3ec15ade	0.3776464
24	0xbdedc60c	-0.1161004
25	0xbe1abe50	-0.15111661
26	0xbd8b6a63	-0.06807401
27	0xbd957cf8	-0.072992265
28	0x3e5afc86	0.21385393
29	0x3e20eeba	0.15716067
30	0xbef9b7cc	-0.48773038
31	0xbe36b9d1	-0.17844321
32	0x3e1896f9	0.14901341
33	0x3f2138d4	0.6297734
34	0x3ebb345e	0.3656339
35	0xbdb2d7ee	-0.087325916
36	0xbd84df01	-0.06487847
37	0x3ea7671b	0.3269585
38	0xbe894ac0	-0.26814842
39	0xbee64f23	-0.44982252
40	0x3f79d8c6	0.97596395
41	0xbe134ecd	-0.14385529
42	0xbcd4e6f2	-0.02598903
43	0xbc9d4e9e	-0.019202527
44	0x3d80af9b	0.06283494
45	0xbf5642c4	-0.83695626
46	0x3d9755ff	0.07389449
47	0xbe93c766	-0.28863066
48	0xbf068ade	-0.52555645
49	0x3df4c0c6	0.11950831
50	0xbf431da8	-0.76217127
51	0x3f2846cc	0.6573303
52	0xbd11c4d6	-0.035588108
53	0x3d91fa56	0.07127826
54	0xbe832dba	-0.25620824
55	0x3e6d0169	0.23145069
56	0xbe375d18	-0.17906606
57	0xbe4501be	-0.19238946
58	0xbe9414c6	-0.289221
59	0x3eb92ce6	0.36167067
60	0x3e1f8b72	0.15580538
61	0x3d5bfa2c	0.05370538
62	0xbe65247e	-0.22377202
63	0xbf108d6c	-0.5646579
64	0x3f227cfc	0.6347196
65	0xbde0118e	-0.10940848
66	0x3d0ccb2f	0.03437346
67	0xbd6bd180	-0.05757284
68	0xbe275ce2	-0.16344026
69	0xbd84dd52	-0.06487526
70	0x3e3e4d74	0.18584234
71	0xbe3509df	-0.17679547
72	0xbf86b064	-1.052258
73	0x3eca10ea	0.3946603
74	0xbe8b6c10	-0.27230883
75	0x3c00b930	0.007856652
76	0x3dd9b4e6	0.10630207
77	0xbdf5964e	-0.11991559
78	0xbe06c7ad	-0.13162108
79	0xbdfbd24a	-0.12295969
80	0x3ebda33c	0.370386
81	0xbe2ce9c0	-0.16886044
82	0x3ea7838d	0.32717553
83	0x3e526e94	0.20549995
84	0x3ead05ac	0.3379339
85	0xbe8889b7	-0.26667568
86	0xbdf51200	-0.11966324
87	0xbe567de9	-0.20946468
88	0x3f0ec05a	0.55762255
89	0x3e61a8b4	0.22037011
90	0x3d562386	0.05227997
91	0xbe44fa59	-0.19236125
92	0x3ee9d7bc	0.45672405
93	0xbe8557b2	-0.2604347
94	0x3da52760	0.08064151
95	0xbe157133	-0.14593963
96	0x3e622390	0.22083879
97	0x3e07372b	0.13204639
98	0xbebcc3b1	-0.3686805
99	0xbea13493	-0.31485423
100	0xbdeca61e	-0.11555122
101	0xbda40da1	-0.08010412
102	0xbd2560a6	-0.040375374
103	0x3cb550aa	0.02213319
104	0x3e0026da	0.1251482
105	0x3e5331f4	0.20624524
106	0x3e0e4416	0.1389316
107	0xbe47160c	-0.19442004
108	0xbeb69053	-0.35656986
109	0xbe9ec092	-0.31006294
110	0xbfa4d132	-1.2876341
111	0x3e9164b4	0.28397143
112	0x3e1ba4cb	0.15199582
113	0x3dbdeb60	0.0927341
114	0x3eb9dd7e	0.36301798
115	0x3d3d4f59	0.04621825
116	0x3ed0da10	0.40791368
117	0x3f0432cd	0.51640016
118	0xbe6c974c	-0.2310459
119	0xbd236a2c	-0.039896175
120	0x3e833f46	0.2563421
121	0xbf435daa	-0.76314795
122	0x3f1da0b0	0.61573315
123	0xbf78b27f	-0.97147363
124	0x3eb1979d	0.34685984
125	0x3d330548	0.04370621
126	0x3ec73d56	0.38913983
127	0xbecd2324	-0.40065873
128	0xbeeee93a	-0.46662313
129	0x3d6168c8	0.055031568
130	0x3dfc3c04	0.123161346
131	0xbe5e530a	-0.21711364
132	0xbec7c710	-0.3901906
133	0x3e2e9fe2	0.17053178
134	0x3ea70429	0.3262036
135	0x3f0dc1b3	0.55373687
136	0xbe8da78c	-0.2766689
137	0x3e0b3558	0.13594568
138	0xbe8685f1	-0.26274064
139	0xbd29cb74	-0.041453794
140	0xbf89b3b1	-1.0757962
141	0xbf006384	-0.5015185
142	0xbde37da4	-0.111079484
143	0x3def082e	0.11671482
144	0x3eae2fc8	0.3402083
145	0xbeaee414	-0.34158385
146	0xbedfa9f5	-0.43684354
147	0x3eb2e678	0.3494146
148	0x3e45488a	0.19265953
149	0xbcf734e8	-0.030176595
150	0xbea6e7bb	-0.3259867
151	0x3e823d89	0.25437573
152	0x3eed7028	0.4637463
153	0xbe9d8db7	-0.30772182
154	0x3e14e43a	0.14540187
155	0xbc83a380	-0.016069174
156	0xbf3b5993	-0.73183554
157	0x3ecf0408	0.40432763
158	0x3e73f5b2	0.23824194
159	0x3eaa93f9	0.3331602
160	0x3ebecbac	0.37264764
161	0x3de7961b	0.11307927
162	0x3eba9ed8	0.36449313
163	0x3e4add6f	0.19811033
164	0xbe061aa8	-0.13096106
165	0xbe7edd98	-0.24889219
166	0x3e3fc47c	0.18727297
167	0xbe8c9414	-0.27456725
168	0xbe8bf47b	-0.2733496
169	0xc02ba032	-2.6816525
170	0xbf260ef2	-0.64866555
171	0xbef52cb7	-0.47885677
172	0x3e217ab6	0.15769467
173	0x3eee7f86	0.46581668
174	0xbe8382a2	-0.25685602
175	0x3d4064de	0.046971194
176	0xbe940405	-0.28909317
177	0xbf05b8d2	-0.5223514
178	0x3dbc480d	0.0919343
179	0xbd86e00e	-0.06585704
180	0x3eeb793a	0.45990926
181	0xbe522314	-0.20521194
182	0x3e668431	0.22511365
183	0xbe58b2ee	-0.21162006
184	0x3e0bdbdc	0.13658088
185	0xbc269715	-0.010167857
186	0xbeac2f54	-0.33629858
187	0x3ed6867e	0.41899484
188	0x3ea50358	0.32229114
189	0xbeb6362e	-0.3558821
190	0xbe89fcbe	-0.2695064
191	0x3f08233b	0.5317876
192	0x3d68ef92	0.056869097
193	0xbdf5f7aa	-0.12010129
194	0x3e0c185e	0.1368117
195	0xbeac5824	-0.33660996
196	0x3da4a183	0.080386184
197	0x3c9a31a2	0.018822495
198	0xbe47563b	-0.19466488
199	0xbdd4fe18	-0.10400027
200	0x3f174036	0.59082353
201	0x3e5cc7b0	0.2156055
202	0xbe8b04d4	-0.2715212
203	0xbecce474	-0.40018046
204	0x3b8bfce4	0.0042720903
205	0x3ee8fb87	0.455044
206	0x3e7685d1	0.24074484
207	0x3f66ff3a	0.90233195
208	0xbe9376ec	-0.28801668
209	0xbdbd0921	-0.09230257
210	0xbd6de7f4	-0.058082536
211	0x3e0712b6	0.13190731
212	0x3d4443f6	0.047916375
213	0x3e4b189a	0.19833604
214	0xbe2d3bfa	-0.1691741
215	0x3e1a3e82	0.15062907
216	0xbaa7fd76	-0.0012816626
217	0x400654c2	2.0989232
218	0xbe85d2dc	-0.26137435
219	0xbec480ee	-0.38379616
220	0xbe6715a5	-0.2256685
221	0x3b6ef3c9	0.0036461225
222	0x3d8c7fa2	0.068602815
223	0xbf1cabb1	-0.6119948
224	0xbec755e3	-0.38932714
225	0xbebb76e6	-0.3661415
226	0x3e8a0680	0.26958084
227	0xbdedb59a	-0.116069034
228	0xbd58ea00	-0.052957535
229	0xbd9e493a	-0.077288106
230	0xbd966566	-0.07343559
231	0xbcc3671c	-0.023852877
232	0xbeb0111a	-0.34388047
233	0xbd81b0b6	-0.06332533
234	0xbdcb148a	-0.09916027
235	0xbd3e002b	-0.04638688
236	0xbfa7761a	-1.3082917
237	0xbec49058	-0.38391376
238	0xbd8d01d4	-0.06885114
239	0xbe571f53	-0.21008043
240	0xbc1a1c17	-0.009406111
241	0xbe18636a	-0.14881673
242	0x3ec89cd4	0.3918215
243	0xbf9deed2	-1.2338507
244	0xbd840b14	-0.064474255
245	0x3ecb7c7a	0.39743406
246	0xbe018359	-0.12647761
247	0x3e22999c	0.1587891
248	0xbcb7578a	-0.022380609
249	0x3df7a2e4	0.12091616
250	0xbd2cd239	-0.04219267
251	0x3e3e2db2	0.18572119
252	0xbea686b9	-0.3252466
253	0x3e13f73f	0.14449786
254	0x3cc94822	0.024570528
255	0xbe55043e	-0.208024

B1.c1_d.bias f4 [24]
0	0x3cfdabc6	0.030965697
1	0x3d530662	0.05151976
2	0xbe28ac7d	-0.16472049
3	0x3e0199d5	0.12656339
4	0xbd9389c0	-0.07204008
5	0x3d021217	0.031755533
6	0x3e4031d2	0.18769005
7	0xbd9aba90	-0.07555115
8	0x3ce89082	0.02838922
9	0x3aa2a8a2	0.0012409876
10	0x3d7883d5	0.0606726
11	0xbc1e8c86	-0.009677058
12	0xbdf3545d	-0.118813254
13	0xbe0a4051	-0.13501097
14	0x3ddeca0a	0.1087838
15	0xbd1cd2a1	-0.03828681
16	0x3cdd9032	0.027046297
17	0x3df4ad55	0.11947123
18	0xbddebdc4	-0.10876039
19	0x3d8c1bfb	0.06841274
20	0xbc3cede8	-0.011531331
21	0xbd0ba7c3	-0.034095537
22	0x3d9b54e6	0.075845525
23	0xbd03aa80	-0.032145023

B1.c1_r.pw.weight f4 [48, 48]
0	0xbdc7fc2a	-0.09764893
1	0xbe7dad88	-0.24773228
2	0xbe32bc7c	-0.17454714
3	0x3ea9b1f2	0.33143574
4	0x3d9a85ca	0.075450495
5	0xbe9fff25	-0.31249347
6	0xbdf63693	-0.12022128
7	0xbdf51c7d	-0.11968324
8	0xbe9adb23	-0.30245313
9	0xbe7bcbcc	-0.24589461
10	0x3f6113f9	0.879211
11	0x3f308908	0.68959093
12	0x3ea96419	0.3308418
13	0x3e80f246	0.2518484
14	0x3e766492	0.24061802
15	0xbea17627	-0.31535456
16	0xbe25e587	-0.16200839
17	0x3e873018	0.2640388
18	0x3e44c810	0.19216943
19	0x3df3d4ea	0.119058445
20	0x3de90dfd	0.11379621
21	0x3f10f397	0.5662169
22	0x3e159165	0.14606245
23	0xbb4fb630	-0.0031694286
24	0xbe4f1b22	-0.20225194
25	0xbe0946a5	-0.13405855
26	0xbf4ce264	-0.80032945
27	0x3ea43bb3	0.32076797
28	0x3f13ba10	0.57705784
29	0xbeb32eb0	-0.34996557
30	0x3d7b433e	0.061343424
31	0x3eb3f1ce	0.3514542
32	0x3e8224b4	0.25418627
33	0x3f07922d	0.5295742
34	0x3ea6c616	0.32573003
35	0xbe0c84f8	-0.13722599
36	0xbea392f8	-0.31948066
37	0x3e93eb54	0.2889048
38	0x3e04d4bd	0.12971778
39	0xbd59aa85	-0.053141136
40	0xbdf96bc8	-0.12178761
41	0xbca22300	-0.01979208
42	0x3dadd29a	0.08487435
43	0x3eb67a6c	0.35640275
44	0x3f330327	0.69926685
45	0x3ec0f3ea	0.37686092
46	0x3ba7a938	0.005116608
47	0xbecfe58a	-0.40604812
48	0xbe64feef	-0.22362874
49	0xbf5080bc	-0.81446433
50	0xbeef93a6	-0.46792334
51	0x3f8860ce	1.0654542
52	0xbd807c28	-0.06273681
53	0xbee2f318	-0.4432609
54	0xbee15923	-0.44013318
55	0x3ea7c315	0.32766023
56	0xbd85e2e6	-0.06537418
57	0xbeca5a08	-0.39521813
58	0xbd2bf3bc	-0.04198049
59	0x3dce1813	0.100631855
60	0xbdcab272	-0.09897317
61	0x3ea2d64c	0.3180412
62	0x3f3cde50	0.7377672
63	0x3fd8b6eb	1.6930822
64	0x3e8f717c	0.2801627
65	0xbdfcf31b	-0.12351056
66	0x3e8e2584	0.27762997
67	0xbdb0ed88	-0.086390555
68	0xbcce3dea	-0.025176007
69	0xbe1fc195	-0.1560119
70	0xbe8392ae	-0.25697845
71	0xbfba8d96	-1.4574459
72	0x3f3f582e	0.74743927
73	0x3eb9ffc0	0.36327934
74	0xbe9f3078	-0.31091666
75	0xbe865109	-0.262337
76	0x3e181a45	0.14853771
77	0x3d95eb55	0.07320277
78	0x3c9a08d5	0.01880304
79	0xbf9b4af6	-1.2132251
80	0x3dd6746a	0.10471423
81	0x3ef92eea	0.48668605
82	0x3fa4f0b9	1.2885963
83	0xbe1f88ad	-0.15579481
84	0xbd9b1c89	-0.07573802
85	0x3d470910	0.048592627
86	0x3f068ea1	0.52561384
87	0x3e42852a	0.1899611
88	0x3eba8bed	0.3643488
89	0x3e9f9a4a	0.311724
90	0x3e6ba18b	0.23010843
91	0x3ca73abc	0.020413749
92	0xbf022f43	-0.50853366
93	0xbef23830	-0.47308493
94	0x3c035b1e	0.0080173295
95	0xbfdd246e	-1.7276742
96	0x3f03d916	0.5150312
97	0xbea17556	-0.31534833
98	0x3ee44370	0.445827
99	0xbdaab3ce	-0.08335076
100	0x3e1714c0	0.14754009
101	0x3e0ef636	0.1396111
102	0x3da801a1	0.08203436
103	0xbdfa8f26	-0.12234335
104	0x3f38a183	0.7212145
105	0x3d72582a	0.05916611
106	0x3e8ed571	0.27897218
107	0xbe77d7eb	-0.2420346
108	0xbeda9674	-0.42692912
109	0x3e87b200	0.2650299
110	0xbd83517c	-0.06412026
111	0x3e56e1d5	0.20984586
112	0xbee690ac	-0.4503225
113	0x3d436250	0.04770118
114	0x3c605307	0.01369167
115	0xbd1700f2	-0.036866136
116	0x3e8330fb	0.25623307
117	0xbd37f44c	-0.044910714
118	0xbe070db5	-0.13188823
119	0xbdf4866a	-0.119397
120	0x3eb7270e	0.35771984
121	0x3f2d04f2	0.6758567
122	0x3ecef024	0.40417588
123	0x3ecd6c5f	0.40121743
124	0x3dfed0a1	0.124421366
125	0x3eb70b38	0.35750747
126	0xbde3b985	-0.111193694
127	0xbea9da26	-0.33174247
128	0xbed6dd7e	-0.4196586
129	0xbebf7d85	-0.3740045
130	0xbec718e3	-0.38886175
131	0x3e00555e	0.12532565
132	0xbecbc71e	-0.39800352
133	0xbee372c8	-0.4442351
134	0xbddf6cf8	-0.10909456
135	0xbd0345c2	-0.032048948
136	0xbeae89a4	-0.34089386
137	0x3af842e8	0.0018940838
138	0x3e70d12e	0.23517296
139	0x3e30b3ea	0.17256132
140	0xbf0e6ef6	-0.5563806
141	0x3f17f12a	0.5935236
142	0xbe08d292	-0.13361576
143	0x3de73ba8	0.112906754
144	0xbde74071	-0.11291588
145	0x3d87f141	0.066378124
146	0xbdff90be	-0.12478779
147	0x3d8a7cf0	0.06762111
148	0x3d98fb70	0.07469833
149	0xbe20e112	-0.15710858
150	0x3fc64609	1.5490123
151	0xbe5b0cac	-0.21391553
152	0xbd67b22c	-0.056566402
153	0x3e8c2b7d	0.2737693
154	0x3dc7aaa6	0.097493455
155	0x3e415654	0.18880588
156	0xbd8d45fe	-0.068981156
157	0xbec1c571	-0.37845948
158	0x3f117756	0.5682272
159	0xbf5c5d98	-0.8608031
160	0xbd64b8ec	-0.055840418
161	0x3e35ab24	0.17741066
162	0x3e29e338	0.16590583
163	0xbc07fb51	-0.008299665
164	0x3da16272	0.07880105
165	0x3cb9069a	0.022586156
166	0xbeb79461	-0.35855392
167	0xbd0b6f2a	-0.03404156
168	0x3ea4abcc	0.3216232
169	0xbf0b79fa	-0.54482996
170	0xbf4d0b18	-0.8009505
171	0x3e9e1c12	0.3088079
172	0xbd097cad	-0.033566166
173	0xbe1cfc91	-0.15330721
174	0xbebdc300	-0.37062836
175	0x3ce8db14	0.028424777
176	0x3f1f85c1	0.6231347
177	0x3c7d4068	0.01545725
178	0x3e045398	0.12922513
179	0xbe1c2ae6	-0.1525074
180	0xbf204773	-0.6260902
181	0xbcc72878	-0.02431129
182	0x3c621d72	0.013800966
183	0xbf440837	-0.76575035
184	0x3ea11e12	0.31468254
185	0x3e407be8	0.18797266
186	0xbdbbef0d	-0.09176455
187	0x3dc2df6b	0.0951527
188	0x3f12b3da	0.5730568
189	0xbec10ce9	-0.37705162
190	0xbd464198	-0.0484024
191	0x3ebe16ce	0.37126774
192	0x3d9aa4bf	0.07550954
193	0xbe65d0e6	-0.2244297
194	0x3d7072cc	0.05870323
195	0x3d29ea5a	0.04148326
196	0x3ba9d2da	0.005182606
197	0xbd39d81d	-0.045372117
198	0xbd891d76	-0.06695072
199	0x3da3a082	0.07989599
200	0x3d408aac	0.047007248
201	0x3d20b836	0.039238177
202	0x3e976448	0.29568696
203	0xbe92178f	-0.285336
204	0xbdb51c78	-0.088433206
205	0x3dc1f3fd	0.09470365
206	0x3f506127	0.8139824
207	0x3dc1eebe	0.094693646
208	0xbf09387a	-0.536018
209	0xbe0f452a	-0.13991228
210	0xbe4500e6	-0.19238624
211	0x3d5c3ac0	0.053766966
212	0x3bcb4d2c	0.006204268
213	0xbd01b489	-0.031666312
214	0xbd8ba223	-0.068180345
215	0x3e9612fe	0.29311365
216	0x3d5ece68	0.054396063
217	0xbef30bb1	-0.47469857
218	0xbfcbd584	-1.5924535
219	0x3e8b912f	0.27259204
220	0x3ecec373	0.4038349
221	0x3cf9d31d	0.030496174
222	0xbf04250e	-0.5161904
223	0x3e2c1e4f	0.16808437
224	0x3d8faeda	0.07015772
225	0xbed3dbc3	-0.41378602
226	0xbd065e48	-0.032804757
227	0x3e90f1fb	0.28309616
228	0xbee5792c	-0.4481901
229	0x3e99de2d	0.3005232
230	0x3ea39dcb	0.31956324
231	0x3d2567d0	0.040382206
232	0xbf11cbe5	-0.56951743
233	0x3ce209a2	0.027592484
234	0xbe824aa4	-0.2544757
235	0xbe2eca61	-0.17069389
236	0xbce1cb8d	-0.02756288
237	0x3ebc40bc	0.36768138
238	0x3d794db1	0.060865108
239	0xbf0dcf74	-0.55394673
240	0xbe68a71d	-0.22719999
241	0x3e133205	0.1437455
242	0x3cd69cfe	0.026197907
243	0x3de8ff8c	0.11376867
244	0x3e363f89	0.17797674
245	0xbd778fd0	-0.060439885
246	0xbec6c517	-0.38822243
247	0xbd743c16	-0.059627615
248	0xbf9b8af2	-1.2151778
249	0xbe8e8262	-0.2783385
250	0x3e648d78	0.22319591
251	0x3e95d8fd	0.2926711
252	0xbec53f7e	-0.38525003
253	0x3f29e252	0.6636096
254	0x3ea0bbd1	0.31393293
255	0xbec6ece6	-0.38852614

B1.c1_r.pw.bias f4 [48]
0	0xbd48154b	-0.04884843
1	0xbd03e5c8	-0.03220156
2	0xbdab391f	-0.08360504
3	0xbd6201a3	-0.055177342
4	0xbd32be9d	-0.043638814
5	0x3d52f2a8	0.051500946
6	0xbe5cef14	-0.21575576
7	0x3ab3e70e	0.0013725476
8	0xbd834f0e	-0.06411563
9	0xbc979dc8	-0.018507853
10	0x3d39624f	0.04525977
11	0x3e537dcc	0.20653456
12	0xbd23499c	-0.03986512
13	0x3cef6df7	0.02922724
14	0x3d68c9b4	0.056832984
15	0x3e4d4d01	0.20048906
16	0x3cb0a076	0.021560889
17	0xbe225c72	-0.15855578
18	0xbdaa7600	-0.08323288
19	0x3e225fe8	0.15856898
20	0xbcbca7ed	-0.023029292
21	0x3daa3fb0	0.08312929
22	0xbe179383	-0.14802365
23	0x3c8b9b8e	0.017041948
24	0x3e55672e	0.20840141
25	0x3e93ac17	0.28842232
26	0x3cd60c82	0.026129011
27	0x3e2a2fbe	0.16619775
28	0xbe213452	-0.15742615
29	0xbd2f2389	-0.0427585
30	0x3d40b5b7	0.047048297
31	0xbc42ec7e	-0.011897204
32	0xbd91b0cc	-0.071137995
33	0x3e0f7a34	0.1401146
34	0x3e3dab50	0.18522382
35	0x3dfca1e2	0.12335564
36	0x3ea7231c	0.32643974
37	0x3d1fc520	0.039006352
38	0xbd50f826	-0.051017903
39	0x3d40eddb	0.047101837
40	0x3f118e30	0.56857586
41	0x3de77f82	0.11303617
42	0x3d0333a8	0.032031685
43	0x3cbaf020	0.022819579
44	0x3e157715	0.14596207
45	0x3d7a2ad9	0.06107602
46	0xbe33545a	-0.17512646
47	0x3bd7317a	0.0065671774

B1.c1_r.dw.weight f4 [48, 1, 3, 3]
0	0x3d400a2f	0.04688471
1	0x3e4a606d	0.19763346
2	0xbdba1c7e	-0.09087466
3	0x3e3b8d32	0.1831558
4	0xbf7f1bca	-0.9965178
5	0x3cd2e64e	0.025744583
6	0x3db0635f	0.086127035
7	0x3dcf5c52	0.101250306
8	0xbc04d275	-0.0081068175
9	0x3e5b48a6	0.21414432
10	0x3ee8b596	0.4545104
11	0x3ea1befe	0.31591028
12	0x3ee7575e	0.45183843
13	0xc01a21f2	-2.4083219
14	0x3f2a5aec	0.66544986
15	0x3e1918f8	0.14950931
16	0x3ea8787a	0.32904416
17	0x3e6a900e	0.22906515
18	0xbd8273a5	-0.06369714
19	0x3e2432a8	0.16034949
20	0x3d26815b	0.040650707
21	0xbf3a9d5a	-0.7289635
22	0x3ecb62c2	0.39723784
23	0xbeb8992c	-0.3605436
24	0xbe7c9b26	-0.2466856
25	0xbef14b02	-0.4712754
26	0xbdb2f910	-0.08738911
27	0xbd8da1c4	-0.0691562
28	0xbdf055ce	-0.11735116
29	0xbd26179f	-0.04054987
30	0xbda912a5	-0.08255509
31	0xbfce355a	-1.6110032
32	0x3cbd8cb2	0.023138378
33	0xbd2e50c4	-0.042557493
34	0xbdb5c3af	-0.08875214
35	0xbd0866c7	-0.03330114
36	0xbc91d6b8	-0.017802581
37	0xbe387e4f	-0.18016933
38	0xbd0ef526	-0.03490176
39	0xbeca3ae4	-0.39498055
40	0xbe6b104b	-0.22955434
41	0xbf3195ea	-0.69369376
42	0xbc936246	-0.017991196
43	0xbd514209	-0.051088367
44	0xbe38ee8c	-0.18059748
45	0x3e1f15b6	0.15535626
46	0x3ef603b6	0.48049706
47	0x3e1a91d8	0.15094697
48	0xbd685f1a	-0.05673132
49	0xbf50afd8	-0.81518316
50	0xbd3bde1f	-0.045866128
51	0xbe1b2968	-0.15152514
52	0xbf14369a	-0.57895815
53	0xbd0779e9	-0.033075247
54	0x3ccab53c	0.024744622
55	0x3d844737	0.06458896
56	0xb9fbd358	-0.00048031914
57	0x3c95d50e	0.018290069
58	0x3fa5a03a	1.2939522
59	0x3dd57628	0.10422927
60	0x3cf1ea46	0.029530656
61	0x3cdcc1e8	0.02694793
62	0x3b3d2362	0.00288602
63	0xbe0eaf56	-0.13934073
64	0xbf4181ea	-0.7558886
65	0xbed0d7b2	-0.40789562
66	0x3e812290	0.25221682
67	0xbe0598a7	-0.13046513
68	0x3e2657c9	0.16244425
69	0xbe11b15e	-0.14227816
70	0x3e8ad957	0.27118942
71	0xbde290c3	-0.11062767
72	0x3d958c4e	0.073021516
73	0x3e37043c	0.17872709
74	0x3d86732e	0.065649375
75	0xbe82afee	-0.2552485
76	0xbf97d164	-1.1860776
77	0x3e679cf7	0.22618471
78	0xbe0cd0d8	-0.13751543
79	0xbebcb6a2	-0.36858088
80	0x3db932ec	0.09042916
81	0xbdde4800	-0.10853577
82	0xbdd10d2f	-0.10207593
83	0xbc2a5c59	-0.010397994
84	0xbef9b224	-0.48768723
85	0x3f8a25fe	1.0792844
86	0xbe81f90c	-0.2538532
87	0xbe976e0a	-0.2957614
88	0xbe849054	-0.25891364
89	0xbdfef936	-0.12449877
90	0x3dd28270	0.10278785
91	0x3e256576	0.16151986
92	0x3dff2f22	0.12460162
93	0x3b5c73af	0.0033638289
94	0x3f24c159	0.64357525
95	0x3c6e914e	0.0145610105
96	0x3d85ba1a	0.06529637
97	0x3e901baf	0.2814612
98	0x3e0e55a1	0.13899852
99	0xbda12991	-0.07869256
100	0xbea3164a	-0.31852943
101	0xbe2e125c	-0.16999191
102	0xbde77e90	-0.11303437
103	0x3fa04442	1.2520831
104	0xbe27b68c	-0.1637823
105	0x3c08d02c	0.008350413
106	0xbdf0fab8	-0.11766571
107	0xbd4939f2	-0.049127527
108	0x3d93908d	0.07205305
109	0x3e832665	0.2561523
110	0x3d7015e1	0.058614615
111	0x3da65a9a	0.081227496
112	0xbef8e03f	-0.48608586
113	0xbe19e954	-0.15030414
114	0x3dc5ae40	0.09652376
115	0xbf0d5434	-0.5520661
116	0xbd057b9c	-0.032588586
117	0xbd4365a8	-0.04770437
118	0xbf2dcc62	-0.6788999
119	0x3e5db299	0.21650161
120	0x3e617580	0.22017479
121	0x3eb087eb	0.34478697
122	0x3e819b80	0.2531395
123	0x3d2546cb	0.040350717
124	0xbebf21c2	-0.37330443
125	0x3dcb42a0	0.09924817
126	0xbd0fd4fc	-0.035115227
127	0xbdff7f04	-0.12475398
128	0xbd76e597	-0.060277548
129	0xbda99f88	-0.08282381
130	0x3fabd67a	1.3424828
131	0xbe62f77f	-0.22164725
132	0xbca710b8	-0.020393714
133	0xbe183fc2	-0.14868072
134	0xbd846672	-0.064648524
135	0x3dbb897b	0.09157082
136	0x3e0c8d5d	0.13725801
137	0x3df0cd8c	0.11757955
138	0x3e785bd0	0.24253774
139	0xbf5c8828	-0.8614526
140	0x3e1cfbaf	0.15330385
141	0x3df913f0	0.12162006
142	0x3e4e9d64	0.20177227
143	0x3dda0036	0.106445715
144	0x3d46fc22	0.048580296
145	0xbe0815f4	-0.13289624
146	0xbe4b3f3e	-0.19848344
147	0x3ec947b7	0.39312527
148	0x3f8a01a6	1.0781753
149	0xbf602f2e	-0.8757199
150	0x3d28d49e	0.041218393
151	0xbd865898	-0.06559867
152	0xbe3957bc	-0.18099874
153	0x3e775852	0.24154785
154	0x3f0cdc53	0.5502369
155	0x3e5b77b8	0.21432388
156	0x3eda25c6	0.42606944
157	0xbf8e41d1	-1.1113836
158	0x3f01c288	0.50687456
159	0x3e1e346c	0.15449685
160	0x3eff91cc	0.49915922
161	0x3e3f1cbd	0.18663307
162	0x3e761b74	0.2403391
163	0xbeb92c3a	-0.36166555
164	0xbf003d41	-0.50093466
165	0xbf9b1c44	-1.2118001
166	0x4025d7c2	2.5912938
167	0xc0380b28	-2.875681
168	0x3e3a2a3b	0.18180172
169	0xbf031c20	-0.5121479
170	0xbefd082d	-0.494203
171	0xbeb574c6	-0.35440654
172	0xbed0a71e	-0.407525
173	0x3d9c4896	0.07631032
174	0xc0080cc3	-2.125779
175	0xbd0c9d74	-0.034329847
176	0xbea0d92c	-0.3141569
177	0xbe0a3c8a	-0.13499656
178	0xbebd59b6	-0.36982507
179	0xbc7028dc	-0.014658179
180	0x3c96cc37	0.018407924
181	0x3cac3528	0.02102144
182	0x3c0a68ae	0.008447809
183	0x3d731bb3	0.059352588
184	0x3fcdcf18	1.6078825
185	0x3d2c841c	0.042118177
186	0x3ca8c9d5	0.020604054
187	0x3db470c1	0.088105686
188	0x3cbc5604	0.022990234
189	0xbdb39c69	-0.08770067
190	0x3f09b274	0.5378792
191	0xbec24735	-0.37944952
192	0xbaa7a1c0	-0.0012789294
193	0x3f1cd502	0.61262524
194	0x3e6dd640	0.23226261
195	0xbeb9ba6f	-0.3627505
196	0x3e1b4ec6	0.15166768
197	0xbf15200c	-0.58252025
198	0x3dd5b209	0.10434348
199	0x3d55fd72	0.052243657
200	0x3e39d7f6	0.18148789
201	0xbf7c93cc	-0.9866302
202	0xbee38403	-0.44436654
203	0x3f29ae28	0.66281366
204	0x3d816999	0.06318969
205	0x3e23f324	0.1601072
206	0x3e32801f	0.17431687
207	0xbe95b5b5	-0.29240194
208	0xbed9570a	-0.42449218
209	0xbe931ee8	-0.28734517
210	0xbea664aa	-0.32498676
211	0x3d045ac2	0.032313116
212	0xbe9c776b	-0.3055986
213	0xbe923a88	-0.2856028
214	0xbeb9f3ec	-0.3631891
215	0xbe8a9ede	-0.2707433
216	0xbd552464	-0.052036658
217	0x3f3fa276	0.7485727
218	0x3e1ca834	0.1529854
219	0x3e3c90a3	0.1841455
220	0xbe061f9c	-0.13097996
221	0xbe07034d	-0.13184853
222	0xbde8244c	-0.11335048
223	0xbf2ab114	-0.6667645
224	0xbf06a126	-0.52589643
225	0x3cc7c711	0.024386914
226	0xbf8b6dcd	-1.0892884
227	0x3e3f85f1	0.18703438
228	0xbc656274	-0.014000524
229	0x3fcc0c96	1.5941341
230	0x3e0a017f	0.13477133
231	0xbd9f7311	-0.07785619
232	0xbfadc4c5	-1.3575674
233	0xbd52641a	-0.051364996
234	0x3daa6ee2	0.083219305
235	0x3e96adac	0.29429376
236	0x3e121cae	0.14268753
237	0x3d98fc8a	0.07470043
238	0x402e8d2b	2.7273662
239	0x3ea53a4c	0.3227104
240	0x3df6363e	0.120220646
241	0x3eae9182	0.3409539
242	0x3dec660c	0.115429014
243	0x3c7e4984	0.015520457
244	0xbdc14d7c	-0.09438607
245	0xba6c4800	-0.00090134144
246	0xbe77cbde	-0.24198863
247	0xbf4b04a9	-0.79303986
248	0xbe064c40	-0.13115025
249	0xbca631f6	-0.020287495
250	0xbebe5402	-0.37173468
251	0x3d3b8f22	0.0457908
252	0xbd9eb739	-0.07749791
253	0xbf009cda	-0.50239336
254	0xbe7bb211	-0.24579646
255	0x3e552f48	0.20818818

B1.c1_r.dw.bias f4 [48]
0	0x3d878759	0.066176124
1	0x3ef76b6c	0.48324144
2	0x3e2875e6	0.16451225
3	0x3d8139e0	0.06309867
4	0xbdd9cdc0	-0.10634947
5	0x3e95c094	0.29248488
6	0xbeb9d392	-0.36294228
7	0x3eb180f0	0.34668684
8	0xbd9c2d43	-0.076258205
9	0xbca22ce2	-0.019796792
10	0xbe706b9a	-0.23478547
11	0x3e845020	0.2584238
12	0xbc4b9a82	-0.012426974
13	0x3d7115e2	0.05885876
14	0x3e874a88	0.2642405
15	0x3d559b7f	0.052150246
16	0xbe8f3a44	-0.2797414
17	0x3e3b5693	0.18294744
18	0x3f12795f	0.5721645
19	0xbf3d0714	-0.73838925
20	0x3d445c25	0.04793944
21	0xbbcc59d8	-0.006236296
22	0xbe5173a8	-0.20454276
23	0x3e30884c	0.17239493
24	0x3d9af146	0.075655505
25	0x3eab7152	0.33484894
26	0xbd0ff0a3	-0.0351416
27	0x3e7954d0	0.2434876
28	0x3db4b0cd	0.088227846
29	0x3ec612c3	0.3868619
30	0x3e758032	0.23974684
31	0x3e9e80b0	0.30957556
32	0x3de4616c	0.11151394
33	0xbf2c1734	-0.67222905
34	0x3e8d0c04	0.2754823
35	0x3e8f9151	0.28040555
36	0xbe98be42	-0.29832655
37	0xbbda6ace	-0.006665564
38	0x3dc17c21	0.09447504
39	0x3e6307e1	0.22170974
40	0xbdd61bbe	-0.1045451
41	0x3edaf18c	0.4276241
42	0x3d971fcb	0.07379111
43	0x3dd46549	0.10370881
44	0xbebcd87f	-0.36883923
45	0x3e797f1c	0.24364895
46	0x3e7948ac	0.24344128
47	0xbe1c864f	-0.1528561

B1.c2_d.weight f4 [24, 48]
0	0x3e29f8be	0.16598794
1	0xbd874244	-0.06604436
2	0xbdd81263	-0.10550382
3	0xbe63fe02	-0.22264865
4	0x3e75aae2	0.23990968
5	0x3ec94534	0.3931061
6	0x3d9ab9b1	0.07554949
7	0xbe630c40	-0.22172642
8	0xbee68d49	-0.45029667
9	0xbd765c47	-0.060146596
10	0x3f122a32	0.57095635
11	0x3d041a4b	0.032251637
12	0xbf052f82	-0.52025616
13	0xbf3db000	-0.7409668
14	0x3ddc64aa	0.10761388
15	0xbe198482	-0.14991954
16	0x3e4c98f6	0.19980225
17	0x3e81a247	0.2531912
18	0xba260dc0	-0.00063344464
19	0xbf402c1e	-0.7506732
20	0x3f07dae3	0.5306837
21	0xbe15ef95	-0.14642175
22	0xbcbbe761	-0.022937478
23	0xbdae8fe6	-0.0852354
24	0x3dcaab91	0.09896005
25	0x3baf121a	0.005342734
26	0xbca2f791	-0.01989344
27	0xbe697e10	-0.22801995
28	0x3d4258a7	0.047447827
29	0x3e3dadeb	0.18523376
30	0xbde3011c	-0.11084196
31	0x3dde4740	0.108534336
32	0x3de67721	0.11253191
33	0xbf65e582	-0.89803326
34	0x3db72d82	0.08944227
35	0xbc71e030	-0.014762923
36	0x3f28f8ad	0.6600445
37	0x3f334772	0.7003089
38	0x3ef71636	0.48259133
39	0x3ee0b41d	0.43887416
40	0xbc1668f6	-0.009180298
41	0xbe464a41	-0.19364263
42	0x3e445ab3	0.19175224
43	0x3d4b0294	0.049563006
44	0x3f43f9e3	0.7655317
45	0xbe975fe4	-0.29565346
46	0xbedee694	-0.43535292
47	0xbe4c5582	-0.19954494
48	0xbed07f7f	-0.40722272
49	0x395989d4	0.00020746078
50	0xbe2bb3c8	-0.167678
51	0x3e2bea1b	0.16788523
52	0x3d2adbb5	0.041713435
53	0xbddad2bc	-0.10684726
54	0x3e2b081f	0.16702317
55	0xbda24c50	-0.07924712
56	0x3eb547ee	0.3540644
57	0xbd8473bd	-0.06467388
58	0x3eafeb66	0.34359282
59	0xbcd320c2	-0.025772456
60	0xbdd191c5	-0.102328815
61	0x3d13ac84	0.036053196
62	0x3e45f6d6	0.19332442
63	0xbdb74302	-0.089483276
64	0x3dcaa066	0.09893875
65	0x3d88cf00	0.06680107
66	0xbd5a0826	-0.053230427
67	0xbd1ecb7a	-0.03876827
68	0xbbafc1d4	-0.0053636823
69	0xbe65afc1	-0.22430326
70	0x3d33b9d9	0.04387841
71	0x3da9fcb7	0.08300155
72	0x3e8987c7	0.26861402
73	0xbc1997dc	-0.009374585
74	0x3d25b133	0.040452193
75	0x3f3d3ec6	0.7392391
76	0xbdffd6fb	-0.12492176
77	0x3dad7d10	0.084711194
78	0xbd06e246	-0.032930635
79	0x3cfc8f1d	0.03082996
80	0x3d58cc2f	0.0529291
81	0xbfb7c024	-1.4355512
82	0xb973ef08	-0.00023263332
83	0xbebdd1d2	-0.37074143
84	0xbe726e7e	-0.23674962
85	0x3efc7a4e	0.4931206
86	0x3eda9607	0.42692587
87	0x3e4a8016	0.19775423
88	0xbc66cd25	-0.014086996
89	0xbf04daf7	-0.51896614
90	0x3beee270	0.007290177
91	0xbd502ef4	-0.050826028
92	0xbddc256a	-0.10749324
93	0x3f0f65db	0.56014794
94	0x3df0dd6c	0.11760983
95	0x3e2a6bb4	0.16642648
96	0xbc95fd4c	-0.018309258
97	0xbcf3c3d0	-0.029756457
98	0x3ca7290a	0.020405311
99	0xbd074c02	-0.03303147
100	0xbebb1026	-0.36535758
101	0xbdb1f581	-0.08689404
102	0x3dee67b0	0.116408706
103	0x3e31fcac	0.17381543
104	0xbe8a7bb9	-0.27047518
105	0xbe8d4a33	-0.27595672
106	0x3d01c821	0.031685
107	0x3e861198	0.26185298
108	0xbe8e79d9	-0.27827337
109	0x3ecc75c2	0.39933592
110	0xbe699364	-0.22810131
111	0xbf28b801	-0.6590577
112	0x3cf56696	0.029956143
113	0x3e34f869	0.17672886
114	0xbd31b257	-0.04338297
115	0xbf236af4	-0.6383507
116	0x3e1c0558	0.15236413
117	0xbeca15f7	-0.39469883
118	0xbe5a4134	-0.21313936
119	0xbd42fa14	-0.047601774
120	0x3eecc162	0.4624129
121	0xbd6594bf	-0.05605006
122	0x3d799454	0.060932472
123	0x3f50056a	0.8125826
124	0xbe469d5c	-0.19395965
125	0xbb87c5f8	-0.0041434728
126	0x3dfc6b26	0.123251244
127	0x3c12db37	0.008963398
128	0xbd610cee	-0.05494397
129	0xbeb946ad	-0.36186734
130	0x3d64838a	0.055789508
131	0x3de0b0e4	0.10971239
132	0xbc73946c	-0.0148669295
133	0x3e3f7892	0.18698338
134	0xbed6b823	-0.4193736
135	0xbeca905c	-0.39563262
136	0xbc257e1c	-0.010100868
137	0xbf041278	-0.5159068
138	0xbc3ff1c4	-0.011715356
139	0xbd99efe8	-0.075164616
140	0xbf1e648a	-0.6187216
141	0xbcfbc310	-0.030732661
142	0x3e97c1f6	0.29640168
143	0x3d4bb7cd	0.049735833
144	0xbc5c0865	-0.013429736
145	0x3d00e0ca	0.031464376
146	0x3edceff4	0.4315182
147	0xbf1313e7	-0.57452244
148	0xbe0f1c9e	-0.1397576
149	0x3d8aaff2	0.0677184
150	0x3e0d797d	0.13815875
151	0xbd0d69b9	-0.034524653
152	0xbdc8e09a	-0.09808464
153	0x3ea14047	0.31494352
154	0x3ceb74dc	0.028742246
155	0xbe0c11d2	-0.13678673
156	0xbef98409	-0.48733547
157	0xbe966e06	-0.29380816
158	0x3e8cabb4	0.2747475
159	0xbe462bd8	-0.19352663
160	0xbdadee6b	-0.0849274
161	0xbe7359a3	-0.23764662
162	0x3e0b2f07	0.13592158
163	0xbf190ae2	-0.5978223
164	0x3f025514	0.5091107
165	0xbd08238a	-0.033237018
166	0x3dbe1e4e	0.09283124
167	0xbe1554e4	-0.14583164
168	0xbdb970fa	-0.09054752
169	0x3e61fb9d	0.22068639
170	0x3d675bc9	0.056484018
171	0xbeb74f48	-0.35802674
172	0x3ea8f635	0.3300034
173	0x3d819224	0.06326702
174	0xbd97ac1e	-0.074058756
175	0xbee72229	-0.4514325
176	0x3ed2a296	0.41139668
177	0xbedfe5e2	-0.43730074
178	0xbe37dc7e	-0.17955205
179	0x3cad8835	0.021183113
180	0x3d36159a	0.044454195
181	0x3d6d141a	0.0578805
182	0xbeef940f	-0.46792647
183	0xbed912d7	-0.42397186
184	0xbc232a7d	-0.00995886
185	0xbf0a66fd	-0.540634
186	0x3e840e8a	0.25792342
187	0x3cefa3a7	0.02925284
188	0x3e874042	0.26416212
189	0x3e9faa94	0.31184828
190	0xbe193280	-0.1496067
191	0x3edba9aa	0.4290288
192	0xbe4c6117	-0.19958912
193	0x3bbafdc7	0.005706522
194	0x3bc8828e	0.006119079
195	0xbe6b084a	-0.22952381
196	0xbeacde44	-0.33763325
197	0xbe2e9338	-0.17048347
198	0xbf9bb7c6	-1.2165458
199	0x3e7ac3ca	0.2448875
200	0x3d0603c8	0.03271845
201	0x3e1418f6	0.14462647
202	0x3e7ff95a	0.24997464
203	0xbc893ab8	-0.016751632
204	0xbf1884dd	-0.59577733
205	0x3e6d0441	0.23146154
206	0xbe7552e6	-0.23957404
207	0xbd5ffea5	-0.054686207
208	0xbb53bb10	-0.0032307543
209	0x3d5d8acf	0.054087456
210	0x3c7addc6	0.015311664
211	0x3c6e7d80	0.014556289
212	0x3ee69836	0.45038003
213	0x3f293672	0.660987
214	0xbe5ad7ed	-0.21371432
215	0x3dd9e722	0.10639788
216	0x3ec43be2	0.38326937
217	0xbcf8e1b4	-0.030381061
218	0xbcd5c8ea	-0.02609678
219	0x3f93e254	1.1553445
220	0x3e31baea	0.17356458
221	0xbefed074	-0.49768412
222	0xbd1a223e	-0.037630312
223	0x3d95058e	0.0727645
224	0x3dfba360	0.12287021
225	0x3dc428d7	0.09578102
226	0x3d9b2522	0.07575442
227	0xbdb5a01e	-0.088684306
228	0xbf29a304	-0.6626437
229	0x3d49e9eb	0.049295347
230	0xbe36db6c	-0.1785714
231	0x3e5c510c	0.21515292
232	0xbb7946ab	-0.0038036506
233	0xbf1137c4	-0.56725717
234	0x3cfa78c9	0.030575173
235	0xbe289356	-0.16462454
236	0xbcce3400	-0.02517128
237	0x3c66798a	0.014067063
238	0x3e14d9a3	0.14536147
239	0xbe958ddc	-0.29209793
240	0xbefb86a7	-0.4912617
241	0x3d338386	0.043826602
242	0xbe868b38	-0.2627809
243	0xbe2d1a72	-0.1690462
244	0xbdd5c4b4	-0.10437909
245	0x3e8c282b	0.27374396
246	0x3ea6af99	0.32555845
247	0x3ea4c26e	0.32179588
248	0x3bb70fae	0.005586586
249	0x3e60e842	0.219636
250	0x3e7c3494	0.24629432
251	0xbc29be59	-0.010360324
252	0x3f277936	0.6541933
253	0x3e6ab550	0.22920728
254	0xbdaf3c4b	-0.08556422
255	0xbda6f3f0	-0.08151996

B1.c2_d.bias f4 [24]
0	0xbedb42a2	-0.42824274
1	0xbdb58fbf	-0.08865308
2	0x3e85d0d9	0.261359
3	0x3e811e1e	0.2521829
4	0x3e0e68b3	0.13907127
5	0x3e600012	0.21875027
6	0xbe87f6a3	-0.26555356
7	0xbe838254	-0.2568537
8	0xbe373dd0	-0.17894673
9	0xbe7ca386	-0.24671754
10	0xbe5072f2	-0.20356348
11	0xbd53f925	-0.051751275
12	0x3c45fedb	0.012084688
13	0xbc377aec	-0.01119874
14	0x3dd447c3	0.1036525
15	0x3de7c89a	0.113175586
16	0xbdf0da3d	-0.11760376
17	0xbd770e0e	-0.060316138
18	0x3e29bbb4	0.1657551
19	0xbd143819	-0.03618631
20	0x3cba71b0	0.022759289
21	0x3dcd5276	0.10025494
22	0x3e1b74f4	0.15181333
23	0x3bbc1d87	0.0057408246
