model_zoo/team37_bmdn.pth (torch, 823367 bytes, 152 tensors)

fea_conv.weight f4 [40, 3, 3, 3]
00000000: fd3b 8e3d 8309 afbd 6466 87bd df47 bc3d
00000010: 0733 4dbe cbf2 e23d 8e7c 96bd e412 f93d
00000020: 6a9c 92b9 4bc5 26bd a2cc a03d 5281 fd3b
00000030: 7ed6 8f3d 659e 94bd f6dc c4bc f574 07bd
00000040: a0b9 133d 3bd8 a5bc 4bb4 213e 75c0 913d
00000050: 9be8 4abd 3057 1bbe 7d0a 94bc 75cc bfbd
00000060: b4e4 84bd 4f6f aebb 3437 043e 45e2 a83d
00000070: acdf 57be 2f0c 9f3d 86d9 683d 39dd 7f3e
00000080: 0316 f53d ddc6 32be bb11 50be be28 b7bd
00000090: 895f 103e 11fc 8dbc d12f 653d e55a a9bd
000000a0: dca9 803e 26a9 d2bd c11d 0b3e c4bd 8d3c
000000b0: c632 e3bd dfed df3d 5132 babd 04c0 893d
000000c0: c626 87bd df2c 82bc 26f7 51be 6e3a d7bd
000000d0: 4f92 e93d 3549 e3bc 2d05 223e 5305 113e
000000e0: 15f2 61bd 5a79 20be 642f fd3d 3dbf fb3c
000000f0: 9e96 23be d909 d43d 6f32 9f3d 7432 0c3e
00000100: eb09 03be 24af 37bd 9d09 1dbd 4163 543c
00000110: 897c 1ebe 2887 21be 6991 b93d 9042 85bd
00000120: cf42 813d b24f ef3b afbe 343d 22d6 923c
00000130: b4a8 963d 602a d43d c06c 45be c54f aa3d
00000140: d892 1abe c66f 13be e76c 68bc e09d bebc
00000150: e939 d33d 1cc6 34be 1d0e 40be 7302 103e
00000160: 0cee 62bd 0168 e43d 162e ad3d f4b3 24be
00000170: c3e2 2d3d 56bf 863d 1070 0dbe 0814 bfbd
00000180: 6762 8f3d 104a 143d 0ad1 a9bd 89ae 56bd
00000190: 9199 373e 75ff b6bc 4ac2 0b3e 1eb8 f53d
000001a0: a609 e1bd a477 1ebe 19b2 5f3e 04ed 813c
000001b0: b85f e43d ed3d 1f3d 788a 353d 3c17 143e
000001c0: 12fa 443e 2871 06be 8a31 f93b 5fac 013e
000001d0: f2b8 df3d eee1 e83d 2686 ffbd eb3c 0cbe
000001e0: 87a3 edbd 4233 0d3d 7fa9 393e a322 17be
000001f0: 303d ba3d 14eb fdbd 6362 45be 6ff3 2bbd
00000200: 7d3a c03d 0cea 283e bb75 03be 145c 003d
00000210: c8b2 033e c19b e13d 2dfe ca3d e9de e63d
00000220: c9f6 1c3e 4cdd 483d c8f9 0cbe 3f74 30be
00000230: 48a2 c8bd b7d7 683b 7a06 dbbd 4061 bd3d
00000240: b892 663d 0b66 bebc df67 913d 37bc 923d
00000250: 3432 363e 8772 183e e8da 7abd bdb5 623e
00000260: 8cfc 02bd f1b4 9ab9 b9d0 4cbe 5b80 e9bd
00000270: afa6 f9bd f8d6 edbd 3b54 163e 87e1 5ebd
00000280: 36a2 22be 126c 973d 7c17 493d f0e7 e83d
00000290: 6243 f0bd ad30 543d 85c7 abbd d624 5abd
000002a0: b75e 08be 0892 88bd e10f 45bd 590e c73d
000002b0: d028 773d 4f9d f03c 66fd 703e 42b1 6e3e
000002c0: 5eee 163e 0a33 ba3c 72d8 f7bd 4024 123e
000002d0: 8f4c debc b552 91bc 30af 35be 1dcc 10bd
000002e0: 60c9 20be 6a2e 513e 6ba0 15be 6da9 09be
000002f0: c2d9 ed3c 57bc f2bd 48aa 573d 4274 cbbd
00000300: 35ef d0bd de40 963b 7dce f03d e48e 15be
00000310: 2d82 9c3d a33f cb3d a407 2d3e 6bf1 15be
00000320: ec08 143d 5ec4 1dbe dbc4 2c3e 73b0 a4bd
00000330: f9df b53d 4f11 2abc 41d9 11bd 42ff 0bbd
00000340: 142f 3e3c 9662 7d3d 30b4 233c 2949 743d
00000350: 4999 4abe 83df d33d a1b7 163e ca3a fa3d
00000360: 9bff 193e bc5a 1cbe a42d 60bd 4c36 243e
00000370: ae79 7ebe d51b 503e 9db0 e4bd ee9c 2bbe
00000380: 4e63 db3d c9cd 13be ea6b 74bd 6342 d63d
00000390: f3f9 093e ab96 783e bec7 8bbd 4df7 0cbe
000003a0: f3c3 7d3e 80d4 45bd bc7f bdbd 8222 863d
000003b0: 8acf 90bd 5921 e83d e997 0f3e 549f 30be
000003c0: c896 14be 0663 a8bc 58a2 a43d c140 5dbc
000003d0: a746 03be a52a 1fbc 44f9 2dbe cf33 3bbe
000003e0: 0f7e 1dbe 4dbf 263e 8670 363e 6567 adbd
000003f0: 0e62 0c3c 4f49 c83d 58cb 96bc 046a b8bd
0.069450356 -0.08546736 -0.06611326 0.09193396 -0.20038997 0.11081465 -0.07347976 0.12161806
-0.00027963828 -0.040715497 0.078515306 0.0077363634 0.07023333 -0.07256774 -0.024031144 -0.033070523
0.036065698 -0.020244708 0.15791433 0.071167864 -0.049538236 -0.15169978 -0.018071407 -0.09365169
-0.06488934 -0.0053233276 0.12911683 0.082462825 -0.21081418 0.07765996 0.05684807 0.24986733
0.11967089 -0.17458673 -0.20319264 -0.08943318 0.14098944 -0.017332109 0.055953804 -0.0826929
0.25129592 -0.10286169 0.13585569 0.017302401 -0.11093669 0.10934042 -0.09091628 0.06726077
-0.06599192 -0.015890537 -0.20504436 -0.105091915 0.11404859 -0.027744869 0.15822287 0.14162187
-0.055162508 -0.15671292 0.12362555 0.030730838 -0.15975425 0.10353441 0.07773291 0.13691121
-0.12796752 -0.04484476 -0.038339246 0.012963117 -0.15477194 -0.15774214 0.09060938 -0.065068364
0.06311571 0.0073032016 0.044127163 0.017924372 0.07356396 0.10359645 -0.19279766 0.08315996
-0.15095079 -0.14398107 -0.014186121 -0.02326864 0.1031378 -0.17653698 -0.18755384 0.14063434
-0.0554028 0.1115265 0.08456056 -0.16084272 0.042452585 0.06579463 -0.1381228 -0.093299925
0.07001191 0.036203444 -0.08291824 -0.052412543 0.17929675 -0.022338608 0.13648334 0.11998008
-0.109881684 -0.15475327 0.21845283 0.015860088 0.111510694 0.038877416 0.044321507 0.14461988
0.19236019 -0.13129103 0.0076047825 0.1266341 0.109239474 0.11371218 -0.12476759 -0.13695113
-0.11603456 0.03447271 0.18131064 -0.14759307 0.09093702 -0.12398353 -0.19275813 -0.041980203
0.09386156 0.16495532 -0.1283788 0.031337813 0.12861168 0.11016036 0.099117614 0.112729855
0.15328516 0.04903917 -0.13767159 -0.17231844 -0.09796578 0.0035528967 -0.10694595 0.092470646
0.056292266 -0.023242017 0.0709989 0.071648054 0.17792588 0.14887439 -0.06124392 0.2213964
-0.03197913 -0.0002950798 -0.20001496 -0.11401435 -0.121899955 -0.11613268 0.14680569 -0.0544143
-0.15882191 0.0739366 0.049094662 0.113723636 -0.11731602 0.051804233 -0.08387665 -0.053257786
-0.13317381 -0.06668478 -0.048110846 0.097195335 0.060341656 0.029371886 0.23534164 0.23309806
0.14739367 0.022729415 -0.121018305 0.14271641 -0.027136115 -0.017739633 -0.1774261 -0.035350908
-0.15701818 0.20427862 -0.14611976 -0.13443537 0.0290345 -0.11852329 0.052652627 -0.09934284
-0.10201875 0.0045853695 0.117581345 -0.1460529 0.076420166 0.09924247 0.16897446 -0.14642875
0.03614132 -0.1540694 0.1687197 -0.080414675 0.0888061 -0.010380103 -0.03560758 -0.03417898
0.011607904 0.061861597 0.0099916905 0.059640083 -0.19785036 0.10345366 0.14718486 0.122182444
0.15038912 -0.15268987 -0.054731026 0.16036338 -0.24851105 0.20323117 -0.11166499 -0.16759083
0.107123 -0.1443397 -0.059673227 0.10461881 0.13474254 0.24276225 -0.06825207 -0.13766213
0.2478178 -0.04829836 -0.09252879 0.065495506 -0.07070835 0.113344856 0.14022793 -0.17248279
-0.14510643 -0.02055503 0.08038777 -0.013504208 -0.1281992 -0.009714757 -0.16989619 -0.18281482
-0.15380119 0.16283913 0.17816362 -0.084669866 0.0085683 0.097796075 -0.018407509 -0.09004596

fea_conv.bias f4 [40]
00000000: 1778 bf3d 3a2a b23c 537f e93d 688a e13d
00000010: 7602 213e a5b0 083d 9c49 efbd 0731 15be
00000020: 5e3d 6cbd 25da f03d 7462 c73d 158a 0d3d
00000030: 6dc7 ffbd 7923 ccbd fe2f 013e b395 f43a
00000040: ab2b f0bd dd42 3abc 8ef3 88bc 9ec6 4b3b
00000050: 78d1 bd3d 973b 583d e217 1bbe d88b 9abc
00000060: 7ee2 a1bd 60ef ee3d 5d69 ac3d 9659 993d
00000070: e4b6 0f3e ed32 b53d 4d1d 1abe 333b 843d
00000080: 19ae d1bd 914f 8d3c 642d 61bb 9f15 033e
00000090: 303a d2bd 6317 e2bd 91c6 44bd 4746 1f3d
0.09349077 0.02174865 0.11401238 0.11012727 0.15723595 0.033371586 -0.11683962 -0.14569484
-0.05767571 0.11760358 0.09735575 0.034555513 -0.12489209 -0.09967703 0.12615964 0.0018660337
-0.11727079 -0.0113684805 -0.016717698 0.0031093727 0.092684686 0.052791204 -0.1514583 -0.01886551
-0.07904528 0.11666751 0.08418534 0.0748779 0.14034611 0.08847604 -0.1505024 0.06456604
-0.102382846 0.017249854 -0.003435933 0.12801217 -0.10265005 -0.11039617 -0.04804093 0.03888538

B1.c1_d.weight f4 [20, 40, 1, 1]
00000000: babf 503c c9b4 c03d 05be 053e 4412 2ebd
00000010: 4c64 16bd bca5 81bd f965 1bbd 94eb 253e
00000020: bf83 b13d 8dab 4cbd be34 803d ed61 043e
00000030: dbc8 2bbe 90b8 1a3e 0086 9dbd dc9b 0fbe
00000040: 8bd7 833e d94c 073e fa45 2ebc bf16 193d
00000050: b633 8dbe fad5 ba3d 542c 8c3e 49da 133e
00000060: 44bc d63b 3504 04be 8024 39bd 373a 4fbc
00000070: fc8a 05be 57e6 0bbe 611c d23c e2af 0ebe
00000080: a52c 87bd 8932 e9bc 5c52 06be d561 41be
00000090: 9750 e73d c7e2 973d e1a6 bbbc ed94 56bd
000000a0: 69dd 09be 2fc3 313e bc1c 423e 5027 85be
000000b0: f1cf 06bd 20a1 9cbd 9b16 153d 1b8c f83d
000000c0: 8db4 feba e4a7 acbe 8e6b c7bd bd2e 27be
000000d0: ee4b a53d a1f3 593e 576c 533c 2187 083d
000000e0: 0868 1d3e a25e 5a3e 8bf0 9dbc 0153 1cbe
000000f0: a88a 68be b74b d8bc f08e fa3d 420c 113c
00000100: eac8 1dbc 04f9 7cbc 2135 923d 3acd 3c3d
00000110: 585e b93d 111c 16be 6a46 9a3e 412c 2abc
00000120: 8cc2 a03b 4346 10be f88f ddbd 37e5 fcbc
00000130: 4b23 873d e66d ac3d cce6 a7bb 9dbb 5c3d
00000140: 38ef 3c3d d299 393e 54be fb3b 317d 1fbb
00000150: db19 8a3a 66aa 36be 0d1f cdbd 6614 633d
00000160: f3d8 34be ffec 74be fa7b 463e c0e0 0c3e
00000170: 18d9 24be 3a05 b6ba 0d8f 943d d723 3dbd
00000180: c68d d13d eb8f 8fbd 234c 563d c2c9 11be
00000190: 5a2a f83b 5f67 a1bb 6d60 9ebd 30ad 1e3e
000001a0: af28 b53d c6f9 a4bd 4fb3 b7bb ddb8 f3bd
000001b0: 7ed9 fabd e906 a8bc 560d d93c bcf6 6a3d
000001c0: 4617 613d 01d8 24be a19c 7c3d d0bf 22be
000001d0: 36ea 72bd 325b a73c 7ce6 2e3d a422 87bd
000001e0: f279 2f3d f8b6 3fbd 6ced c93d de87 d7bd
000001f0: e99a 873c 67e7 0dbe dda6 88bc 3dd2 103e
00000200: df72 10be ea1a 0ebd ce1b 553e 5240 ee3d
00000210: 1486 9f3c 5e2f 91bd 1c96 0f3e da96 b9bd
00000220: 8d33 23bd d92b a93d ed31 343d 8f8e 88bd
00000230: 1193 48bc 21d7 c63d 89f2 20bc 3a65 583d
00000240: 61e8 9b3d a6f6 84bd 53a1 633e 71dc 263e
00000250: bdc1 0abe 7915 9f3d 6a6e 12bc 5949 b8bd
00000260: abdb 66bd ec2c fb3d eef6 eebd e1ed afbc
00000270: a63d 48be aa94 03be 2b5e 343d 0229 25be
00000280: defc 5ebc 8e53 bd3d 9b07 7b3d fddd bf3d
00000290: aa8e c63d 1cd4 dfbd 3d01 0d3d ce30 0b3d
000002a0: 453b 4a3c 655a 013c 95cc 833e d541 723c
000002b0: cb62 943d 1e9a c8bd 86cb ea3c 0443 3abd
000002c0: 09a2 e1bd 30c9 863d f9c1 4b3e cee8 04be
000002d0: 26f1 83bd 24f1 373d fd57 a03d be1a 4d3e
000002e0: 049b be3c 88cf 543d f97c 9abc 4cb2 b63d
000002f0: e51f 4bbd 9b99 1b3e 9cc8 8abd 603d 54be
00000300: add2 17bd 54e9 063e 8028 debd 791c c73c
00000310: 06fc 12bd bb08 273d 9c8f 12bc 5a6c 38be
00000320: 9abc 28bd 5dd3 7fbc abe6 7b3d ab04 953e
00000330: a94b e0bc d0d2 6cbd 4e41 2cbe 9671 45be
00000340: b59d 333d c32e 15be 16db cd3d 99cf f73d
00000350: 028d c2bd 8a73 d43d d899 a8bd c619 893e
00000360: 5ddf 1f3e 2384 3abd ad11 34be 6230 e93b
00000370: 2055 f9b9 a6bb 1c3d 4684 febd d382 69bd
00000380: 840c d1bd f025 b7bd f47e 23be bae9 47bd
00000390: cdc2 2b3b d2e7 94bd 573e e43c f5f2 98bd
000003a0: b387 b0bd cade 39bd 87bb a53d 35c3 543d
000003b0: 7e8a 25be 88d8 de3d cbfb 9ebc a508 90bd
000003c0: 4c73 61bd ce04 d83d 8f32 efbd ddc6 bb3d
000003d0: efec 353e dee6 e63d cb6c a73d 0180 5f3d
000003e0: 8307 853d fbf2 933d a54e 60bd b659 53bd
000003f0: 6d5c 8ebd 8163 e33d eecd 2b3e 124b df3d
0.012741024 0.09409482 0.13060768 -0.04249789 -0.036716744 -0.063304394 -0.037939046 0.16203147
0.08667707 -0.04996829 0.0626006 0.1292798 -0.16775839 0.15109468 -0.07691574 -0.140243
0.25750384 0.13212909 -0.010636801 0.037375208 -0.27578515 0.09122844 0.2737757 0.14438738
0.0065532047 -0.1289223 -0.045200825 -0.012648157 -0.130413 -0.13662086 0.025648298 -0.13934281
-0.06600312 -0.02846648 -0.13117355 -0.18884976 0.11294668 0.07416301 -0.022906723 -0.05238812
-0.13463368 0.17359613 0.18956274 -0.26006556 -0.032913152 -0.0764792 0.03639851 0.12136098
-0.001943247 -0.3372184 -0.09737311 -0.16326423 0.08071123 0.21284343 0.012904248 0.033331994
0.15371716 0.21325162 -0.019279739 -0.15266038 -0.22709143 -0.026403291 0.122342944 0.00885302
-0.009630421 -0.015440229 0.0713904 0.046094157 0.09051198 -0.14659144 0.30131847 -0.0103865275
0.0049060043 -0.14089303 -0.108184755 -0.030871017 0.065985285 0.08419399 -0.0051239487 0.05388986
0.046126574 0.18125084 0.007682601 -0.0024336095 0.001053627 -0.1783844 -0.10015688 0.055439375
-0.17660885 -0.23918532 0.19383231 0.1375761 -0.1609844 -0.0013887056 0.07253847 -0.046176758
0.10232119 -0.07009872 0.052318703 -0.14237121 0.007573408 -0.004925653 -0.077332355 0.15495753
0.088456504 -0.08055453 -0.005606092 -0.11900494 -0.122485146 -0.020511108 0.026495617 0.05736421
0.054953836 -0.16098024 0.06167281 -0.15893483 -0.059305392 0.020429228 0.042700276 -0.06598404
0.042840905 -0.046805352 0.09859738 -0.105239615 0.01655336 -0.13857804 -0.01668113 0.141427
-0.1410632 -0.034693636 0.20811388 0.11633362 0.019473113 -0.07089113 0.14022106 -0.09061976
-0.039844085 0.082603164 0.043992925 -0.06667816 -0.012242095 0.09709001 -0.00982345 0.052830912
0.07612682 -0.06492357 0.22229509 0.16295029 -0.13550468 0.077677675 -0.008937458 -0.08998365
-0.056361835 0.122644275 -0.11668192 -0.021475734 -0.19554767 -0.1284968 0.044035118 -0.16128924
-0.013610093 0.092444524 0.06128655 0.09368513 0.0969518 -0.109291285 0.03442501 0.03398209
0.0123432325 0.007895087 0.2574202 0.014786203 0.07245406 -0.097950205 0.0286615 -0.045474067
-0.11017234 0.06581342 0.19898213 -0.12979433 -0.0644248 0.044907704 0.078292824 0.20029733
0.023267277 0.05195573 -0.01885842 0.08920726 -0.049590964 0.15195315 -0.067765445 -0.20726538
-0.03706615 0.13174945 -0.108475685 0.024305569 -0.03588488 0.04077981 -0.008945372 -0.18010083
-0.04119549 -0.015614358 0.06149928 0.29105124 -0.027379828 -0.057818234 -0.16821787 -0.19281611
0.043851573 -0.1456862 0.10051553 0.12100143 -0.09499551 0.103736 -0.08232468 0.26777476
0.1561255 -0.04553617 -0.17584868 0.0071163634 -0.00047556404 0.038264893 -0.12427573 -0.05700953
-0.10207465 -0.08942783 -0.15966398 -0.048806883 0.002620864 -0.07270779 0.027861757 -0.074682154
-0.086196326 -0.045378484 0.080924086 0.051943976 -0.16166112 0.10881144 -0.019407174 -0.07032899
-0.055041596 0.105477914 -0.11679565 0.091687895 0.17766164 0.11274503 0.081750475 0.054565433
0.06495573 0.07224079 -0.0547625 -0.051599227 -0.069512226 0.11102963 0.16777775 0.109029904

B1.c1_d.bias f4 [20]
00000000: 659c aebd 5a0e 61be d0e5 963d 8ac3 493d
00000010: 3502 89bd 7f4c 05bd 4779 a5bd 84ee 933d
00000020: e54a 26bc b37f 0dbd 359f c8bd f223 15bd
00000030: 765a 28bc a899 b23d 7a55 833a a2ec 903d
00000040: c6ed ae3d c6a4 723d 985b 03bd 1518 51be
-0.08525924 -0.21978131 0.07368052 0.049258746 -0.06689874 -0.032543655 -0.080797724 0.072232276
-0.010149692 -0.03454561 -0.09795991 -0.036411233 -0.010275474 0.08720714 0.0010019981 0.07076384
0.085414454 0.05923917 -0.032069772 -0.20419343

B1.c1_r.weight f4 [20, 40, 3, 3]
00000000: b49f a4bd 9bf4 ce3d 39a2 e0bd 360a 2c3e
00000010: c213 00be b7a8 dd3d ca72 38bd 6dca 2cbd
00000020: d546 853d 935b e3bc 9a37 3ebe 8bf6 97bd
00000030: b20a 2338 e076 463e 6bdf 033c f1ff e4bb
00000040: 1d6c f7bd ac71 473d 3747 a23d c722 983d
00000050: dc8a 023d 45f8 f93c 536c 8a3b f385 8bbd
00000060: 7b5d 1a3d b894 663c 6fcc 113d 398d 3e3e
00000070: d07c 5b3c 3ff1 d93d 548b 82bd 40b9 09be
00000080: 7a41 603d cabc 963d a210 30ba 1e94 633d
00000090: f75f 033d 23e7 433d 1576 f83c eb90 49bc
000000a0: f50b e53b 991b 4c3c e481 fd3c 6cf3 49bd
000000b0: 566d b0bc df66 283d 97a5 c4bc 260b ba3d
000000c0: 0561 b9bd 89f4 cbbd 344e ecbd 0b8d f53d
000000d0: 219a 153e 4d01 40bd 067a 80bc b015 6bbd
000000e0: fd7e 06bb ad01 52bc dea1 a0bd a161 abbd
000000f0: f921 d3bb 9250 0d3d ff20 4d3d fcd8 783d
00000100: 0ac4 4b3d a5f8 bd3c a60a 343d ee21 183d
00000110: bff3 3cbc 39fd fabc e579 e43d eb9d 87bd
00000120: 95a3 033d a6be 89bd 59ef bdbd 5c72 b03d
00000130: 98e3 e2bd bb2c 6ebd b9b5 ae3c 94f1 98bd
00000140: d67d 9d3d 86b4 8c3c 3b9d 87bd aef9 393e
00000150: 6855 b3bc 57b8 48bd de83 afbd fe0c 85bd
00000160: 35bc 4cbc bfc3 143b af3c 55bc 8b4b e23c
00000170: e8eb fbbd 6357 8fbd a7f5 cfbc 9148 193e
00000180: 2628 5f3d 5861 913c 6185 9a3d 8f05 d5bd
00000190: eacd acbc 6fe0 e23c bdf8 db3c 24de c9bd
000001a0: f6cb eabd 05ae fcbd ab06 4dbd dfc0 d83c
000001b0: 14f6 4dbd 032e 863c c026 413d a4df 483d
000001c0: 495a 21bd bef1 37bd a443 b83c 79cb 85bd
000001d0: 9723 103c a5cf 46bd 477f dbbc f3c2 25bc
000001e0: cc30 8d3b 98ef 883d 92a3 093d 1dba 71bd
000001f0: 552d 9ebd ca5d c7bc 756e 163d 5a9f 5d3d
00000200: de13 2abd 5f04 8dbd 79b3 013e aca6 f0bc
00000210: ea36 e3bc e760 fb3c c533 48bd dbad 4d3c
00000220: b9c8 873d 1ba7 75bc f702 e93c a01e b9bc
00000230: 39c0 633d fb3f e8bb a795 64bd 145f 96bd
00000240: d259 06bd 5810 d43d 398d 9e3c 96f1 c73a
00000250: f34c cc3c d528 3cbd e3f0 a0ba d41b 18bd
00000260: 1234 d13c 6319 703c 6de4 84bd 981a 2abd
00000270: 9732 643d e74e a13d 10d4 fb3c 1561 afbc
00000280: e789 c53a 5f7d 8b3c 6a20 913d 3e6f adbc
00000290: 8f59 26bd 83a6 3bbd b5d4 13ba 9f6d d5bc
000002a0: 6d5f 613c dd24 603c 102e 03bd db7c b8bd
000002b0: 7a41 84bc 25a2 26bd fadf 3dbc b514 1abd
000002c0: 1f44 af3a f6c5 a1bc 09ca 5e3c 6767 f3bc
000002d0: 6125 82bd c2d4 d83d db4d 69bc 3267 8d3d
000002e0: 8ec9 b7bd 96f5 af3b 1843 b9bb 53ca 97bd
000002f0: 4a30 b0bc be18 0cbd b2b1 74bc b83e a2bd
00000300: 613b 363b a29b 25bd ff18 fe3c 99f3 b53c
00000310: b394 9b3d 896e 43bd 3abe b63d 142d debc
00000320: c60e 113d b274 6a3d 40fb 733d 5c93 77bd
00000330: 06d8 bdbc bc96 bf3d 6668 61bc 089b 473d
00000340: d780 5b3d 763d b83c 613d b9bd 4247 113c
00000350: 9659 bfbd da1b c73c d055 a63d 9c86 db3c
00000360: c603 0c3d c678 c83c aff9 12bc 0d28 4fbd
00000370: 038d a0bd 854d b13b 9e60 2bbd 8d29 7cbc
00000380: 0718 2ebd fcca 3fbb b826 abbc 1704 0d3d
00000390: 0c3a 72bd b28d 9dbd f024 663b 79fd 1abb
000003a0: 872b 71bd c274 b9bc 9fdf 5b3c 9d2a 743c
000003b0: a248 25bc d65e a23d d69a 4e3c f9c7 803d
000003c0: d11c 47bd 201d 263a d27b a939 8fc9 4cbd
000003d0: a808 7f3d 24cd 25bc d4ef d23d 1660 ffbd
000003e0: 1259 cfbb d372 dbbc aa29 e83d c9c9 1c3d
000003f0: a099 5dbc c7a1 03be 4b07 c63b cfca 8ebd
-0.080382735 0.101052485 -0.109684415 0.1680077 -0.12507537 0.108231954 -0.045031346 -0.042185236
0.06507651 -0.027753627 -0.18575898 -0.07420071 3.887219e-05 0.19381285 0.008048872 -0.0069885184
-0.12081168 0.04869239 0.079237394 0.07428508 0.031870708 0.030513892 0.004224339 -0.06812658
0.037686806 0.014073543 0.035595354 0.1860856 0.013396457 0.10641717 -0.06374231 -0.13449574
0.054749943 0.073602274 -0.00067163457 0.055561177 0.03207394 0.04782785 0.030329743 -0.012302618
0.006989951 0.012457752 0.030945726 -0.04930441 -0.02153651 0.04111373 -0.02400474 0.09084158
-0.09051708 -0.09958751 -0.115383536 0.119897924 0.14609577 -0.04687624 -0.015683185 -0.05739373
-0.0020522468 -0.012817782 -0.07843374 -0.083682306 -0.006443259 0.034500666 0.050080296 0.060753807
0.049747504 0.023189852 0.043955468 0.037141733 -0.011532723 -0.030638324 0.11156062 -0.06621917
0.032138426 -0.067258164 -0.092741676 0.08615562 -0.11078566 -0.058148127 0.021326886 -0.07467952
0.07690017 0.017175924 -0.06621786 0.18161651 -0.02189131 -0.049003925 -0.085700735 -0.06496619
-0.012496044 0.0022699682 -0.013014956 0.027623912 -0.12300855 -0.069990896 -0.02538569 0.14969088
0.054481648 0.017746612 0.07544971 -0.10401451 -0.021094281 0.027694909 0.026852006 -0.09856823
-0.11464684 -0.12337879 -0.050055187 0.026459156 -0.050283507 0.016379362 0.047156096 0.049041405
-0.039392743 -0.044908278 0.022493191 -0.0653295 0.008797548 -0.04853787 -0.026794089 -0.01011728
0.0043087956 0.06686324 0.03360326 -0.059015382 -0.0772349 -0.024336714 0.036726434 0.054107048
-0.041522853 -0.06885599 0.1266612 -0.02937635 -0.027736146 0.030685855 -0.048877496 0.012553657
0.06630082 -0.014993454 0.028443797 -0.022597611 0.05560324 -0.007087705 -0.055806782 -0.073423535
-0.032800503 0.1035468 0.01935445 0.0015254493 0.024939036 -0.045937378 -0.0012278821 -0.037135914
0.025537524 0.01465449 -0.06488881 -0.041529268 0.05571231 0.078763776 0.030740768 -0.021408597
0.0015071005 0.017027555 0.070862606 -0.021171208 -0.040612753 -0.045813095 -0.0005639301 -0.026053248
0.013755661 0.013680664 -0.03202635 -0.09008189 -0.016144503 -0.040681977 -0.011589045 -0.037617404
0.0013371742 -0.019747715 0.013597974 -0.029712392 -0.06354786 0.10587455 -0.014239754 0.069044486
-0.089739904 0.0053698523 -0.00565375 -0.07411637 -0.021507401 -0.034203283 -0.014934944 -0.07922119
0.0027806389 -0.040431626 0.031017778 0.022210883 0.075967215 -0.047712836 0.089230016 -0.027121104
0.03541448 0.057240196 0.059565783 -0.060443267 -0.023174297 0.09354922 -0.013757801 0.048731834
0.053589668 0.022490244 -0.0904491 0.008867087 -0.09343259 0.024305273 0.08121836 0.026797585
0.034183286 0.024471652 -0.008970662 -0.050575305 -0.07839396 0.0054108524 -0.04184019 -0.015390766
-0.042503383 -0.0029265275 -0.020892486 0.03442773 -0.05913739 -0.07693042 0.0035117231 -0.0023649617
-0.0588794 -0.022638682 0.013420015 0.014902738 -0.010088118 0.07928245 0.012610158 0.06288142
-0.048611466 0.00063367374 0.00032326445 -0.04999691 0.062264115 -0.01011971 0.1029965 -0.12469499
-0.0063277567 -0.02678815 0.11336072 0.038278375 -0.013525397 -0.12854682 0.00604335 -0.069722764

B1.c1_r.bias f4 [20]
00000000: 035d 8a3d fa22 15bc 2bed 423d 27e3 243d
00000010: 9020 bcbc 5625 163d 8669 d13b 678e b13c
00000020: 84ee ec3c f97f 59bc 14d4 553d 8887 23bd
00000030: f156 18bc 0a0e 063c 0673 703c 11cc c53c
00000040: 41d0 37bc 0438 523d b56e a03c bb72 34bc
0.06756022 -0.009102577 0.047589462 0.04025569 -0.022964746 0.0366567 0.006390753 0.021674348
0.028922327 -0.01327514 0.052204207 -0.039924175 -0.009298072 0.008182058 0.014675861 0.024145158
-0.011219085 0.051322952 0.01958404 -0.011013682

B1.c1_b.weight f4 [20, 20, 3, 3]
00000000: 9888 473d 5e91 feba bd2e 2c3d 1a34 303c
00000010: 973c 07bd b87d 9f3b 75c6 c7bc bdb6 3a3b
00000020: 42fc afbb 3c4a 2c3d 552a b4bc c82b ac3d
00000030: 3628 7c3e abfb 363e 33e8 ea3d 2af8 a1bd
00000040: 2b01 c8bc b4aa 8c3d c072 72bd 5785 d03d
00000050: c03f f53c 10e7 e43d 8052 183c d919 963c
00000060: a849 b63b 3213 933c e29e a83c c716 10bb
00000070: fb3a 313d 9161 a2bd 7f99 b63d 779a 393d
00000080: 9a6a 43bd 0f57 3e3c 4edf 913d 699f 7ebd
00000090: 41ef db3d 2c0b 4b3d 9514 293d bbcb 4c3d
000000a0: 6a7a bebd df29 e6bc ca36 4ebc 8bbb 043c
000000b0: 9945 9abc 983d 6bbd 0332 edba cd6f 6abd
000000c0: 2cf0 75bd 97eb 81bd 388b 143d 076f 4d3d
000000d0: 7d7c 15be 6f8f 763d 76f2 1d3d 1de4 bfbd
000000e0: 937f 343d a75d 18bd ad47 a13d fef0 d2bc
000000f0: 716c d83c 2356 3abd f76c 5d3d 797b 283c
00000100: 2488 f53c 5aa9 c53d 5038 c6bc ba8e 6f3d
00000110: c8ae abbd 6845 803c 017e e93c cdfa 973c
00000120: afec 013d 5d82 5c3d 2d01 87bd eac1 56bd
00000130: b7a5 cebd 23d9 073d f631 15bd b5fb 03be
00000140: 6961 b2bd 6c54 39bd e31c 04bc 1a9f 293d
00000150: 910c bf3d f282 bfbd 630a 9dbd ebed 36bc
00000160: 4eb0 8a3a bc44 253d 68f0 14be a1d0 2d3d
00000170: a98d 2a3e e151 42bc b48b 923c 10eb 213e
00000180: 3235 28bc a9af 8cbc 9a07 75bc 40bd fa3d
00000190: 46b1 38bd a052 8dbc d66f a73c d04c 77be
000001a0: ff48 a6bd 7c50 db3c 1c0f 8c3d 6471 efbc
000001b0: d6e8 06bc fe56 66bc 0bff b53b 29a4 10bc
000001c0: 34f5 2e3d d285 0c3d ec01 d93c 0b29 12bd
000001d0: eb3a 44bd 1846 23bc a45f fc3d 9e4c 4e3d
000001e0: 2de8 ad3d 6c3a 43bc 6621 23be 725c c03c
000001f0: aebb 89bd 2c5c 733d d484 003e e360 93bc
00000200: 4f98 cc3d 7819 9cbb a41f 9b3d 7033 21bc
00000210: b2d6 6a3d e616 373c 6b8d 583d 7d89 47bd
00000220: fa39 953c b8e2 1b3d 688b c13d 1d43 723d
00000230: 7ea3 58bd ef4d 823d 47c6 133d 42b8 fbbc
00000240: 8469 273d cc35 1cbb 1c94 3fbd c979 6fbd
00000250: 1560 613c 262a 913d f632 1ebd d2a2 8e3d
00000260: 415c f13d c494 bb3d 34d2 81bc 0602 e03c
00000270: 2591 85bd 0cc0 7b3d c225 30bd 9ec3 d1bb
00000280: 7c28 ce3d 66bc b7bc baf7 a33c 311e 98bd
00000290: 4c19 383c 8056 b5bd d659 513d 0f21 123d
000002a0: b296 1fbc 4d05 063d 2efc 9d3c 7c8e ad3d
000002b0: dbab d4bd 21a3 283d 8fa0 ef3d c32b 19bd
000002c0: 571c e53d 58bb 103e 1c41 663d 92ca 403d
000002d0: 28ef 8bbc d313 0abc 6b9c 453c 8eab d8bc
000002e0: c33a d0bd 9293 a33d 7b18 a63d a49a 193d
000002f0: 5c16 5d3d 4c8d c5bd 96f2 d0bd 8723 0f3d
00000300: 84d1 323d 7c3a 7dbd a841 47bd cd5c 03be
00000310: aa0a ecbc 1d29 8a3d f91b 413d 83f8 cebc
00000320: c205 d63d 8270 04bd 1c0f 3c3c 0b53 75bd
00000330: aefb 843c aea2 98bd 16e6 933c ac5f 4a3c
00000340: d1e4 dfbc a938 dd39 48fe 6ebd b48c 073e
00000350: f10a 86bd 5718 583d cf4e e13d a89d 2b3d
00000360: 8845 8dbb bc6b af3c 450c 2bbc c6ba ef3d
00000370: fc45 aebc aedc 44bc 32dd 573d a358 e63b
00000380: cefb 963c 772f 1bbd f97b 833d e1e1 843d
00000390: 1f0a b3bd 51b6 6bbd ba5a 633c 39ea 3fbc
000003a0: 06d1 bebd c499 1bbe a2d4 543d 7e61 b8bc
000003b0: 248f 29bd 8461 c7bc ecb7 29bc f1e2 583c
000003c0: 75f4 5c3d 2f92 fcbb 34d6 0dbc fa9c fc3b
000003d0: 7eb8 9cbd 5fe5 01bd 9098 d23c 5b0b 56bd
000003e0: 1263 f73b 7c88 06bd 5895 0d3d 59c3 6cbc
000003f0: 3445 04bd 8b91 b9bd c4e2 fe3b b259 77bd
0.04871425 -0.0019421985 0.04203676 0.0107546095 -0.033016767 0.0048672818 -0.024386624 0.0028490268
-0.0053706476 0.042062983 -0.021992842 0.08406788 0.24624714 0.17869441 0.1147007 -0.07908662
-0.02441462 0.068684965 -0.059191465 0.101816826 0.029937625 0.11176884 0.009297013 0.018322872
0.0055629797 0.017953489 0.020583574 -0.0021986233 0.04326914 -0.079287656 0.08915996 0.045313325
-0.047709085 0.011617436 0.0712267 -0.062163744 0.107389934 0.0495712 0.041279394 0.04999898
-0.093006924 -0.028096138 -0.012586305 0.008101354 -0.018832015 -0.057431787 -0.001809657 -0.057235528
-0.0600435 -0.06343763 0.03626558 0.050154712 -0.1459827 0.060195383 0.038561307 -0.09369681
0.044066977 -0.03719869 0.07874999 -0.02574968 0.026418896 -0.045492303 0.054058995 0.010283344
0.029972143 0.09651442 -0.024196774 0.058485724 -0.08382946 0.015658095 0.028502466 0.018552208
0.03171986 0.05383526 -0.06592021 -0.052431025 -0.10090201 0.033166062 -0.0364246 -0.12888987
-0.08709986 -0.045246527 -0.008063528 0.041411497 0.09328569 -0.09351148 -0.07667997 -0.0111651225
0.0010581107 0.040348753 -0.14544833 0.042435292 0.16655602 -0.011860342 0.017888881 0.15812325
-0.010266589 -0.017173605 -0.014955426 0.12243128 -0.045090936 -0.017251313 0.02043907 -0.24150395
-0.08119392 0.026771776 0.068388194 -0.029228874 -0.008234223 -0.0140588265 0.005554085 -0.008828201
0.042714313 0.03430731 0.026490174 -0.035683673 -0.04790775 -0.009965442 0.123229295 0.050366037
0.0849155 -0.011915784 -0.15930709 0.023481581 -0.0672525 0.059414074 0.1255067 -0.017990535
0.09989988 -0.0047637783 0.07574394 -0.009838924 0.057333656 0.011174893 0.05286924 -0.048715103
0.018216122 0.038058013 0.09450418 0.059146035 -0.052890293 0.06362521 0.036077764 -0.03072751
0.040872112 -0.0023835776 -0.046772107 -0.058465753 0.013755818 0.07088117 -0.03862282 0.06964649
0.11785174 0.09159234 -0.015847303 0.027344715 -0.06521825 0.061462447 -0.04300476 -0.006401493
0.100663155 -0.022428703 0.020015586 -0.074276336 0.0112365 -0.08854389 0.051111065 0.03567606
-0.009740518 0.0327199 0.019285288 0.08474442 -0.10384341 0.041171197 0.11700546 -0.03739525
0.11187046 0.14133966 0.056214437 0.047068186 -0.017081812 -0.008427578 0.012061219 -0.026448991
-0.10167458 0.07987131 0.08110138 0.037500992 0.0539764 -0.09646091 -0.102025196 0.03494599
0.04365684 -0.061823353 -0.0486466 -0.1282837 -0.028813679 0.06746123 0.047145817 -0.025264984
0.10450317 -0.03233386 0.011478212 -0.05989365 0.016233291 -0.07452904 0.01805405 0.0123519115
-0.027330788 0.0004219462 -0.05834797 0.13237268 -0.06545056 0.052757587 0.1100136 0.0418984
-0.0043112673 0.021413676 -0.010439937 0.11705546 -0.021273606 -0.012015505 0.052701183 0.0070296093
0.018430617 -0.037887063 0.0642013 0.064883955 -0.08742165 -0.057546917 0.013876611 -0.011713558
-0.09317212 -0.15195376 0.051960595 -0.022507425 -0.041396275 -0.024338491 -0.010358792 0.013237701
0.05394407 -0.007707856 -0.008657027 0.0077091428 -0.076523766 -0.031712886 0.025707513 -0.052256923
0.007549652 -0.032845005 0.034566253 -0.014450871 -0.03229256 -0.09060963 0.0077784974 -0.060388274

B1.c1_b.bias f4 [20]
00000000: 0324 c43c 0e9f 143c a46a 8b3d d9a6 683c
00000010: 6ed9 2c3d 4f1f 15bc 8e32 863d d99e 6a3d
00000020: b618 5bbc 6f97 b43d 3e23 bb3c de89 abbd
00000030: dcec 0d3d 0dc5 9f3d 7bf7 223d 0d5d 6dbc
00000040: faed b03b a8c4 4abc e735 babb ffd3 83bc
0.023942953 0.009071125 0.068074495 0.014199936 0.042199545 -0.009101703 0.06552611 0.057280395
-0.013372591 0.08817946 0.022843953 -0.083759055 0.034649715 0.07801256 0.039786797 -0.014487517
0.0053994628 -0.012375988 -0.005682695 -0.016092299

B1.c2_d.weight f4 [20, 20, 1, 1]
00000000: 42f3 80be 75a7 9d3d 3b19 23bd b86d afbd
00000010: f384 08bf 4627 5bbd 5895 a33e d2ba ca3d
00000020: 556d 1f3e 110e f7bd 2eb4 83be 52cd 37be
00000030: b22c b4bc 4668 a43d d378 72be 001d aa3d
00000040: 9eb2 03be ffe3 423d 261e 433e a556 8bbe
00000050: ea2d ebbd 20ac ec3d 50d1 8ebc ea07 90be
00000060: 8cc6 9dbc a66b 67bc 7fae cebd 629b 43bd
00000070: 0c70 fcbd 4c37 e43d f57e 743d 9277 123e
00000080: f6c6 873d fbe7 613e 8583 393e 416d 34bb
00000090: 7615 933d b13b 2bbe 48da f73d e09c 073e
000000a0: 0847 533e c6a0 733c f2c8 09be e002 a3bd
000000b0: 0a7a 0a3d 5dfe e9bd 7475 023e c4f7 e63d
000000c0: 2b39 fb3d 124c 983e ebee a3bd 0d81 67bd
000000d0: 3a63 c73d fbea 913d e2b1 81bd cc5f 5f3d
000000e0: 546b 35be a03e 353e 6de2 d13d e2cc 8dbe
000000f0: d8d7 013e 393d bbbc 3ffa d4bd c733 c7bd
00000100: 1e77 3abe 9e85 de3d e09a de3e 7018 0ebd
00000110: 13fc 08be a331 dfbd a10a 303e 13a7 22bc
00000120: 88d6 853e f6f0 a33d cd5a b8bd b14e 9e3c
00000130: 15fa eb3d 6655 d63d 0718 593d efec 183e
00000140: 0688 f23d 0f58 ef3c 12c6 ebbd 8376 75bd
00000150: 9b20 673e d10a 1a3e d5d7 3e3d 9744 4abc
00000160: 69ff 00be 88d5 313e 9a44 b9bd b4ee 923b
00000170: 7bcd 01bd a453 fa3d 0a53 20bd b301 7c3e
00000180: 731e 4a3e 5388 943d 6a48 1ebe 0abf 2b3e
00000190: 561f b9bd 8863 d5bd 5a15 74be 411c 833e
000001a0: 3ec8 243c 877e d93c 10b4 883e 9d75 a0bd
000001b0: 0dfe a63d 72b0 d83d d02f f03d 6e67 b23d
000001c0: e019 a4be d731 593d 2dbf 0cbd 0123 f23d
000001d0: c2d5 123d d515 2b3e 0f75 74bd 6778 debc
000001e0: 685d eb3d 7b1a 043e 2a93 99be 197e 9f3e
000001f0: e6dd 6d3d d87b 663e d9ba 7cbd 848a 463e
00000200: de5c 2dbd 0edb efbd 85d1 28be e271 5c3e
00000210: 0fb5 063e cf3b 9ebe 2116 25be 7c8c e83d
00000220: a348 23be 9127 57be 2e0c 543e bf67 283d
00000230: 4ad9 84bd 1492 a3bd 93d0 693d 8a9d 5d3e
00000240: fd5f 0e3e 7724 5b3e 2748 1d3e ee3f af3c
00000250: b0a5 b73d a176 a53d 8349 aabe 0907 0d3e
00000260: 4923 94bd 1cc5 f9bd 5ef0 3cbe a6c8 14bc
00000270: e3de 683c 5b13 17be ca1e 93bc 3c9f 423e
00000280: 5b60 8abd 48c7 193e 183f 153c 3fbc 1abd
00000290: 8393 883d 8dc9 413e 13f8 bd3c 7129 c3bd
000002a0: 79a6 353e 2de3 80bc ace0 babc a1eb e1bd
000002b0: 1ebf 0abe eeed 6ebe 2d35 633e 12b1 11be
000002c0: 03c9 35be 62bd 293e 1d59 3b3e 4573 9dbd
000002d0: 681b 7dbb 58d4 093e ae72 20be 504c 0f3e
000002e0: b78a 0abe 68c6 0f3e 757d c53d c4bc 2a3e
000002f0: d8ec 66bb cffa 7a3c 4e9d 17be 0b82 043e
00000300: 59e5 d2bd fbd9 f7bd 0679 ae3b ce3f ca3d
00000310: 82d7 313e 92ec 383e c851 15be 6e99 173e
00000320: d2c6 84bd 987f 02bd 1b0e ccbd f3a2 1fbe
00000330: d7f4 dd3d b4f8 96bd 3f71 f53d 28dc cabc
00000340: f3ad 2d3e f576 05be 8b55 b53d cb40 2abe
00000350: 0612 2cbe 125d b33d 8c93 58be e050 673e
00000360: 0593 573d 15bd 3fbe 715e bd3e e849 123e
00000370: 7214 5cbb 885a dcbd b0bf 37bd 8a9f dbbd
00000380: 26fb 4abe 299b 933e 4361 0d3e 3266 ad3d
00000390: 4867 5b3e c3a9 6dbd 32e3 1dbe d2f1 0b3e
000003a0: 8f1f 9cbd 786b 753b 338c 863e 9495 adbd
000003b0: ae55 a53d 3d78 2d3e 5c5e 133d a338 3fbc
000003c0: 736e 01be 6eef 3a3e 9115 833d 8489 333e
000003d0: cbbb 023e aa0c 42be 2bea 8c3d 2c8f bc3c
000003e0: 23f2 153e 1fc1 283d 3015 703e bdc4 92bd
000003f0: b395 91bd 4de4 093e 9e96 ad3d 00d3 333e
-0.2518559 0.076979555 -0.039818984 -0.08565849 -0.53327864 -0.05350425 0.31949878 0.098989144
0.1556905 -0.1206323 -0.25723404 -0.17949417 -0.021993969 0.08027701 -0.23678903 0.083063126
-0.12861106 0.047580715 0.1905447 -0.27214542 -0.11483367 0.11556268 -0.017433792 -0.28131038
-0.019259714 -0.0141247865 -0.10091876 -0.047755606 -0.12326059 0.111433595 0.05969139 0.14303425
0.06629746 0.2206115 0.18116577 -0.002753094 0.07181828 -0.16721989 0.12102181 0.13243437
0.20632565 0.014869874 -0.13455561 -0.07959533 0.03380779 -0.11425469 0.12740117 0.11277726
0.12266763 0.29745537 -0.08004554 -0.056519557 0.09735723 0.07124897 -0.063327566 0.05453472
-0.17716724 0.17699671 0.102482654 -0.27695376 0.12679994 -0.022856342 -0.10399293 -0.097266726
-0.18209502 0.10865329 0.43477535 -0.034691274 -0.13377409 -0.10898139 0.17191555 -0.009927529
0.26140237 0.08004944 -0.09001694 0.019324632 0.11522309 0.10465507 0.05300143 0.14934133
0.11842351 0.029216794 -0.11512388 -0.059927475 0.22571032 0.15043189 0.046592552 -0.012345455
-0.12597431 0.17366612 -0.09046288 0.004484022 -0.031690102 0.122229844 -0.039141692 0.24610023
0.19738178 0.07252564 -0.15457311 0.16772094 -0.0903918 -0.10419375 -0.2383627 0.25607494
0.010057507 0.02654959 0.26699877 -0.07834933 0.08153925 0.10580529 0.117278695 0.08711134
-0.3205099 0.053026047 -0.034362007 0.11823083 0.035848387 0.16707547 -0.05968195 -0.027157022
0.11492425 0.12900726 -0.2999509 0.31150892 0.058072947 0.2250818 -0.06170163 0.19388777
-0.042324893 -0.11711703 -0.16486175 0.21527818 0.13155006 -0.30905005 -0.16121723 0.1135492
-0.15945677 -0.21011187 0.20707771 0.041114565 -0.06486757 -0.079868466 0.057083678 0.21642128
0.13903804 0.21400629 0.15359555 0.021392789 0.08967149 0.08079267 -0.3325921 0.13772215
-0.072332926 -0.12195799 -0.18451068 -0.009081041 0.014213297 -0.14753477 -0.017959017 0.19006056
-0.067566596 0.15017426 0.009109281 -0.03777718 0.06668761 0.18924542 0.02318958 -0.09529389
0.17739286 -0.015733326 -0.02281221 -0.11031271 -0.13549468 -0.2333295 0.22188254 -0.14227703
-0.17752461 0.1657615 0.18295713 -0.076880015 -0.0038621072 0.13459909 -0.15668747 0.13993955
-0.13529478 0.1404053 0.0964307 0.16673571 -0.0035236385 0.0153185865 -0.148061 0.12940232
-0.10297651 -0.12102123 0.0053244857 0.09875451 0.17367366 0.18058994 -0.14581978 0.14804623
-0.064832345 -0.031859964 -0.09963628 -0.15589504 0.10837715 -0.07371655 0.119844906 -0.024763182
0.16960888 -0.1303366 0.08854207 -0.16626279 -0.1680375 0.08757986 -0.21150035 0.22589445
0.052630443 -0.18724473 0.36986116 0.14286005 -0.0033581522 -0.10759455 -0.04486054 -0.10723789
-0.19822368 0.28829315 0.13806634 0.08466758 0.21426117 -0.058023226 -0.154187 0.13666466
-0.07623207 0.003744809 0.2627884 -0.084757954 0.08072983 0.16940399 0.03597866 -0.011671218
-0.1263979 0.18255398 0.06400598 0.17532927 0.1276695 -0.18950143 0.068806015 0.023017488
0.14643149 0.0411998 0.23445582 -0.07166431 -0.07108631 0.13465996 0.084759936 0.17560959

B1.c2_d.bias f4 [20]
00000000: e795 7c3d 1825 9abb a27b f03c 2b01 03be
00000010: f18e 5ebd 68c4 c0bc bdfa 963c 7340 6e3e
00000020: 7f54 953d 0c2b 63bd ab0e 843e 63d3 09bd
00000030: adde 5fbd 8885 753e c54d 3a3e 1e5b 893e
00000040: b228 b43d f4ee 3bbd 7f1e 23be fe5d 3cbd
0.061666396 -0.004704129 0.029355828 -0.12793414 -0.05433554 -0.023531154 0.018430108 0.23266773
0.07291507 -0.055460975 0.2579244 -0.03364886 -0.05465572 0.2397672 0.18193729 0.2682733
0.087968245 -0.04588218 -0.15929602 -0.045988075

B1.c2_r.weight f4 [20, 20, 3, 3]
00000000: 32b3 4cbc 84fe 62bb d5f1 f6bc fe89 39bd
00000010: 1132 48bc e476 c4bc ff94 0cbd 1169 2dbd
00000020: 6305 81bd 18c7 edbc 5606 b1bd c3f3 2ebd
00000030: 00ed 7fbd 9bc2 aebd f9d8 753d 5287 963c
00000040: 1741 3fbd e5df 9ebd 749f 5cbd ed45 8ebd
00000050: 0eea 0cbc d121 5e3d a478 33bd 68bb 163d
00000060: c742 4bbd 6ba4 d13c c8c9 e73c 25ee c23a
00000070: 797d 6bbd a976 793d 3238 913c a318 433d
00000080: 7aef 55bd 5051 dc3b 56b5 b33b 28ec ad3c
00000090: 651b 80bc fd70 453d fd9e 913b 60b6 6dbc
000000a0: 7152 34bd 20a5 cd3c 73ea 21bc d2f3 833d
000000b0: 8550 cabc 9d8e 38bc f008 833c f0db 8b3c
000000c0: ce32 39bc f5b2 3fbb 635a 363d 4c8c 05bc
000000d0: a42f 893d 5e91 2cbd 126f 7a3d 2e00 323d
000000e0: 69bf 91bd c801 963d 33cb 023e 240c 0abc
000000f0: ee71 b6b9 595f 443d 8ee5 5d3c 64db f53c
00000100: 42f7 7d3d 9eef 543d 98a5 11bd 6ce0 c53c
00000110: f13c b13d 8a2d 03bd 46ba 9c3c cfdb b8bc
00000120: f712 e2bd 2180 943c b268 c83c cf23 a4bc
00000130: 914e fe3d afcb 593c 1af2 e03c 3868 88bd
00000140: 3356 9d3d d168 773b 8d0a 613d 3cc2 863d
00000150: 0316 e8bb edde c7bc 7019 de3c cb91 87bd
00000160: 111d 82bd ed28 513c 18b3 c83c 660f 39bd
00000170: fc7c 83bd eea2 b53b ce2a 433d dd7c b9bd
00000180: d72c e43b d9e6 263d 8576 fdbc 45e7 1e3d
00000190: 4b0e 8b3c 9025 323d 60dd 4b3a ebb4 bf3c
000001a0: 15f8 593d 1143 babc 9bda 623d bdea bd3c
000001b0: 7edf 13bb 5354 9d3d 6a2d 3f3b a4df 323d
000001c0: 9e79 493d 5676 59bd a710 893c 4e79 e33a
000001d0: 0ee4 ddbc 3e9d 433d 6328 d93d a688 e3ba
000001e0: b979 c53d e7ef c7bc ca62 613d d0ea 323d
000001f0: 1f55 bd3d 6427 14bc 0cf0 d23b 95db 0f3d
00000200: d46a 183d 67eb e3bd 2f97 e43d 113e 71bd
00000210: 94ab 9a3c 5fd6 06be 52ec 793d 533a b83c
00000220: 93b6 89bc f45e 963d a547 1e3d 057d 63bc
00000230: 89e4 033e 9b48 83bd 3e03 70bd cfe2 d53c
00000240: b8ef 4f3c 38e9 08bd daa8 92bd bbba cdbc
00000250: 576f 32bc 08f0 923c ca2e 7ebc 4d68 773d
00000260: 69e8 82bd 602b e03c eb91 fcbc 82ea a8bd
00000270: 6112 aabd 8fb0 183d 2769 bcbd 3879 ab3d
00000280: a859 cebd 700d a73b 4108 c3bb e006 3ebd
00000290: 4b9d 943d b0f0 4e3d 6883 553d f911 4f3d
000002a0: 0d13 1c3d 45a3 c33c b8dd 27bd 2607 d4bc
000002b0: 7703 47bd dd11 e0bd a46f 8f3d e1bf a2bc
000002c0: eb55 373c a67b 873d fb40 c53c 86b7 de3c
000002d0: 4f2a d63c d324 e6bc f22f 0c3d 7219 8ebd
000002e0: 0b8c bc3d 8b90 663d 40de 84bd 62fe 16bd
000002f0: 3034 f2bc 4d7e 60bd 6382 72bd 9868 d5ba
00000300: 0915 60bd d898 e43c ded6 89bd a02c edbc
00000310: f806 e9bd 7df7 653c e1c1 0abd 8c26 e63c
00000320: f966 77bb 0436 a1bd 7f2e f5bc d14d c53d
00000330: 9561 9abd efd1 aabd 977e 72bd c9b5 ab3c
00000340: 3ad4 6ebc 2d58 173d 309c 02bd 0a5e bfbd
00000350: 3992 92bc 5632 68bc c811 c83b e25e cd3c
00000360: 7c86 663d 8ec0 c53c a46e c6bb bd6c 9a39
00000370: a3f5 0bbd 53bc 563d e878 e3bb 4d21 50bd
00000380: a1e2 553d f783 d1bc 0448 40bc 654b 9ebc
00000390: b817 fbbc 1ea1 f73d eb84 2dba cb03 0e3c
000003a0: 6c1a 72bd 2fe3 91bc f0ad 4f3d 2169 fcba
000003b0: 2be7 093a 022c b23d 35cd fdbc 5d0e 8bbd
000003c0: c594 aabc 5290 94bc deda c93c c8de 06bd
000003d0: db8b 933c 3991 793c b72c 423c b139 00bd
000003e0: de34 13bd 87d4 203d e304 15bc 4f56 21bc
000003f0: a0db afbd 024f 19bd 266b 8b3c 3eb5 e03c
-0.012493895 -0.0034636566 -0.030144611 -0.045297615 -0.012218968 -0.023982473 -0.03432178 -0.042336527
-0.062998556 -0.0290256 -0.086437866 -0.042712938 -0.06248188 -0.08533212 0.060021374 0.018375073
-0.046692934 -0.07757548 -0.053863004 -0.06946931 -0.008600725 0.05423147 -0.043816224 0.03679982
-0.04962423 0.025591096 0.028294459 0.0014871998 -0.057492707 0.06090418 0.017726991 0.047630917
-0.052230336 0.0067235604 0.0054842634 0.021230772 -0.015638063 0.048203457 0.0044440017 -0.014508814
-0.044023935 0.025103152 -0.009882557 0.064429894 -0.024696598 -0.01126447 0.015995473 0.017072648
-0.011303617 -0.0029250954 0.044519793 -0.008151125 0.0669854 -0.04213082 0.06114108 0.043457203
-0.07116587 0.073245585 0.12772827 -0.008425746 -0.0003479863 0.047942493 0.0135435 0.03001184
0.06200338 0.05198633 -0.035558313 0.024154864 0.08654202 -0.03202585 0.01913179 -0.02256575
-0.110387735 0.018127503 0.024463985 -0.020036606 0.12417329 0.013293191 0.027459193 -0.06660503
0.07682457 0.0037751684 0.054941703 0.06580016 -0.007082702 -0.024398291 0.027111739 -0.06619605
-0.063532 0.012766105 0.024499461 -0.0451807 -0.06420323 0.0055431044 0.047648244 -0.09057019
0.006963353 0.040747497 -0.030940304 0.038794775 0.016974589 0.043492854 0.0007776823 0.023401698
0.053215105 -0.022737058 0.05538426 0.023183221 -0.0022563632 0.07682099 0.0029171356 0.04367031
0.04918825 -0.05309137 0.016731573 0.0017354877 -0.027086284 0.04775738 0.10603406 -0.001735945
0.096423574 -0.024406387 0.055025853 0.043680966 0.09244751 -0.009042595 0.006437307 0.03512152
0.037211254 -0.11128884 0.111616485 -0.05889708 0.018880643 -0.13167714 0.06101639 0.022488749
-0.016810691 0.073423296 0.038642544 -0.013884787 0.12880148 -0.06410333 -0.058596842 0.026109127
0.012691431 -0.03342554 -0.07161112 -0.025113454 -0.010890803 0.017936721 -0.015514085 0.060402203
-0.06391985 0.027364433 -0.030831298 -0.08247854 -0.08304287 0.037277754 -0.09199744 0.0837273
-0.10075694 0.0050980374 -0.0059519117 -0.046393275 0.07256564 0.050522506 0.052127272 0.05055425
0.038104106 0.023881564 -0.04098293 -0.025882315 -0.04858729 -0.10940907 0.07003716 -0.019866886
0.011189918 0.06615381 0.024078837 0.02718712 0.026143221 -0.028093731 0.03422541 -0.06938447
0.092063986 0.05629019 -0.06487703 -0.036863692 -0.0295659 -0.05480795 -0.059206378 -0.0016281782
-0.05470756 0.027904913 -0.06730436 -0.028951943 -0.11378282 0.014036057 -0.033876304 0.028094552
-0.0037750585 -0.07871631 -0.029929398 0.09633983 -0.075381435 -0.08340823 -0.059202757 0.020960705
-0.014576966 0.036949325 -0.031887233 -0.093441084 -0.01789199 -0.014172157 0.0061056353 0.025069658
0.056280598 0.024139669 -0.00605567 0.00029454185 -0.034169804 0.052425694 -0.0069419034 -0.050813008
0.052218083 -0.025575621 -0.01173592 -0.01932306 -0.030650958 0.120912775 -0.00066192326 0.0086678965
-0.05910723 -0.017808525 0.05070299 -0.0019257405 0.0005260582 0.086998 -0.03098164 -0.06789849
-0.020822892 -0.018135224 0.024640497 -0.032927305 0.018011024 0.015232378 0.011851481 -0.03130502
-0.03593909 0.039265182 -0.009095403 -0.009847238 -0.08586812 -0.037428863 0.017018866 0.027430173

B1.c2_r.bias f4 [20]
00000000: 8f8c 9c3b 67bb 343c 399c 4abd c0a2 813d
00000010: 76b6 863d bd04 973d bbdb f9bb c9f3 13bd
00000020: 9970 583d 4d59 043d 3170 393d 6a64 323d
00000030: f811 3f3d 0acd 0c3c 362e 41bd b153 6d3b
00000040: 6298 5e3a 1d46 0b3d cb70 30bd a139 5e3d
0.004777498 0.011031008 -0.04946539 0.0632987 0.065777704 0.07373951 -0.007625071 -0.036121164
0.052841756 0.032311726 0.04527301 0.043552794 0.046647996 0.008593807 -0.04716321 0.0036213214
0.0008491335 0.034002412 -0.043076318 0.054254178

B1.c2_b.weight f4 [20, 20, 3, 3]
00000000: 70f6 90bd 431a 873b 82ef f0bd e798 903e
00000010: 572f 8fbc 530d 673d b841 c23d 723e 183e
00000020: 1528 8e3d fdb8 a03c 3e67 fc3d 5794 ecbd
00000030: 5266 96bd 554b a43c 5181 d0bc 04f1 353c
00000040: f284 063d 533e ca3d ea92 34bd 128e 88bd
00000050: f59d d53c 3eec 933c 7d52 413d c349 0bbc
00000060: 8237 5c3d 28e5 ccbd 2e1b 533b b41b c73c
00000070: f6f9 113b cf2f f63c edeb d93d ebf9 9cbc
00000080: 2aef bbbc 0c36 873c 8263 5e3c d390 003c
00000090: cf14 39bd 1373 1b3d 8700 103d a246 c1bd
000000a0: 2ff2 bbbc 31eb 6839 0988 83bd 0279 a7bd
000000b0: c8e0 efbc 884b 4a3d 09b6 ac3c f7b7 5dbc
000000c0: 2c7e 213d a0a8 3f3e 43c8 5cbc 2a33 e7bb
000000d0: 42a1 8fbd dfb6 03bd d3cc 87bc 6b49 eaba
000000e0: 1e1a ed3d 3a5d 00bd 8253 833d 5200 9cbc
000000f0: 0910 e13d 39ae a43d b556 603e fec9 a1bd
00000100: 07ee 3c3d 16d3 a6bc caf1 9c3d 8dc1 933c
00000110: 0ecb 7e3d 5b53 ccbc 321a 37bd 6dc2 073d
00000120: 75ae 9cbd f63b 77bc 2a4c 913c 00fc 1c3d
00000130: e4d1 cb3d f2a9 3dbd 54c7 4ebd 46a2 f3bd
00000140: bed1 aa3c a65f 0f3d c195 97bd 3e01 53bc
00000150: 3970 2fbe d387 273c d05d 293d bc8a 3fbc
00000160: d4e3 f3bc 2a32 b73d cf02 803c 0096 da3d
00000170: 214c 2ebd c43e 1e3e 582b b0bc 0d50 cc3d
00000180: 3686 07bd 7160 293e 9165 87bd 17b4 413c
00000190: c3f7 fd3c cb37 a9bd 460f 1abe d591 e43d
000001a0: 7c67 a3bd 4cfe 8dbc 9c85 aebd e46f 053d
000001b0: 3f3f 9a3b 4eaa a63c 2f2a 443d 1832 4b3c
000001c0: 368d debc 6232 ffbb df0d 67bd 1638 42bd
000001d0: d25d 003b b18a a0bd ff12 6d3d 3f1e 213d
000001e0: e323 9f3d ac08 cebc b09f 063e 8003 f83b
000001f0: c6ea 563d cf0f f0ba 01b6 1a3d f602 9b3d
00000200: 29f8 08bd 2587 f43d 4166 b13b 4829 a03d
00000210: b12d d739 5e7a 153d 9c6b 6dbd e79a 3c3e
00000220: e50a 023e a62a fd3d a331 123e bfa6 95bd
00000230: d83b 273d 9dd4 003e 1a44 873d 31a6 043e
00000240: 0e83 23bc 14d9 51bd f5fb 9abc fa91 c63d
00000250: 8f6d 12be 1935 f13c 0153 1bbc 5abe 983d
00000260: 1b1f 80bc c970 0a3c 6847 d7bd 5fa4 6f3d
00000270: 566c 90bd 8b1e 1ebc b017 b0bd 748f d13c
00000280: 9d5e 0ebc be45 76bc 80d7 4abd a261 d2bd
00000290: 94f4 653d aa1b 37bd 20c6 7cbb 9949 23bc
000002a0: 682c 81bd 478d 233a 3ba4 99bc 8490 933c
000002b0: 5b39 cc3c e55a fa3c 5de1 dfba de6c 093c
000002c0: 53c8 2ebd c767 8bbd 573b 7fbd 340f 1cbd
000002d0: 10d8 5f3c ed79 fbbd ef8b 7fbd a38e e53d
000002e0: 6dd5 a2be 8440 a2bd 1d79 43be f2e4 133e
000002f0: 860a 5b3d dd0c 223d 2bc2 4f3d 5733 e63c
00000300: 449d cdbc 5370 033d aa83 ab3d ac16 3e3d
00000310: 8110 3bbd 275e a13d 9a46 743c a9d4 bcbd
00000320: 5514 453d a512 153d ed53 a7bd 33a3 32bd
00000330: 7bd2 803d ac37 113d 7336 2dbb f65e 1ebb
00000340: b069 98bd 2a37 8f3d 3bd5 cf3c 32f8 ab3b
00000350: c136 b53d 7978 133d 1314 473c 1fa3 5f3d
00000360: 38ff 3a3d 1854 b43d fc63 0a3d 2031 edbc
00000370: ccd1 8c3d 3b74 7ebc 4e14 8ebd 1065 bdbd
00000380: e2fa 983d e667 d53d 3efe afbd c73a 793c
00000390: 7c56 773d 35f1 5c3c 155d cb3a a721 a5bd
000003a0: a044 0a3d a551 e03c 1e99 053b b885 7dbd
000003b0: d675 683e f0b0 bebd 5409 383e bbdc 3c3e
000003c0: 82fb 953c a054 253d ac50 55bd a0ae a93c
000003d0: 90b8 f43c 2249 9abd 1c24 07bd 9280 3cbd
000003e0: 9463 04be f7af 573d e217 ca3c b43a 143d
000003f0: 4d18 aa3c a8da fcbc c22a 07bc 26af 72bd
-0.07078254 0.0041230037 -0.117644325 0.28241655 -0.017478628 0.05640919 0.09485191 0.14867571
0.06941239 0.01961946 0.123243794 -0.11551731 -0.07343735 0.020055452 -0.025452288 0.011104826
0.03284163 0.09875169 -0.04408542 -0.06667723 0.026076296 0.018056985 0.047197808 -0.008501473
0.053763874 -0.100046456 0.0032212245 0.024305202 0.0022274232 0.030052094 0.106407024 -0.019162139
-0.02294119 0.016505264 0.013573529 0.007847029 -0.04518586 0.03795154 0.035156753 -0.094373
-0.02294263 0.0002221286 -0.06422431 -0.08177377 -0.029281989 0.04938844 0.021082895 -0.01353263
0.039426968 0.18716669 -0.0134754805 -0.00705566 -0.07013179 -0.03215682 -0.01657716 -0.0017874663
0.11577247 -0.031338908 0.06412412 -0.019043121 0.109893866 0.08041043 0.21908076 -0.07899855
0.046125438 -0.020364325 0.07663305 0.018036628 0.062205367 -0.02494209 -0.044702716 0.033144403
-0.076504625 -0.015089979 0.017736513 0.038326263 0.09952143 -0.04630465 -0.050483063 -0.118961856
0.020851966 0.035003327 -0.0740161 -0.012878714 -0.17132653 0.010225254 0.041349232 -0.011690792
-0.029771723 0.08945115 0.01562634 0.106731415 -0.04255307 0.1545363 -0.021505043 0.09976206
-0.033086978 0.16540696 -0.06611169 0.011822722 0.031001931 -0.08262595 -0.15044889 0.11160628
-0.079787225 -0.017333172 -0.08521578 0.03257741 0.0047072466 0.02034488 0.047891792 0.01240208
-0.027166944 -0.0077879885 -0.056409713 -0.04741677 0.0019587171 -0.07838953 0.057879444 0.039335486
0.07770517 -0.02515062 0.13146853 0.0075687766 0.05246999 -0.0018315258 0.03777123 0.07568924
-0.03343979 0.11939839 0.005413801 0.07820374 0.00041042038 0.03649365 -0.057963952 0.18418466
0.12699468 0.1236165 0.14276747 -0.07307195 0.040828556 0.12581106 0.06604786 0.12954022
-0.009979976 -0.051232412 -0.01891897 0.096958116 -0.14299606 0.029444264 -0.009480239 0.07458182
-0.015639832 0.008449742 -0.105116665 0.058506366 -0.070519134 -0.009650837 -0.08598268 0.0255811
-0.00868955 -0.015031276 -0.049521923 -0.10272528 0.05614145 -0.044704117 -0.003857024 -0.0099662775
-0.06307298 0.00062390085 -0.018755069 0.018013246 0.024929693 0.03056092 -0.0017080713 0.008387772
-0.042671513 -0.06806903 -0.06231245 -0.038100436 0.013662353 -0.12279115 -0.06238931 0.112088464
-0.31803456 -0.07922462 -0.1908917 0.14442804 0.053476833 0.03956305 0.050722282 0.028100653
-0.025099404 0.032089543 0.08374722 0.04640834 -0.045670036 0.07879286 0.014909411 -0.09220249
0.048115093 0.036394734 -0.081703044 -0.04361267 0.06290146 0.035453483 -0.002643016 -0.0024165488
-0.07442033 0.069929436 0.02537023 0.005248093 0.08848334 0.036003564 0.012150782 0.054598924
0.04565355 0.08805102 0.03378676 -0.028954089 0.06875953 -0.015530641 -0.069374666 -0.09247792
0.07469727 0.10420208 -0.08593415 0.0152117675 0.060385212 0.013485243 0.0015515412 -0.08063059
0.033756852 0.027382681 0.0020385454 -0.061895102 0.22701201 -0.09311092 0.17972308 0.18443577
0.018308405 0.040363908 -0.052078888 0.02071315 0.029873163 -0.0753348 -0.03299342 -0.04602105
-0.12928611 0.052658048 0.024669591 0.036188796 0.02076354 -0.030865982 -0.00824994 -0.059249066

B1.c2_b.bias f4 [20]
00000000: 5cb7 2fbc 3ecb 4abd 96fe e9bc e23e 5e3c
00000010: e473 07bd 2053 3c3d 93e7 34bd c43a 733c
00000020: 11da 6a3d 1a55 823d 1610 11bb 0919 21bd
00000030: 9d3f 8e3d 24d3 d1bc 638c 62bc 4379 b23c
00000040: e6c2 6f3c db12 b23d 88bd e3bc 904f 5f3d
-0.010724869 -0.049510233 -0.028563779 0.013564797 -0.033069506 0.04597771 -0.04416616 0.014845554
0.05733687 0.06363888 -0.0022134832 -0.039330516 0.06945727 -0.025613375 -0.013827416 0.021786338
0.01463387 0.08695003 -0.027800336 0.054519236
