model_zoo/team35_rfdn.pt (torch_old, 926760 bytes, 184 tensors)

fea_conv.weight f4 [50, 3, 3, 3]
0.04417522 0.063032076 0.018470105 0.09594468 -0.3660743 0.12977313 -0.028537162 0.06833807
-0.02203771 -0.070583895 -0.008719089 0.009714621 0.099233955 0.007824047 -0.043760218 -0.046992186
0.031591166 -0.028863933 0.030078147 -0.002331568 -0.00599779 -0.12607856 0.13027176 -0.042922553
0.0017586455 0.011663483 0.05178803 0.031438738 -0.10471354 0.009076814 0.017005976 0.27989092
0.07080942 -0.05666824 -0.26216823 -0.0011548455 0.013332076 -0.03342127 -0.037544537 -0.0830035
0.2961994 -0.1051692 0.047204673 -0.030609185 -0.034954853 0.0017617816 -0.021646686 0.077575855
-0.030821336 -0.21198143 -0.12271903 0.0024663177 0.24398066 0.04462128 0.032127324 0.041038036
-0.06695908 -0.14823978 0.1120133 0.08471427 -0.041761577 0.020346334 0.0040414464 -0.0074802143
-0.05963364 0.05062519 0.0726836 -0.08089734 -0.099634185 0.032082856 0.027391292 0.034742177
0.017629478 0.05034734 -0.0055220826 0.08456155 -0.04162499 0.0059850477 -0.06589812 -0.032130525
-0.019227192 -0.074769385 0.050791223 0.008661257 0.1383737 -0.13307463 -0.044161096 -0.008890799
-0.014888885 0.05782149 0.13785683 -0.11118799 0.07196395 0.05757193 -0.15310581 -7.829452e-05
0.007240048 0.043496452 -0.029994218 -0.13128078 0.106608965 -0.06265728 0.02281551 0.18359068
-0.071682476 -0.1434381 0.15036498 -0.054537494 0.07714968 0.02653735 0.01843216 0.12161056
0.19159304 -0.15352704 -0.011591574 0.11503056 0.07456429 0.060293596 -0.15265684 -0.16591656
-0.14733322 0.0110472785 0.14241727 -0.15805733 0.06559984 -0.15998402 -0.20251481 -0.07179144
0.053710807 0.13754342 -0.14279862 0.014444926 0.10860877 0.08563707 0.07589337 0.08822101
0.1815083 0.06053606 -0.061361626 -0.2392838 -0.13708268 0.0841376 -0.115442015 -0.0028366195
-0.06538327 -0.061400488 -0.025541909 0.0095458375 0.22954291 0.07592079 -0.051898304 0.23669103
-0.08500912 0.017259942 -0.14192405 -0.028991258 -0.07985223 -0.10715537 0.14464962 0.0044047423
0.013119828 0.05768695 -0.040503465 0.06972446 -0.05565752 -0.013371428 -0.0743043 -0.1119595
-0.1214803 -0.09573975 -0.07097892 0.045458004 0.042171914 0.060585827 0.21066253 0.35846385
0.121508986 0.0700851 -0.09235602 0.11577265 -0.048336577 -0.0062074917 -0.05075816 -0.07313465
-0.14069721 0.13269861 -0.08055107 -0.14566661 -0.01623552 -0.020289809 0.14906211 -0.090831086
0.006101969 -0.17032799 0.18963669 -0.07851821 0.029176792 -0.0103129875 0.10068864 -0.14745934
0.03792094 -0.06779433 0.22291596 -0.10820099 0.10388589 -0.09695113 -0.043421444 -0.05764351
-0.009255323 0.05389221 -0.0033910493 -0.059251994 -0.09169575 -0.018100347 0.14143339 0.03623527
0.0854567 -0.08794528 0.04638627 0.07438379 -0.3006141 0.20118971 0.019061526 -0.05257784
-0.01259347 -0.06987889 -0.06398964 0.02130056 -0.03161528 0.22836426 -0.045703866 -0.057629567
0.09735856 -0.035757814 -0.0052076634 0.0056507424 -0.054549694 -0.0049886154 0.20635957 -0.18008974
-0.0002937188 -0.0583656 0.07725732 -0.008179523 -0.07262048 -0.017663088 -0.06317861 -0.15426333
-0.09393645 0.122166425 0.19048049 0.054307032 -0.0046202554 0.069386356 -0.03983125 -0.12081367
00000000: 13f1 343d f616 813d 9e4e 973c a57e c43d
00000010: 176e bbbe 3fe3 043e c4c6 e9bc d4f4 8b3d
00000020: 6d88 b4bc 4a8e 90bd 83da 0ebc 132a 1f3c
00000030: 2c3b cb3d 6e30 003c ea3d 33bd e17a 40bd
00000040: bd65 013d 0e74 ecbc 7266 f63c 38cd 18bb
00000050: 1c89 c4bb bd1a 01be f665 053e 8fcf 2fbd
00000060: 5a82 e63a 3218 3f3c af1f 543d e8c5 003d
00000070: 0d74 d6bd ebb6 143c 1e50 8b3c dd4d 8f3e
00000080: 8704 913d f51c 68bd ea3a 86be 2f5e 97ba
00000090: c86e 5a3c bee4 08bd 4dc8 19bd bdfd a9bd
000000a0: 73a7 973e f362 d7bd b059 413d 1dc0 fabc
000000b0: d22c 0fbd 95eb e63a 6454 b1bc 17e0 9e3d
000000c0: 077d fcbc a911 59be 1d54 fbbd f2a1 213b
000000d0: 11d6 793e cec4 363d f197 033d 8017 283d
000000e0: d821 89bd 2bcc 17be 3b67 e53d ad7e ad3d
000000f0: 300e 2bbd 5bad a63c 1c6e 843b 961c f5bb
00000100: 6742 74bd 5c5c 4f3d 24db 943d 81ad a5bd
00000110: 020d ccbd 5069 033d b463 e03c d04d 0e3d
00000120: b26b 903c 0339 4e3d 96f2 b4bb 9b2e ad3d
00000130: f77e 2abd 381e c43b 98f5 86bd 4c9b 03bd
00000140: 5882 9dbc b120 99bd 750a 503d f2e7 0d3c
00000150: d6b1 0d3e b744 08be 44e2 34bd b7aa 11bc
00000160: 83f0 73bc 3ad6 6c3d 572a 0d3e 87b6 e3bd
00000170: d661 933d 8bd0 6b3d c5c7 1cbe 0d32 a4b8
00000180: ed3d ed3b 5629 323d 6fb6 f5bc 786e 06be
00000190: cd55 da3d 7652 80bd 98e7 ba3c 32ff 3b3e
000001a0: 43ce 92bd 70e1 12be 47f9 193e b562 5fbd
000001b0: a700 9e3d db64 d93c 0bff 963c f50e f93d
000001c0: f730 443e 3136 1dbe 96ea 3dbc 2495 eb3d
000001d0: 2ab5 983d 6bf6 763d 1352 1cbe 08e6 29be
000001e0: 85de 16be a5ff 343c d5d5 113e c8d9 21be
000001f0: 3559 863d dad2 23be 0b60 4fbe 6407 93bd
00000200: ddff 5b3d 2fd8 0c3e cd39 12be 69aa 6c3c
00000210: 466e de3d 7d62 af3d fc6d 9b3d 38ad b43d
00000220: 50dd 393e a9f4 773d 5456 7bbd d006 75be
00000230: 675f 0cbe 5650 ac3d dd6c ecbd 94e6 39bb
00000240: aae7 85bd 147f 7bbd 443d d1bc 2566 1c3c
00000250: 4c0d 6b3e 5c7c 9b3d 5193 54bd 225f 723e
00000260: 4319 aebd b964 8d3c 8a54 11be 137f edbc
00000270: 9189 a3bd 4674 dbbd 081f 143e a855 903b
00000280: 8cf4 563c 2749 6c3d f6e6 25bd b3cb 8e3d
00000290: 24f9 63bd d513 5bbc da2c 98bd 064b e5bd
000002a0: aaca f8bd 3413 c4bd 655d 91bd 2c32 3a3d
000002b0: 75bc 2c3d d828 783d ebb7 573e 9388 b73e
000002c0: b4d9 f83d c788 8f3d 2725 bdbd 361a ed3d
000002d0: 93fc 45bd 3768 cbbb cae7 4fbd 9fc7 95bd
000002e0: ee12 10be 25e2 073e f6f7 a4bd a129 15be
000002f0: 5a00 85bc d036 a6bc bda3 183e a605 babd
00000300: 07f3 c73b 766a 2ebe 1f30 423e 28ce a0bd
00000310: 2b04 ef3c cef7 28bc d835 ce3d 95ff 16be
00000320: fd52 1b3d c1d7 8abd 1544 643e 7b98 ddbd
00000330: 20c2 d43d 508e c6bd afda 31bd 9a1b 6cbd
00000340: a3a3 17bc 14be 5c3d 5e3c 5ebb 38b2 72bd
00000350: fbca bbbd 2e47 94bc ead3 103e 6f6b 143d
00000360: ec03 af3d a81c b4bd 88ff 3d3d 8756 983d
00000370: 17ea 99be ad04 4e3e eb26 9c3c dc5b 57bd
00000380: d754 4ebc aa1c 8fbd 000d 83bd 837e ae3c
00000390: 067f 01bd 52d8 693e fa33 3bbd fb0c 6cbd
000003a0: ed63 c73d c976 12bd 0ca5 aabb dd29 b93b
000003b0: 806f 5fbd 8a77 a3bb ec4f 533e 7269 38be
000003c0: 45fe 99b9 c410 6fbd 1639 9e3d 6803 06bc
000003d0: 0cba 94bd 2eb2 90bc c963 81bd 35f7 1dbe
000003e0: c161 c0bd 6432 fa3d 510d 433e 0d71 5e3d
000003f0: 8365 97bb 6f1a 8e3d 1826 23bd 286d f7bd

fea_conv.bias f4 [50]
0.6862669 0.5732713 -0.8160176 -0.993595 0.04361914 -0.056919202 -0.067474574 1.2966232
0.36002684 0.7047167 0.88736135 0.9218202 -0.078139335 -0.15388648 1.1921273 0.08499582
0.5608228 0.3872586 0.076142654 -0.13018374 -0.301106 -0.7304774 -0.72964376 1.3530824
0.05055256 -0.20694226 1.8006537 0.09405801 0.13437513 0.025891582 0.3677633 0.017590892
-0.03502786 0.10844269 0.40766793 -0.38470963 0.36133447 1.0146544 -1.0924236 0.28170478
-0.2698611 -0.3573889 -0.05293667 0.17992304 -0.4449417 0.67780304 -0.8954136 0.011741386
-0.68221825 0.28517655
00000000: 30af 2f3f e8c1 123f 88e6 50bf 3e5c 7ebf
00000010: fca9 323d 1c24 69bd 1c30 8abd c0f7 a53f
00000020: 7055 b83e 5068 343f 1d2a 633f 69fc 6b3f
00000030: 8407 a0bd 6b94 1dbe a197 983f 4a12 ae3d
00000040: 1592 0f3f c246 c63e aef0 9b3d e34e 05be
00000050: 912a 9abe 9100 3bbf efc9 3abf ce31 ad3f
00000060: 3310 4f3d ace8 53be d27b e63f 7ca1 c03d
00000070: a299 093e 951a d43c 794b bc3e c61a 903c
00000080: 6079 0fbd 3317 de3d dab9 d03e a9f8 c4be
00000090: d500 b93e 32e0 813f 89d4 8bbf 9c3b 903e
000000a0: 3c2b 8abe aefb b6be 1fd4 58bd bf3d 383e
000000b0: 66cf e3be 8084 2d3f d339 65bf f15e 403c
000000c0: dba5 2ebf a902 923e

B1.c1_d.weight f4 [25, 50, 1, 1]
0.19115761 -0.009449791 -0.18020862 0.04326204 -0.27390388 0.025505979 0.062746905 0.20666495
0.1916009 0.33812594 0.16797188 0.11724421 -0.22404648 -0.20450528 0.20962833 -0.04349899
-0.010786055 0.18176845 -0.18408796 0.03838321 0.019685745 0.036719088 0.087133095 0.08024366
0.004558411 0.08890085 0.0209996 0.046023116 -0.1842067 -0.037956413 0.16001682 0.2495648
0.08734661 0.056088936 -0.0008631516 -0.11479726 0.016034147 0.15316057 -0.23907083 -0.05651219
0.114268124 0.14327171 -0.10953195 -0.10149778 -0.044334285 0.36991504 0.1394758 -0.10642401
0.0019268482 -0.09922996 0.037734803 0.08235729 0.18158093 0.01332088 0.012367236 -0.024646256
0.115581356 -0.11078053 -0.058119353 -0.04960722 0.021668553 0.026834229 -0.074017964 -0.074036054
0.121031485 -0.09319943 0.08958518 0.0785485 0.14058788 0.005457206 0.12939824 0.020442737
0.023412883 -0.17139108 0.03999588 0.22089408 0.03575574 0.09575623 -0.06677619 0.11321124
0.033414003 0.14596485 0.02896784 -0.04771323 -0.046182986 -0.023863833 -0.05043778 -0.08048531
-0.08307756 -0.09042527 0.16411147 0.0010430889 0.06943445 0.00717921 0.0048020883 0.03473292
-0.06762415 -0.1166989 -0.0238969 -0.07424614 -0.005528961 -0.18104093 -0.14065586 -0.057590995
0.012543744 0.0972896 -0.016356481 -0.00460399 0.000580755 0.13068868 -0.0073940335 -0.034138046
0.02108714 0.100534715 -0.02774103 0.028530875 0.08898137 -0.0034756728 -0.27207923 0.07875658
-0.037052404 -0.08192855 -0.054592937 0.04478788 0.0006861902 0.23626257 0.09482121 0.0894572
0.0027882305 0.038748827 -0.11234753 -0.0051051877 0.16658026 -0.16146894 0.33623305 -0.035665452
-0.17391942 0.059231058 -0.06993095 -0.10855271 0.15833333 0.04253365 0.17654483 -0.05037583
-0.099188134 -0.08127864 -0.1280826 -0.06944108 -0.21347073 0.025821438 -0.0858251 0.045066282
-0.09790252 0.029420745 -0.058575764 0.1424747 -0.046564393 0.1255436 -0.03470603 0.033683155
-0.21691787 0.009169108 0.23586243 -0.0148828635 -0.20854427 -0.13125896 -0.055279147 -0.08542945
0.04161284 -0.034049504 0.0515887 -0.019360967 -0.05478912 -0.10908303 -0.11964199 0.057033088
-0.09050327 -0.032816317 -0.05312882 -0.027129736 -0.08432564 0.046039782 0.06456632 -0.10690552
-0.05439089 0.047311343 0.21302082 0.017223941 -0.046993922 0.23700003 -0.033745006 -0.013807121
0.071730554 -0.08704615 0.07824426 0.049098495 0.049690146 0.008492175 0.16321379 -0.020289997
0.035562154 0.074942514 -0.06543423 -0.011600211 0.032188572 -0.08450804 0.04126578 0.1807542
0.012718698 -0.030966781 0.1518156 0.090197995 0.006994089 -0.052943617 0.07683912 -0.061924744
0.06175039 0.124834605 0.14296028 -0.18521576 0.002530858 -0.06912953 -0.0729744 0.15519276
-0.010688109 -0.2235384 0.17074713 0.025753323 0.018701963 -0.03309598 -0.006839272 -0.020665247
-0.14278367 0.18459894 -0.2111756 0.009313404 0.053173393 0.12057873 -0.13814318 0.09494767
-0.10707277 -0.042832877 -0.12728222 -0.04395365 -0.11267968 0.14566079 -0.0457615 0.07120098
-0.0071183466 0.08906802 -0.010303017 -0.025209632 0.27880844 0.14773525 -0.07428069 -0.10552937
00000000: d2be 433e 4cd3 1abc 9c88 38be 8933 313d
00000010: 213d 8cbe eaf1 d03c 7381 803d fa9f 533e
00000020: 0733 443e d81e ad3e d200 2c3e bb1d f03d
00000030: 716c 65be d569 51be cfa8 563e ff2b 32bd
00000040: feb7 30bc 8221 3a3e 8e81 3cbe b637 1d3d
00000050: 0044 a13c c166 163d d672 b23d ca56 a43d
00000060: b95e 953b a611 b63d 5a07 ac3c bc82 3c3d
00000070: aea0 3cbe 2f78 1bbd 73db 233e ea8d 7f3e
00000080: c8e2 b23d 83bd 653d 2045 62ba d31a ebbd
00000090: 0b5a 833c 20d6 1c3e fcce 74be 5379 67bd
000000a0: 6805 ea3d d2b5 123e 4952 e0bd 11de cfbd
000000b0: de97 35bd 8165 bd3e bed2 0e3e d5f4 d9bd
000000c0: 4c8e fc3a 1439 cbbd cf8f 1a3d f0aa a83d
000000d0: 5af0 393e d23f 5a3c f39f 4a3c f2e6 c9bc
000000e0: ebb5 ec3d e7e0 e2bd 8f0e 6ebd f130 4bbd
000000f0: 4082 b13c 75d3 db3c bb96 97bd 37a0 97bd
00000100: 5bdf f73d 58df bebd 6f78 b73d 09de a03d
00000110: 45f6 0f3e 5dd2 b23b f980 043e 8777 a73c
00000120: 60cc bf3c 2581 2fbe b8d2 233d 0f32 623e
00000130: 9c74 123d d81b c43d f5c1 88bd 4bdb e73d
00000140: 1fdd 083d cf77 153e f74d ed3c f36e 43bd
00000150: 5f2a 3dbd 167e c3bc d897 4ebd 7bd5 a4bd
00000160: 9124 aabd e230 b9bd d60c 283e 41b8 883a
00000170: a633 8e3d 943f eb3b d65a 9d3b 1b44 0e3d
00000180: 887e 8abd d5ff eebd 6ec3 c3bc 5c0e 98bd
00000190: 492c b5bb cb62 39be 1708 10be 89e4 6bbd
000001a0: 4784 4d3c c53f c73d 07fe 85bc 11dd 96bb
000001b0: cf3d 183a 41d3 053e a649 f2bb 56d4 0bbd
000001c0: f0be ac3c 25e5 cd3d 2841 e3bc 95b9 e93c
000001d0: dd3b b63d 1dc8 63bb f84d 8bbe 214b a13d
000001e0: 43c4 17bd 28ca a7bd d89c 5fbd 7f73 373d
000001f0: 72e1 333a d1ee 713e 9f31 c23d 5635 b73d
00000200: bfba 363b 17b7 1e3d 7616 e6bd 6b49 a7bb
00000210: 0494 2a3e 1d58 25be bd26 ac3e f015 12bd
00000220: ef17 32be 449c 723d f537 8fbd e250 debd
00000230: 2222 223e c437 2e3d 2bc8 343e e356 4ebd
00000240: 2623 cbbd 6a75 a6bd 1628 03be 2037 8ebd
00000250: 1298 5abe 7b87 d33c 12c5 afbd 6c97 383d
00000260: 1e81 c8bd c603 f13c 24ed 6fbd e3e4 113e
00000270: 4eba 3ebd 808e 003e e927 0ebd 59f7 093d
00000280: b81f 5ebe 073a 163c ec85 713e 41d7 73bc
00000290: a18c 55be c068 06be 636c 62bd a3f5 aebd
000002a0: 3a72 2a3d 7e77 0bbd ac4e 533d e49a 9ebc
000002b0: 8e6a 60bd ec66 dfbd dc06 f5bd 879b 693d
000002c0: c759 b9bd 676a 06bd 9b9d 59bd 2e3f debc
000002d0: ecb2 acbd 3694 3c3d 593b 843d 48f1 dabd
000002e0: fbc8 5ebd 8ac9 413d 2122 5a3e 3919 8d3c
000002f0: b37c 40bd 23b0 723e 3438 0abd 4337 62bc
00000300: 78e7 923d 4045 b2bd 873e a03d 811b 493d
00000310: e587 4b3d c322 0b3c 8421 273e 3537 a6bc
00000320: 9fa9 113d 767b 993d 6202 86bd d00e 3ebc
00000330: 2ad8 033d 8d12 adbd 4e06 293d a117 393e
00000340: 1662 503c 0cae fdbc 8c75 1b3e bab9 b83d
00000350: ac2e e53b 68db 58bd d45d 9d3d cda4 7dbd
00000360: faed 7c3d 49a9 ff3d 2e64 123e 33a9 3dbe
00000370: c0dc 253b c893 8dbd 9a73 95bd daea 1e3e
00000380: 2e1d 2fbc 40e7 64be 56d8 2e3e a2f8 d23c
00000390: dc34 993c a68f 07bd f91b e0bb 2a4a a9bc
000003a0: e235 12be 8107 3d3e 6b3e 58be 3f97 183c
000003b0: 58cc 593d fbf1 f63d 6875 0dbe ed73 c23d
000003c0: f848 dbbd 8771 2fbd 4556 02be be08 34bd
000003d0: 9bc4 e6bd 1a28 153e 6970 3bbd d2d1 913d
000003e0: 0541 e9bb 4b69 b63d fccd 28bc 6e84 cebc
000003f0: fbbf 8e3e e947 173e 7920 98bd c81f d8bd

B1.c1_d.bias f4 [25]
1.3687329 1.5623422 3.3461258 0.932268 3.2756643 -1.1046126 0.75986654 3.1099274
1.0995743 3.4501803 1.3175538 0.25600275 1.399503 0.35398936 1.9575098 0.20661578
-1.0106919 1.7611043 2.350782 0.1319194 3.0086985 2.041057 -1.063768 1.508657
0.9876742
00000000: a432 af3f d4fa c73f ed26 5640 1ea9 6e3f
00000010: 7ca4 5140 f263 8dbf 9d86 423f 0d09 4740
00000020: dabe 8c3f c1cf 5c40 9aa5 a83f cb12 833e
00000030: ea22 b33f 183e b53e ae8f fa3f 1693 533e
00000040: 5a5e 81bf de6b e13f 3673 1640 e115 073e
00000050: 848e 4040 aea0 0240 8d29 88bf ac1b c13f
00000060: 37d8 7c3f

B1.c1_r.0.0.fn.weight f4 [50, 1, 3, 3]
-0.0031066793 0.028199768 0.06670964 -0.47746179 -0.22377242 -0.23740381 0.021677077 -0.10891958
-0.05679417 0.05638987 -0.012306474 0.05252646 0.039954912 -0.31763613 -0.024748655 -0.01687703
-0.31044164 0.06073714 -0.053411417 0.14342286 0.09586512 0.19257252 -0.6345255 0.106695764
-0.08711426 -0.004623968 0.13987052 -0.004335286 -0.011609408 -0.008951637 -0.022952879 -0.90496576
0.080342256 -0.01479693 -0.070877835 0.010350843 -0.084229924 -0.12744176 -0.042726897 -0.21770999
-0.44752765 0.019565573 0.0032986857 -0.08827111 0.001053999 0.046154454 0.008886363 -0.036634166
0.17964657 -0.20122483 0.0036979762 0.017416598 0.040462285 -0.06016335 -0.0077512558 0.09292439
0.031217435 -0.00060930284 -0.24987292 0.021035127 -0.044062015 -0.021591786 0.0025759113 0.027192624
-0.20411012 -0.017594196 -0.29319885 -0.11642477 0.04262378 -0.004249634 -0.16905618 0.073845565
0.11888729 0.2045771 0.014814457 -0.058723196 -0.37948748 -0.19932006 0.044198647 0.19509897
-0.009107808 0.061169356 0.08600559 0.10827989 -0.3700881 0.0038172652 -0.22341067 -0.117993325
-0.086254284 -0.051751856 -0.07794737 -0.4338147 0.04118369 0.12405146 -0.12881345 -0.036966108
0.089459635 -0.12988392 0.05422186 -0.044519503 0.00022278317 -0.0012886847 0.09511459 -0.4791189
-0.064705074 -0.0819871 -0.3622162 0.0036135372 0.031696968 0.3109706 0.028278016 -0.19957714
-0.46286768 0.092504784 -0.03853015 0.05764164 -0.012382739 0.05280756 -0.025534375 -0.04260931
-0.21438797 -0.26431832 0.0899992 0.037635148 -0.535858 -0.07809686 0.03789631 -0.1218404
-0.060310014 -0.044475976 -0.453174 -0.22806375 0.09250128 0.32917193 -0.034426246 -0.016857985
0.006765047 0.008694861 -0.02440194 -0.26612285 -0.07054016 -0.06447616 -0.2124027 -0.043764487
0.051973104 0.18193197 0.020299723 0.17055756 -0.50973386 -0.041810874 -0.081469305 0.028307574
-0.009963044 0.030429019 -0.14894842 -0.05921351 -0.21595377 -0.029428177 -0.27639627 0.060400967
-0.20829111 0.11453809 -0.025220549 -0.08024904 -0.06753785 -0.2924362 -0.5520743 -0.156491
0.029619379 -0.21031962 -0.018943379 -0.0027726914 -0.115753576 0.008333553 -0.014553818 -0.61335534
0.011809919 -0.070792876 -0.20697327 -0.019820198 -0.004542924 0.2889534 0.056664277 0.17926185
-0.4324393 -0.34606317 -0.09352519 -0.2814071 -0.05220659 0.043726604 -0.14863192 0.071910605
-0.0896847 -0.2671466 -0.13245785 0.06310214 -0.3702785 -0.017896596 0.12626222 0.06257603
0.013972125 0.016075728 -0.4826792 -0.008532654 0.1324124 0.22263607 0.023878066 0.009642185
-0.07636015 0.0038006105 -0.005901242 -0.5433703 -0.029073935 -0.09792846 -0.027310068 -0.09402807
-0.051270913 -0.08968155 -0.03617036 -0.19378085 -0.656829 0.055995554 0.073282294 -0.024212714
0.023929384 0.106907666 0.027502121 0.04960016 0.17728195 -0.59355336 0.24471042 0.016114058
-0.0711067 0.06572726 -0.05367172 0.067788474 -0.08310314 0.058314446 -0.42921546 -0.049651615
-0.21581063 -0.23296222 -0.0778512 0.056423996 0.042903777 0.015606209 0.15245712 -0.21707742
0.06000764 -0.020778047 0.2245654 0.036406003 0.12887828 0.04129543 0.05008067 -0.23864174
00000000: 6e99 4bbb 3303 e73c 109f 883d df75 f4be
00000010: 9924 65be fc19 73be 2094 b13c 3b11 dfbd
00000020: 01a1 68bd 10f9 663d 18a1 49bc fc25 573d
00000030: c3a7 233d 34a1 a2be b1bd cabc b241 8abc
00000040: 35f2 9ebe 82c7 783d eec5 5abd 71dd 123e
00000050: ef54 c43d bb31 453e 4370 22bf 4f83 da3d
00000060: f668 b2bd a884 97bb 383a 0f3e 040f 8ebb
00000070: 6335 3ebc e3a9 12bc ad07 bcbc d6ab 67bf
00000080: 7b8a a43d d36e 72bc 6628 91bd 9596 293c
00000090: bd80 acbd 1880 02be 6602 2fbd 5eef 5ebe
000000a0: 5822 e5be fb47 a03c c32e 583b 7cc7 b4bd
000000b0: 5626 8a3a 740c 3d3d 1c98 113c b50d 16bd
000000c0: 45f5 373e e20d 4ebe bf59 723b 41ad 8e3c
000000d0: c8bb 253d d86d 76bd 3ffe fdbb 254f be3d
000000e0: b5bb ff3c 9fb9 1fba b0de 7fbe dc51 ac3c
000000f0: 5f7a 34bd 42e1 b0bc 9fd0 283b 11c3 de3c
00000100: 3e02 51be b421 90bc 291e 96be 1c70 eebd
00000110: 4696 2e3d 8440 8bbb 101d 2dbe 583c 973d
00000120: 2e7b f33d a97c 513e 56b8 723c bc87 70bd
00000130: 2f4c c2be 8f1a 4cbe a409 353d 06c8 473e
00000140: ea38 15bc b88c 7a3d b323 b03d d9c1 dd3d
00000150: 307c bdbe 152b 7a3b c4c5 64be 7ca6 f1bd
00000160: 16a6 b0bd c1f9 53bd dfa2 9fbd f61c debe
00000170: 3bb0 283d b10e fe3d ace7 03be c669 17bd
00000180: 9d36 b73d 4a00 05be be17 5e3d 155a 36bd
00000190: e79a 6939 15e9 a8ba 70cb c23d 134f f5be
000001a0: 1884 84bd dae8 a7bd 6774 b9be 18d1 6c3b
000001b0: aed4 013d 8a37 9f3e 4ca7 e73c f35d 4cbe
000001c0: fefc ecbe 2673 bd3d cad1 1dbd a419 6c3d
000001d0: f9e0 4abc bd4c 583d 772d d1bc 1a87 2ebd
000001e0: 8588 5bbe bb54 87be 8051 b83d 5027 1a3d
000001f0: fd2d 09bf 3ff1 9fbd 2939 1b3d 7687 f9bd
00000200: a207 77bd 712c 36bd 6c06 e8be 8b89 69be
00000210: 5071 bd3d 3989 a83e 8902 0dbd c219 8abc
00000220: 54ad dd3b e474 0e3c 94e6 c7bc 4141 88be
00000230: 5c77 90bd 140c 84bd 1880 59be 6442 33bd
00000240: c0e1 543d 604c 3a3e 9b4b a63c a4a6 2e3e
00000250: eb7d 02bf e141 2bbd 61d9 a6bd 49e5 e73c
00000260: 093c 23bc 4746 f93c ef85 18be de89 72bd
00000270: fc22 5dbe 5c13 f1bc d083 8dbe 0167 773d
00000280: 444a 55be f292 ea3d 539b cebc 9c59 a4bd
00000290: 4951 8abd 33ba 95be be54 0dbf 2d3f 20be
000002a0: 57a4 f23c 075e 57be 252f 9bbc 0bb6 35bb
000002b0: 3610 edbd 7489 083c 2373 6ebc db04 1dbf
000002c0: 647e 413c dbfb 90bd cdf0 53be f85d a2bc
000002d0: cfdc 94bb b3f1 933e cd18 683d 6b90 373e
000002e0: af68 ddbe 312f b1be 238a bfbd 9714 90be
000002f0: 94d6 55bd ab1a 333d f732 18be de45 933d
00000300: 9dac b7bd 70c7 88be 08a3 07be b23b 813d
00000310: 2595 bdbe e29b 92bc e24a 013e dd27 803d
00000320: 57eb 643c 3fb1 833c ba21 f7be 8bcc 0bbc
00000330: 1e97 073e b6fa 633e ef9b c33c 41fa 1d3c
00000340: b662 9cbd aa13 793b 355f c1bb 511a 0bbf
00000350: 762c eebc b78e c8bd 5db9 dfbc ca91 c0bd
00000360: 7301 52bd f6aa b7bd 5f27 14bd 7d6e 46be
00000370: f225 28bf 985b 653d 0715 963d be59 c6bc
00000380: 8e07 c43c 68f2 da3d 214c e13c 8a29 4b3d
00000390: 6689 353e 1df3 17bf 5e95 7a3e a101 843c
000003a0: 64a0 91bd 049c 863d e1d6 5bbd afd4 8a3d
000003b0: fb31 aabd 21db 6e3d 21c2 dbbe 7e5f 4bbd
000003c0: 76fd 5cbe a68d 6ebe 7370 9fbd d91c 673d
000003d0: dfbb 2f3d 2fb1 7f3c b81d 1c3e 8b49 5ebe
000003e0: 92ca 753d b936 aabc 79f4 653e 761e 153d
000003f0: abf8 033e 6625 293d 6321 4d3d 805e 74be

B1.c1_r.0.0.fn.bias f4 [50]
0.794522 0.6007087 1.8231895 -6.9216876 1.6656871 -0.12777223 1.7573419 2.4906085
-0.24081925 -0.1092005 0.1570704 -0.3113046 -1.4368075 -0.3962629 1.7154348 1.6561768
0.6208499 1.940522 0.0652377 -2.9597397 -0.32519856 -2.3614588 -0.64566135 3.0442035
-2.5433264 -0.3310615 1.3610227 -1.6255038 -3.4844053 -1.541918 1.0213279 2.4033725
-0.18779047 -0.70398635 1.2900639 -2.2913315 0.78974617 1.6700579 0.046320334 1.0319579
-1.7489414 0.79734623 -0.19262528 -0.9438349 0.593369 0.92528117 -1.2241919 -1.2689533
-0.67378575 -0.5105339
00000000: cb65 4b3f 0cc8 193f 465e e93f 777e ddc0
00000010: 3c35 d53f b9d6 02be 94f0 e03f 2166 1f40
00000020: 5299 76be 83a4 dfbd 10d7 203e 5163 9fbe
00000030: 4fe9 b7bf f9e2 cabe 5e93 db3f 9afd d33f
00000040: 05f0 1e3f 0663 f83f 589b 853d 606c 3dc0
00000050: 6d80 a6be 2422 17c0 104a 25bf 3bd4 4240
00000060: dcc5 22c0 e580 a9be fe35 ae3f 8210 d0bf
00000070: 7f00 5fc0 925d c5bf dfba 823f dbd0 1940
00000080: 254c 40be 7338 34bf d020 a53f 2da5 12c0
00000090: ce2c 4a3f 75c4 d53f 64ba 3d3d 3217 843f
000000a0: 50dd dfbf e21e 4c3f 903f 45be 2a9f 71bf
000000b0: 08e7 173f 3adf 6c3f 52b2 9cbf 106d a2bf
000000c0: 397d 2cbf 5ab2 02bf

B1.c1_r.0.1.weight f4 [50, 50, 1, 1]
0.042642776 0.06376753 0.019132469 -0.14093398 -0.041531187 -0.18502094 0.18646525 0.15871888
-0.08873104 0.09107926 0.12729646 -0.39653844 0.6186877 -0.28798205 0.2315334 -0.31090087
-0.17079157 0.07117915 -0.18346085 0.065062866 0.41033748 -0.062191006 0.06528134 0.29295152
0.06308001 -0.01913988 0.24872324 -0.010500262 0.16782999 -0.011361127 -0.1555791 0.22790909
0.07967509 0.07156876 -0.021955617 -0.035707653 0.05753734 -0.12875113 -0.19431518 0.20719442
0.245764 -0.111770555 0.080294855 -0.08481287 0.24283548 0.065497644 0.1964288 -0.13017094
-0.030414727 0.18875577 0.18033983 0.32244942 0.080516726 -0.3525382 0.02555724 0.26835302
-0.088202305 0.24535866 0.02013838 0.5040603 0.24988136 0.2746585 0.01655287 0.012594285
0.11031201 -0.59831315 -0.15791239 -0.2831023 0.04922284 -0.45621854 0.27955833 0.01567008
0.44025293 -0.1768713 -0.48301336 -0.13287948 -0.1941278 0.124702826 -0.54516834 -0.21505593
-0.32343575 -0.0001608051 -0.13293928 0.097699925 -0.30332866 0.12170939 -0.011775295 0.0720558
-0.48553318 0.19145761 0.0034301355 0.41289112 -0.10070237 0.08060606 0.23260026 -0.22496082
-0.01817331 0.43489742 -0.03121221 -0.31083417 0.13647193 -0.3717897 -0.029665822 -0.52771986
0.013756722 0.038456734 -0.015722368 -0.12522714 -0.099861376 -0.3413886 0.07745424 0.2897921
-0.18238892 -0.28802538 -0.3539526 -0.3504719 -0.07067428 -1.1641794 0.12582393 0.0970175
-0.12917821 0.0924987 -0.15046188 0.47869307 0.09693963 -0.15855968 -0.09698719 -0.28992483
-0.34627518 0.28577366 -0.01800664 -0.04359682 -0.026404236 0.1573526 0.1176242 -0.7598809
-0.27221084 0.21079072 0.09944104 -0.061076906 -0.21368885 -0.86068016 0.037331417 0.58010674
-0.031506214 0.045827184 0.3216445 -0.19507214 -0.25318035 -0.04307091 -0.03375252 0.1620189
-0.19495614 0.1119943 0.0810261 0.010454108 0.046237785 0.22317529 0.07346981 -0.18166643
0.05836518 -0.060804073 0.04616584 -0.16998698 -0.22226189 -0.17303582 -0.025184568 -0.1393324
0.102406584 -0.19540888 0.2429352 0.021322954 -0.029495036 -0.16515042 0.055840697 -0.06626243
0.054279655 -0.12420764 -0.08821659 0.07614715 -0.107788354 0.06456775 0.123756684 0.08668213
-0.43247607 -0.150179 0.14691146 0.2757275 0.13382821 0.057469733 -0.0328817 -0.10476639
0.058977142 0.06435474 0.074033774 0.14784613 0.2917452 -0.5455684 0.26241708 -0.1068394
0.23176931 0.10777345 -0.078005604 0.916913 0.24797873 0.506809 0.4575882 -0.09388944
0.23329334 0.37557438 -0.10505412 0.09463537 0.22849607 0.30476344 0.07892388 0.18994899
-0.05009527 0.3684734 0.18587542 0.11908018 0.115307905 -0.21937238 0.05542259 -0.693772
0.35813084 0.16892564 0.1258283 -0.026200196 0.47896895 0.08469759 -0.06975069 -0.008742896
-0.32643822 -0.13632399 -0.12404025 0.18694885 0.36937737 -0.31343073 -0.0088490145 -0.05257663
0.0006283182 0.42928225 0.026153283 0.077710345 -0.28601032 -0.09673172 -0.15748616 -0.14683835
0.2857842 0.17189178 0.0124582965 -0.15227449 0.013831158 -0.12990767 -0.14366265 0.22238807
00000000: 31aa 2e3d 8d98 823d b2bb 9c3c ff50 10be
00000010: 9b1c 2abd 2176 3dbe bff0 3e3e 3487 223e
00000020: 9fb8 b5bd c387 ba3d 015a 023e 1607 cbbe
00000030: 5162 1e3f 6272 93be 1717 6d3e 662e 9fbe
00000040: fce3 2ebe 60c6 913d 29dd 3bbe ae3f 853d
00000050: c117 d23e ffbb 7ebd 39b2 853d befd 953e
00000060: 1830 813d 3dcb 9cbc 4eb1 7e3e 4a09 2cbc
00000070: a0db 2b3e 0524 3abc 2150 1fbe 0061 693e
00000080: b22c a33d a492 923d 44dc b3bc 3042 12bd
00000090: 46ac 6b3d 56d7 03be 8ffa 46be c62a 543e
000000a0: 8fa9 7b3e f6e7 e4bd a171 a43d 5fb2 adbd
000000b0: dda9 783e a123 863d a224 493e 884b 05be
000000c0: 4e28 f9bc 3149 413e 01ab 383e 1718 a53e
000000d0: f4e5 a43d e37f b4be 6b5d d13c 9165 893e
000000e0: 69a3 b4bd 4d3f 7b3e 3ef9 a43c 190a 013f
000000f0: e6e0 7f3e 0aa0 8c3e e299 873c 4358 4e3c
00000100: 43eb e13d 0d2b 19bf c9b3 21be c9f2 90be
00000110: e49d 493d 7a95 e9be 4522 8f3e 8a5e 803c
00000120: d568 e13e c01d 35be 874d f7be 8f11 08be
00000130: 70c9 46be 3264 ff3d 2790 0bbf 9f37 5cbe
00000140: 5f99 a5be ca9d 28b9 3c21 08be e616 c83d
00000150: e54d 9bbe c642 f93d 2bed 40bc fe91 933d
00000160: ce97 f8be 770d 443e 20cc 603b 7766 d33e
00000170: 0b3d cebd ca14 a53d c32e 6e3e 215c 66be
00000180: 32e0 94bc e0aa de3e c0b0 ffbc a825 9fbe
00000190: 4cbf 0b3e 385b bebe bd05 f3bc a618 07bf
000001a0: e063 613c cf84 1d3d 32cc 80bc 8b3b 00be
000001b0: 1f84 ccbd 7dca aebe 54a0 9e3d a15f 943e
000001c0: 29c4 3abe 1078 93be 4639 b5be 0e71 b3be
000001d0: adbd 90bd d503 95bf fdd7 003e 1cb1 c63d
000001e0: 4b47 04be f56f bd3d ae12 1abe 4217 f53e
000001f0: 4988 c63d 785d 22be 38a1 c6bd 0771 94be
00000200: fb4a b1be ed50 923e a982 93bc 9492 32bd
00000210: b24d d8bc 0a21 213e f5e4 f03d 8e87 42bf
00000220: 385f 8bbe 86d9 573e bea7 cb3d c72b 7abd
00000230: 40d1 5abe 8955 5cbf d4e8 183d e081 143f
00000240: a90c 01bd 49b5 3b3d 97ae a43e fec0 47be
00000250: dba0 81be 1f6b 30bd 1540 0abd 48e8 253e
00000260: 95a2 47be 445d e53d 03f1 a53d b547 2b3c
00000270: d563 3d3d 1088 643e 5777 963d c406 3abe
00000280: 5410 6f3d b10d 79bd 6418 3d3d 1111 2ebe
00000290: 9f98 63be 4d30 31be de4f cebc 27ad 0ebe
000002a0: 8bba d13d 4419 48be 01c4 783e 7aad ae3c
000002b0: 939f f1bc 311d 29be 37b9 643d 99b4 87bd
000002c0: 5854 5e3d 9360 febd e6aa b4bd 09f3 9b3d
000002d0: 24c0 dcbd 193c 843d 2574 fd3d 6786 b13d
000002e0: 816d ddbe 86c8 19be f56f 163e 282c 8d3e
000002f0: 430a 093e 6265 6b3d f6ae 06bd c38f d6bd
00000300: 0492 713d 6bcc 833d 059f 973d fa64 173e
00000310: a05f 953e 5faa 0bbf 885b 863e 9ece dabd
00000320: ef54 6d3e 54b8 dc3d 67c1 9fbd cfba 6a3f
00000330: 23ee 7d3e 3cbe 013f 0049 ea3e 1b49 c0bd
00000340: 73e4 6e3e 494b c03e 9d26 d7bd 30d0 c13d
00000350: e0fa 693e f409 9c3e d8a2 a13d fd81 423e
00000360: b330 4dbd 8ca8 bc3e 2056 3e3e 4fe0 f33d
00000370: 8d26 ec3d 27a3 60be cc02 633d 0b9b 31bf
00000380: ed5c b73e d8fa 2c3e 22d9 003e cba1 d6bc
00000390: 6b3b f53e ee75 ad3d 73d9 8ebd 5d3e 0fbc
000003a0: e922 a7be 8498 0bbe d108 febd 856f 3f3e
000003b0: 081f bd3e fe79 a0be 75fb 10bc 985a 57bd
000003c0: b8b5 243a e2ca db3e 693f d63c 9a26 9f3d
000003d0: f26f 92be 481b c6bd 0d44 21be cb5c 16be
000003e0: 4f52 923e 6604 303e e21d 4c3c d8ed 1bbe
000003f0: 159c 623c 8406 05be 4d1c 13be b3b9 633e

B1.c1_r.0.1.bias f4 [50]
0.11778119 0.76951885 3.0318499 1.2201072 -2.0638077 1.9280001 0.9363369 0.87590235
1.4706805 0.5361709 4.0520926 0.2530345 5.5767174 -0.1653601 1.3151169 4.5829415
0.5293047 2.1232595 3.5334466 6.866884 1.6207918 -0.8791897 -5.3028884 0.6206754
-0.977824 0.010579946 2.2154357 5.8432164 4.985612 1.0069326 4.191318 -0.47328928
0.95842016 0.36349547 7.200981 0.3953456 5.761874 3.0259836 4.004862 0.3373009
1.3572577 -0.85210544 0.9596099 2.3787243 0.9581876 1.2558905 0.6382224 -0.262262
8.084963 0.64408654
00000000: 4437 f13d 30ff 443f d409 4240 792c 9c3f
00000010: 6d15 04c0 b5c8 f63f c6b3 6f3f 233b 603f
00000020: 423f bc3f 7f42 093f beaa 8140 bd8d 813e
00000030: 7874 b240 2854 29be c055 a83f 75a7 9240
00000040: 8380 073f 7ce3 0740 fd23 6240 84bd db40
00000050: 1b76 cf3f 9412 61bf 43b1 a9c0 95e4 1e3f
00000060: ac52 7abf 8357 2d3c b3c9 0d40 a1fb ba40
00000070: 228a 9f40 2be3 803f 471f 8640 f952 f2be
00000080: 065b 753f 141c ba3e 706e e640 bd6a ca3e
00000090: 4661 b840 b7a9 4140 d427 8040 b4b2 ac3e
000000a0: 9fba ad3f 9523 5abf ffa8 753f 053d 1840
000000b0: c84b 753f 05c1 a03f 8b62 233f 3447 86be
000000c0: 025c 0141 dbe2 243f

B1.c1_r.2.0.fn.weight f4 [50, 1, 3, 3]
-0.023660991 -0.06714082 -0.061002553 -0.16498941 -0.078967966 0.07028297 -0.16477408 0.22960742
0.011639807 0.018372845 0.032398447 0.016 0.03956332 -0.55956924 0.06131711 -0.018785851
-0.055798363 -0.021998165 0.07280862 0.12230818 0.10828592 0.14824878 -0.84240174 0.17352913
0.11614639 0.17086281 0.15280645 0.006475316 -0.007961126 0.019356776 -0.27290836 -0.48489714
-0.13790779 0.005917369 0.0013392058 0.01578342 -0.0036309168 0.03490941 -0.0066424794 0.036796086
-0.47644225 7.07744e-05 -0.00058860035 0.05126529 0.005128127 -0.0326567 -0.0005639848 -0.0066472366
-0.07020639 0.38444012 0.031596072 0.026495447 -0.046556342 0.0075599127 0.018103981 -0.051795535
-0.056333914 -0.056692127 0.12972511 -0.33504775 0.029826166 0.04432452 -0.0038567435 0.11548043
0.25091404 0.007080346 0.026084883 -0.4212865 -0.10719858 0.04829653 -0.21772674 -0.037258923
0.021996085 0.083276585 -0.071165696 0.08646023 -0.36601827 0.0649222 -0.030892162 0.08883125
0.022713782 0.019833116 0.082048915 0.02081031 0.08197992 -0.26647517 0.10124049 0.006879829
0.077059776 0.0051977094 0.014849378 0.062247902 -0.006210066 0.06494089 -0.088840544 0.016325876
-0.01442319 -0.012202932 -0.014461001 -0.0126378285 0.02084406 -0.011487335 0.040619075 -0.5140817
0.021722494 0.09782961 0.007611477 0.061625395 -0.09425846 -0.4562117 -0.021297885 -0.054220997
0.033506855 -0.40586144 0.11965687 -0.026647948 -0.11971893 0.011304387 0.04443342 0.020538732
0.10001088 -0.63532174 0.08889538 0.09912615 0.24314871 0.0018363649 -0.0036723916 0.005836991
-0.0051292917 -0.0012001768 -0.2843999 -0.07297094 -0.0062345685 -0.0067800875 -0.046082083 0.22351074
-0.07608181 -0.15379636 -0.23542252 -0.0008162664 -0.41590634 0.101056635 -0.24204192 -0.27185962
-0.09162613 -0.57688177 -0.16887769 -0.2267494 -0.13386789 -0.15381113 0.14176726 0.34921128
0.10695303 -0.010633175 0.10210264 -0.009499566 0.06860939 -0.06806461 0.0047170096 -0.028878823
-0.11139231 -0.01448679 -0.2847724 -0.076125994 0.20917146 -0.22519559 -0.11635605 0.100849114
-0.019375714 -0.47600266 -0.14538229 -0.039717775 -0.07887189 0.026970306 -0.047640014 0.1557666
-0.38374773 -0.0037442108 -0.34227666 -0.023055557 0.0030091687 0.06784284 0.007890114 0.06162196
-0.62134624 0.058232766 0.028672615 0.084990375 -0.007001307 -0.005002065 -0.004678314 -0.011380398
0.030736493 -0.5772616 0.07962804 0.061252423 0.24065623 0.07822064 0.090015866 0.30272162
0.05000683 0.20079838 0.582632 -0.042007633 0.017471801 -0.039946284 0.008232041 0.032163903
-0.0029495417 0.035521075 0.05721196 -0.6542518 0.08830699 0.039250948 0.10024022 0.026249105
-0.06098654 -0.17523862 0.003791824 0.045765918 0.025869325 -0.1968746 -0.08273631 0.018832963
-0.028543336 -0.27151996 -0.28370023 -0.09449597 -0.33001193 -0.13033034 0.29257673 -0.026778355
-0.23363414 0.09557514 -0.00864015 0.006507943 0.032495875 0.05794885 -0.20415998 0.051217776
-0.016288094 0.0954851 -0.0026349695 0.026103828 -0.3991364 0.0066171405 0.12400903 -0.07444806
-0.35556528 0.04256006 -0.31719872 -0.08370169 -0.028149758 -0.002678382 -0.067600906 0.15341818
00000000: b2d4 c1bc 2081 89bd d0dd 79bd fcf2 28be
00000010: f5b9 a1bd 85f0 8f3d 89ba 28be 351e 6b3e
00000020: e4b4 3e3c a682 963c 3cb4 043d 6f12 833c
00000030: 260d 223d ee3f 0fbf a627 7b3d c9e4 99bc
00000040: d38c 64bd 7f35 b4bc b01c 953d b67c fa3d
00000050: 02c5 dd3d 87ce 173e a4a7 57bf 9fb1 313e
00000060: 29de ed3d a9f6 2e3e 4b79 1c3e e32e d43b
00000070: 626f 02bc 1a92 9e3c a5ba 8bbe 7044 f8be
00000080: b337 0dbe 7de6 c13b 4a88 af3a 3b4c 813c
00000090: adf4 6dbb 2bfd 0e3d 28a9 d9bb 7eb7 163d
000000a0: 3df0 f3be b76c 9438 4d4c 1aba 8dfb 513d
000000b0: d909 a83b 08c3 05bd 61d8 13ba 10d1 d9bb
000000c0: 5ec8 8fbd 56d5 c43e e26a 013d fb0c d93c
000000d0: ddb1 3ebd 25b9 f73b cd4e 943c 8e27 54bd
000000e0: 64be 66bd 0136 68bd a9d6 043e 618b abbe
000000f0: 0156 f43c a18d 353d 6bc1 7cbb 0181 ec3d
00000100: ce77 803e 3f02 e83b f7af d53c ddb2 d7be
00000110: ee8a dbbd 95d2 453d c2f3 5ebe d09c 18bd
00000120: 2231 b43c ea8c aa3d 52bf 91bd 1012 b13d
00000130: bf66 bbbe eef5 843d 8f11 fdbc 29ed b53d
00000140: 4112 ba3c 0f79 a23c 4309 a83d 627a aa3c
00000150: 17e5 a73d 6f6f 88be 2d57 cf3d 3070 e13b
00000160: 84d1 9d3d 8c51 aa3b ce4a 733c a8f7 7e3d
00000170: cf7d cbbb bbff 843d 08f2 b5bd d8bd 853c
00000180: 3e4f 6cbc ceee 47bc d6ed 6cbc e50e 4fbc
00000190: 2ac1 aa3c 6035 3cbc 3060 263d dc9a 03bf
000001a0: 5ff3 b13c e45a c83d b269 f93b e96a 7c3d
000001b0: 940a c1bd 9494 e9be e778 aebc d616 5ebd
000001c0: 7c3e 093d 12cd cfbe a90e f53d cc4c dabc
000001d0: 332f f5bd 0936 393c d1ff 353d d840 a83c
000001e0: 81d2 cc3d 72a4 22bf c80e b63d a702 cb3d
000001f0: fafb 783e 2eb2 f03a 82ac 70bb 3b44 bf3b
00000200: 9e13 a8bb 404f 9dba dd9c 91be ca71 95bd
00000210: 5a4b ccbb 7f2b debb 91c0 3cbd 00e0 643e
00000220: c8d0 9bbd cb7c 1dbe 9a12 71be b6fa 55ba
00000230: adf1 d4be c8f6 ce3d d6d9 77be 2f31 8bbe
00000240: 7ba6 bbbd 86ae 13bf 46ee 2cbe ff30 68be
00000250: aa14 09be aa80 1dbe 702b 113e d2cb b23e
00000260: 310a db3d c536 2ebc 301b d13d 11a4 1bbc
00000270: 1483 8c3d 7565 8bbd 2591 9a3b 4893 ecbc
00000280: a721 e4bd 005a 6dbc b0cd 91be f2e7 9bbd
00000290: 0b31 563e ac99 66be 154c eebd fb89 ce3d
000002a0: d1b9 9ebc 9fb6 f3be 18df 14be 1baf 22bd
000002b0: 9687 a1bd d5f0 dc3c 2d22 43bd 4881 1f3e
000002c0: 957a c4be 6f61 75bb e33e afbe 02df bcbc
000002d0: 7935 453b 30f1 8a3d 8945 013c 4f67 7c3d
000002e0: 8c10 1fbf 7b85 6e3d d5e2 ea3c 6f0f ae3d
000002f0: 386b e5bb 5de8 a3bb 8b4c 99bb d974 3abc
00000300: 19cb fb3c 6bc7 13bf 0714 a33d d2e3 7a3d
00000310: 966e 763e 2532 a03d 3d5a b83d 54fe 9a3e
00000320: f6d3 4c3d 179e 4d3e 5f27 153f 3210 2cbd
00000330: 0621 8f3c b79e 23bd afdf 063c 4cbe 033d
00000340: 194d 41bb 8c7e 113d 1757 6a3d 0c7d 27bf
00000350: 4cda b43d 9ac5 203d bf4a cd3d 5d08 d73c
00000360: 06cd 79bd c171 33be 4080 783b 0b75 3b3d
00000370: e8eb d33c 7f99 49be a871 a9bd 9647 9a3c
00000380: b7d3 e9bc aa04 8bbe 2841 91be 1a87 c1bd
00000390: 53f7 a8be 5175 05be 9ecc 953e 485e dbbc
000003a0: ca3d 6fbe e6bc c33d 6a8f 0dbc 9540 d53b
000003b0: 651a 053d c65b 6d3d 500f 51be bbc9 513d
000003c0: 9c6e 85bc b18d c33d 74af 2cbb b2d7 d53c
000003d0: 9b5b ccbe 99d4 d83b 72f8 fd3d 3978 98bd
000003e0: a70c b6be 7553 2e3d df67 a2be cb6b abbd
000003f0: 529a e6bc cb87 2fbb 5872 8abd a819 1d3e

B1.c1_r.2.0.fn.bias f4 [50]
-1.2636787 -1.1337546 1.5196421 -0.078320265 -0.38029984 0.8029541 -1.0115098 -0.45002785
-1.7854811 -0.11249965 -0.37191755 -1.1200554 0.934756 -0.59052706 -0.35053128 1.0209897
-0.8525099 0.9254804 0.37358162 0.21777341 0.5633031 -0.7900909 -0.38358676 0.11276301
-2.088702 0.3902973 0.22847171 -0.708666 0.41293684 -1.0310831 0.21543606 -0.0015365231
0.10150116 0.22376652 0.008949133 -1.6123234 1.7563117 1.5220908 0.67912424 -0.30334398
-0.3694579 -0.49552476 0.27556574 -0.7519672 0.5025442 -0.2901841 -1.7744819 -0.7537535
0.42692947 0.25787327
00000000: 39c0 a1bf df1e 91bf a283 c23f 6066 a0bd
00000010: a9b6 c2be 668e 4d3f 2779 81bf 0d6a e6be
00000020: a58a e4bf 3766 e6bd fa6b bebe fa5d 8fbf
00000030: 2b4c 6f3f c82c 17bf d678 b3be caaf 823f
00000040: 173e 5abf 49ec 6c3f 1746 bf3e feff 5e3e
00000050: a234 103f 6643 4abf 7c65 c4be 4bf0 e63d
00000060: 4bad 05c0 0cd5 c73e 7df4 693e 236b 35bf
00000070: 756c d33e 88fa 83bf 459b 5c3e 2965 c9ba
00000080: d7df cf3d 0d23 653e 629f 123c 9d60 cebf
00000090: d2ce e03f dfd3 c23f 16db 2d3f e74f 9bbe
000000a0: 9629 bdbe 6cb5 fdbe f416 8d3e ec80 40bf
000000b0: bda6 003f 0393 94be 3922 e3bf fdf5 40bf
000000c0: 8096 da3e f707 843e

B1.c1_r.2.1.weight f4 [50, 50, 1, 1]
-0.25824758 0.17401586 0.27280757 -0.19747537 -0.0041252947 0.24305367 0.24113263 0.17400078
-0.060632024 0.20511271 -0.0040147738 0.25180608 0.27516893 -0.051729675 -0.061340928 0.10421764
-0.20626488 -0.06308084 -0.16602887 0.12414875 0.08177065 0.21908872 -0.20018992 -0.085536614
0.18734932 0.27184874 -0.038976327 0.08884883 0.22036576 -0.13319261 -0.2584863 0.40417925
0.05909509 0.3169491 0.075811274 0.027863592 0.23204017 0.083247595 0.10529171 0.25838715
0.017753454 0.15537207 -0.04560458 0.09792065 0.46286386 -0.15270467 0.020445902 -0.07608253
0.0015349358 0.1556294 0.023845136 -0.019690953 0.17754868 -0.074487075 -0.08306163 0.06326142
0.17387068 -0.13061662 0.12609854 0.10043956 -0.03752045 -0.05289104 0.035811115 -0.0055854297
-0.018225571 0.010606948 0.0866987 0.13061288 0.110782266 0.42353022 0.055624094 -0.29820618
0.2030935 0.2468321 -0.327321 -0.09130806 -0.19959864 -0.45876577 -0.15755457 0.14063711
0.0072687366 -0.11175521 -0.15524924 0.14754918 0.13693649 -0.0638293 -0.03004112 0.12275029
-0.31764394 0.12015948 0.07343684 -0.0728007 -0.30010545 0.050161522 0.15043166 -0.042444568
-0.08397677 9.544974e-05 0.14644273 0.02197519 -0.016709268 -0.07054589 0.030441413 -0.14008068
0.28020197 -0.7315871 0.14635958 -0.10492686 -0.016183775 0.019119222 1.016037 -0.039027
0.18822889 0.15539354 0.040558357 -0.16680257 -0.05946497 -0.5167559 0.21255067 0.021084692
-0.5132426 -0.08819865 -0.27311584 0.05591571 0.6051284 -0.069870345 -0.005424852 0.10801711
-0.07159963 0.59172463 -0.01518752 -0.013436774 -0.46969146 -0.078610264 -0.0030759992 -0.028846348
0.14460723 -0.11006256 0.011305719 0.04740476 -0.16260341 -0.08686778 -0.1258764 0.0361688
0.22795622 0.036808737 -0.054451305 0.21309005 -0.020169685 -0.06356214 -0.072347276 0.07026528
0.28994027 -0.13137098 0.08719864 0.104680344 0.28356415 -0.15924709 -0.15861775 -0.24471734
0.03465416 -0.12216662 -0.047296077 0.0565083 -0.39493564 0.23528898 -0.1476571 0.120530896
-0.01028426 -0.20116413 0.014666614 0.16083674 0.36531597 0.037718765 0.146103 -0.24102603
0.15432027 0.10031764 -0.16448763 -0.19026966 -0.1749761 -0.18072298 0.06733422 -0.32310554
-0.26950642 -0.6337471 -0.11175981 0.154714 -0.0332558 -0.023545355 0.045053437 0.5767692
0.07929368 -0.008719444 0.7037223 0.1352571 0.32310402 -0.32372364 -0.028700408 -1.4311342
0.4713603 -0.076450504 -0.120302 -0.16336128 0.29847774 0.41620103 0.09741711 0.13860871
0.19731125 0.08456976 -0.15374795 0.42022163 0.10341929 -0.3123824 0.09437799 -0.1691925
-0.27835003 0.51989704 0.49040654 0.106052704 0.016797313 0.3105169 0.6103369 0.14027826
-0.6044795 -0.17806798 -0.082353614 0.12297092 0.77352 -0.24370496 -0.079139315 -0.02091686
0.10885271 0.24734308 -0.04630942 0.031583328 0.39024797 -0.21476977 0.205637 0.23322001
0.06467655 0.31620422 -0.1555613 -0.04312463 0.10340287 -0.12947546 0.017122572 -0.19613041
-0.14114198 0.5198887 -0.1259377 -0.06517471 0.14810719 0.07923126 -0.24590154 0.21646607
00000000: 0739 84be 3731 323e 6fad 8b3e fc36 4abe
00000010: 7b2d 87bb 10e3 783e 79eb 763e 432d 323e
00000020: 4959 78bd 1109 523e 5d8e 83bb baec 803e
00000030: f1e2 8c3e 7fe2 53bd a040 7bbd 0f70 d53d
00000040: 1a37 53be 8730 81bd 7903 2abe b341 fe3d
00000050: 5f77 a73d cb58 603e 96fe 4cbe d22d afbd
00000060: 80d8 3f3e c22f 8b3e a4a5 1fbd 60f6 b53d
00000070: 90a7 613e a563 08be 5158 84be 95f0 ce3e
00000080: b10d 723d 2747 a23e f142 9b3d 3042 e43c
00000090: f09b 6d3e b77d aa3d 2ea3 d73d 524b 843e
000000a0: b16f 913c db19 1f3e decb 3abd 9f8a c83d
000000b0: 7efc ec3e 9d5e 1cbe 2a7e a73c 28d1 9bbd
000000c0: e62f c93a 505d 1f3e e056 c33c ec4e a1bc
000000d0: 52cf 353e ae8c 98bd 371c aabd 348f 813d
000000e0: 280b 323e 5dc0 05be fa1f 013e 42b3 cd3d
000000f0: 0baf 19bd 46a4 58bd adae 123d fb05 b7bb
00000100: cb4d 95bc c4c8 2d3c 178f b13d 62bf 053e
00000110: d0e1 e23d f4d8 d83e 17d6 633d 7bae 98be
00000120: bef7 4f3e 8ec1 7c3e 9e96 a7be b8ff babd
00000130: 9663 4cbe 59e3 eabe fc55 21be 2d03 103e
00000140: 952e ee3b eadf e4bd a8f9 1ebe 2217 173e
00000150: 1439 0c3e f0b8 82bd cb18 f6bc 8164 fb3d
00000160: 3aa2 a2be 2c16 f63d 0e66 963d 8918 95bd
00000170: 6ca7 99be 2b76 4d3d c20a 1a3e 5bda 2dbd
00000180: 03fc abbd 302c c838 15f5 153e 5005 b43c
00000190: e0e1 88bc 5d7a 90bd 4560 f93c 4f71 0fbe
000001a0: a276 8f3e 4b49 3bbf 49df 153e e5e3 d6bd
000001b0: d693 84bc ea9f 9c3c 800d 823f c7da 1fbd
000001c0: 13bf 403e 7c1f 1f3e 8520 263d 4bce 2abe
000001d0: 8a91 73bd 1d4a 04bf e2a6 593e ceb9 ac3c
000001e0: de63 03bf 7ea1 b4bd d7d5 8bbe df07 653d
000001f0: b2e9 1a3f 2f18 8fbd f5c2 b1bb 1338 dd3d
00000200: d4a2 92bd 447b 173f 13d5 78bc ea25 5cbc
00000210: 667b f0be 6bfe a0bd b496 49bb 2d4f ecbc
00000220: eb13 143e 7b68 e1bd 9f3b 393c 7e2b 423d
00000230: 8281 26be bce7 b1bd bee5 00be bc25 143d
00000240: 5b6d 693e c2c4 163d 5508 5fbd 4734 5a3e
00000250: e53a a5bc de2c 82bd cf2a 94bd 3ee7 8f3d
00000260: 0d73 943e 1d86 06be 3395 b23d a662 d63d
00000270: 522f 913e ab11 23be b16c 22be 2f97 7abe
00000280: 85f1 0d3d 7e32 fabd 88b9 41bd 3f75 673d
00000290: 0135 cabe 98ef 703e 6c33 17be e7d8 f63d
000002a0: 507f 28bc f8fd 4dbe 3d4c 703c 63b2 243e
000002b0: b20a bb3e fe7e 1a3d 069c 153e 87cf 76be
000002c0: 2206 1e3e 5673 cd3d 726f 28be 0dd6 42be
000002d0: ef2c 33be 720f 39be 86e6 893d 176e a5be
000002e0: bffc 89be 403d 22bf 54e2 e4bd 596d 1e3e
000002f0: 3c37 08bd 30e2 c0bc f489 383d 25a7 133f
00000300: ba64 a23d 00dc 0ebc 2527 343f d680 0a3e
00000310: e46d a53e 1bbf a5be 1e1d ebbc 682f b7bf
00000320: 2356 f13e 1592 9cbd e560 f6bd 2e48 27be
00000330: 13d2 983e 4d18 d53e 9f82 c73d 71ef 0d3e
00000340: f60b 4a3e e932 ad3d 1a70 1dbe 4a27 d73e
00000350: 7ecd d33d 96f0 9fbe 3f49 c13d cc40 2dbe
00000360: e583 8ebe f917 053f 9116 fb3e 2932 d93d
00000370: 859a 893c 12fc 9e3e 0a3f 1c3f 1ba5 0f3e
00000380: 2bbf 1abf 7457 36be 03a9 a8bd 2dd8 fb3d
00000390: 6805 463f cb8d 79be cb13 a2bd d659 abbc
000003a0: 2bee de3d 8147 7d3e f2ae 3dbd 855d 013d
000003b0: 95ce c73e 9bec 5bbe 8192 523e 3ad1 6e3e
000003c0: 2475 843d 85e5 a13e 764b 1fbe 74a3 30bd
000003d0: e2c4 d33d 3795 04be a344 8c3c 69d6 48be
000003e0: 8687 10be 6d17 053f d0f5 00be 517a 85bd
000003f0: 69a9 173e 0044 a23d 9dcd 7bbe 48a9 5d3e

B1.c1_r.2.1.bias f4 [50]
0.7758968 1.222861 -2.6473489 0.3417794 -0.75522417 0.8349402 0.034593847 1.5245702
1.0877056 0.9593322 0.47952372 1.4688095 1.8635478 0.99206036 0.9330741 0.4680021
-0.099605024 -0.098415494 0.93669164 1.7483599 -0.030929424 0.7808102 0.99980414 0.61170274
1.7861081 0.80374736 1.0209316 0.20956251 1.7657417 -0.34982267 1.1518538 -0.06337984
-0.33261302 1.0009675 0.7672603 0.20574673 1.0647528 1.3690904 -0.4674234 0.27801862
0.38767782 -0.5464898 0.6004466 1.1134652 -1.2365023 1.2446797 0.16031657 0.63156897
0.49605078 -1.3932394
00000000: 2ca1 463f b686 9c3f 2a6e 29c0 b6fd ae3e
00000010: 5f56 41bf a4be 553f 47b2 0d3d 1e25 c33f
00000020: f039 8b3f cc96 753f 2284 f53e f301 bc3f
00000030: bc88 ee3f abf7 7d3f f2dd 6e3f f99d ef3e
00000040: b8fd cbbd 108e c9bd 06cb 6f3f 42ca df3f
00000050: b45f fdbc 2de3 473f 2af3 7f3f 8d98 1c3f
00000060: 319f e43f 63c2 4d3f e3ad 823f 8e97 563e
00000070: d303 e23f f51b b3be f26f 933f 4acd 81bd
00000080: 414c aabe b41f 803f 2c6b 443f 45af 523e
00000090: d249 883f 5b3e af3f 1f52 efbe 7558 8e3e
000000a0: b57d c63e c1e6 0bbf deb6 193f 0786 8e3f
000000b0: b545 9ebf aa51 9f3f 072a 243e 81ae 213f
000000c0: 5efa fd3e ab55 b2bf

B1.c2_d.weight f4 [25, 50, 1, 1]
-0.05172217 0.030393708 0.40222356 -0.06922826 0.0053950115 -0.025323438 -0.02156929 0.019872531
0.03651933 -0.06056818 0.007475052 0.095838964 -0.10013392 0.012952411 -0.020566324 -0.030621156
-0.043836158 0.0434206 0.00936829 0.08171704 -0.038917765 -0.010689063 -0.051553924 -0.06576611
-0.4758438 -0.040538106 -0.04905335 -0.021784354 0.29752645 0.015373602 0.005176267 -0.22058186
-0.18377396 -0.013101279 -0.061927322 0.0019419963 0.017534897 -0.1052423 -0.035159986 -0.007112441
-0.05021467 0.07459848 -0.025527896 -0.008909442 0.2483148 -0.03366464 -0.050497692 -0.09672097
-0.020167869 0.35942355 0.06759171 -0.010587034 -0.40745145 -0.008139346 -0.5230106 0.018862236
0.073404625 0.01174768 -0.10292497 -0.16284469 0.057194818 0.30963424 -0.023171604 0.004549547
0.04643379 -0.21201776 -0.07121942 -0.24924466 -0.26461124 1.2897623 -0.14859961 -0.029238468
-0.26332068 -0.04586277 -0.17438567 -0.09903799 -0.0570019 -0.016322507 0.60130143 0.3292558
-0.048269533 2.6314309 0.038451362 0.093248285 0.15724114 -0.08340466 -0.027517145 -0.0075138444
-0.023422902 -0.007082485 -0.28505558 0.076363154 -0.008138926 0.03990229 -0.48584205 0.08233608
-0.10988295 -0.12085623 -0.02324036 0.31710756 -0.19623181 -0.032890745 -0.009529747 -0.28540343
-0.069477096 0.27168173 -0.11398184 -0.042617135 0.01596796 -0.13320526 -0.15556386 0.048824392
0.12655902 0.124368705 0.055960935 -0.01653311 0.122308224 -0.051511068 0.06169527 -0.36147803
0.27388048 0.05212866 -0.0304032 0.052795872 0.020838507 0.017106423 -0.14155625 0.00306794
0.22061047 0.08559087 -0.01703 -0.24225083 -0.027121035 0.11880047 0.23913726 -0.09895395
0.04527118 0.026330026 0.042726412 -0.05995533 -0.14733626 -0.08131341 -0.006492477 -0.02295056
0.04876031 0.20419121 0.054882918 -0.05530599 -0.026774457 -0.3752347 -0.20452367 0.015717532
0.04338316 0.17987359 -0.09985877 0.02453943 0.06763697 -0.017671715 -0.27419177 -0.0045925444
-0.23918718 -0.01110553 -0.17156866 -0.024502892 0.033903986 0.099458955 0.2425744 -0.09946772
0.055854995 -0.072598085 -0.011893667 -0.17947528 0.0019611432 -0.090590365 -0.018391304 -0.08112368
0.0960743 -0.096534014 -0.07883646 0.09008555 0.042999994 0.3152481 -0.074071236 0.13068737
0.25176957 -0.19101188 0.043341637 -0.11120619 0.11152048 -0.06678559 0.22765444 0.004375676
0.1015778 -0.06038984 -0.052917548 0.46697307 -0.20400332 -0.4716116 -0.022840053 0.053902425
0.118102424 0.049477957 -0.82750183 0.05923691 0.028105723 -0.03284508 0.1393031 -0.027066864
0.040602647 -0.041658398 -0.024720922 -0.054430846 0.008193527 0.05523412 0.014088573 -0.006887526
-0.0050378283 -0.07089871 0.05264094 0.08717782 -0.041429996 0.021500077 -0.076708324 0.00017410674
-0.20711356 -0.054908033 0.02209281 -0.011076803 0.10118461 0.314751 0.016916322 0.03255582
-0.042107653 -0.032174744 -0.021983298 0.056989666 0.009305734 0.0037784877 -0.103645295 0.14970914
-0.16670404 -0.044521987 0.0507404 0.028791126 -0.27008015 -0.05348955 -0.020184161 0.015854895
0.022600446 0.4559794 0.043359526 0.00054257945 -0.048834585 -0.14135861 -0.09111811 0.06356651
00000000: a0da 53bd 3afc f83c 3ff0 cd3e 8cc7 8dbd
00000010: a3c8 b03b 1973 cfbc 14b2 b0bc b8cb a23c
00000020: 4b95 153d 5716 78bd 48f1 f43b 3847 c43d
00000030: 0313 cdbd 5936 543c b57a a8bc 38d9 fabc
00000040: 8b8d 33bd cdd9 313d 757d 193c 435b a73d
00000050: 3c68 1fbd 2e21 2fbc 352a 53bd 62b0 86bd
00000060: cca1 f3be 490b 26bd 2aec 48bd 1a75 b2bc
00000070: 6355 983e 8fe1 7b3c ad9d a93b 36e0 61be
00000080: 3e2f 3cbe bfa6 56bc 81a7 7dbd 958a fe3a
00000090: 58a5 8f3c 4689 d7bd eb03 10bd 7b0f e9bb
000000a0: e6ad 4dbd 16c7 983d e11f d1bc e9f8 11bc
000000b0: 3c46 7e3e efe3 09bd abd6 4ebd a515 c6bd
000000c0: 1637 a5bc 5d06 b83e 866d 8a3d 3d75 2dbc
000000d0: 7a9d d0be e45a 05bc 06e4 05bf fa84 9a3c
000000e0: 2a55 963d 5779 403c 54ca d2bd c2c0 26be
000000f0: 1d45 6a3d 6188 9e3e 60d2 bdbc 5e14 953b
00000100: 5c31 3e3d 2f1b 59be 7ddb 91bd fe39 7fbe
00000110: 207b 87be ee16 a53f 7f2a 18be 8385 efbc
00000120: f8d1 86be 9ada 3bbd 2892 32be 6ed4 cabd
00000130: d37a 69bd c7b6 85bc e4ee 193f 3794 a83e
00000140: 46b6 45bd 5d69 2840 2d7f 1d3d f5f8 be3d
00000150: d203 213e 10d0 aabd a36b e1bc b236 f6bb
00000160: 63e1 bfbc 3114 e8bb cef2 91be 4964 9c3d
00000170: 2159 05bc 9570 233d 4ac0 f8be d29f a83d
00000180: 500a e1bd 7983 f7bd 9162 bebc ec5b a23e
00000190: fef0 48be 72b8 06bd a822 1cbc 6620 92be
000001a0: 024a 8ebd de19 8b3e 506f e9bd 4e8f 2ebd
000001b0: 3dcf 823c f666 08be 224c 1fbe 16fc 473d
000001c0: b098 013e 05b5 fe3d 4b37 653d 7270 87bc
000001d0: bc7c fa3d 45fd 52bd 2eb4 7c3d a613 b9be
000001e0: 103a 8c3e dd84 553d 2210 f9bc 7c40 583d
000001f0: 84b5 aa3c c522 8c3c 1ff4 10be 7e0f 493b
00000200: b6e7 613e 444a af3d 8082 8bbc 9a10 78be
00000210: ef2c debc a94d f33d 66e0 743e 5ea8 cabd
00000220: 466e 393d 11b2 d73c e401 2f3d b893 75bd
00000230: 51df 16be a587 a6bd d8be d4bb d002 bcbc
00000240: e4b8 473d 8017 513e e9cc 603d 8988 62bd
00000250: 1b56 dbbc c31e c0be a76e 51be 0ec2 803c
00000260: 8ab2 313d c830 383e c182 ccbd ea06 c93c
00000270: 4085 8a3d 46c4 90bc dd62 8cbe 0e7d 96bb
00000280: 7ced 74be f8f3 35bc b2af 2fbe 4aba c8bc
00000290: e8de 0a3d 23b1 cb3d 6c65 783e bbb5 cbbd
000002a0: 35c8 643d 4eae 94bd a8dd 42bc 5ec8 37be
000002b0: 8686 003b 7187 b9bd 5ca9 96bc 2c24 a6bd
000002c0: 9ac2 c43d a0b3 c5bd 0375 a1bd c67e b83d
000002d0: c320 303d 3368 a13e a9b2 97bd e9d2 053e
000002e0: f1e7 803e 9e98 43be 0087 313d 12c0 e3bd
000002f0: d964 e43d e2c6 88bd 3f1e 693e d561 8f3b
00000300: 0608 d03d 565b 77bd 12c0 58bd 1817 ef3e
00000310: 3fe6 50be 1377 f1be 101b bbbc cac8 5c3d
00000320: afdf f13d 66a9 4a3d 29d7 53bf 67a2 723d
00000330: f93d e63c 9088 06bd 79a5 0e3e 54bb ddbc
00000340: f64e 263d ffa1 2abd 8883 cabc e1f2 5ebd
00000350: 253e 063c 2c3d 623d c2d3 663c c1b0 e1bb
00000360: 5e14 a5bb 5833 91bd 079e 573d 498a b23d
00000370: 80b2 29bd ee20 b03c 4119 9dbd 6c90 3639
00000380: 9415 54be 3fe7 60bd fbfb b43c 7b7b 35bc
00000390: e039 cf3d 0b27 a13e 1994 8a3c 4059 053d
000003a0: 1379 2cbd aac9 03bd 5116 b4bc ff6d 693d
000003b0: 1477 183c 81a0 773b fc43 d4bd 5a4d 193e
000003c0: 77b4 2abe b05c 36bd 2ad5 4f3d 5edb eb3c
000003d0: f247 8abe dc17 5bbd 4159 a5bc 20e2 813c
000003e0: 9224 b93c 2276 e93e c299 313d e43b 0e3a
000003f0: c606 48bd 50c0 10be 229c babd 292f 823d
